Experiments/MY/attributes_model_op.pt (torch, 4415 bytes, 10 tensors)

encoder.0.weight f8 [4, 8]
00000000: 527b 0e08 676e dd3f 8354 d347 1c77 d83f
00000010: f1d9 34e8 4466 f0bf 7547 cd23 f9d4 e23f
00000020: e7b3 44c9 64d4 f3bf b5e4 c7f8 e7d8 f3bf
00000030: 6cad 6c91 6ce5 eebf 7606 d49e f660 da3f
00000040: a870 825d c47a c9bf 925f 8b0b 510c c93f
00000050: 00de 552f 4407 edbf eabf 4873 90df c93f
00000060: 12e0 12da 1633 f5bf 9eec d105 0ae3 e7bf
00000070: e173 3a29 b976 e8bf 24cc e79c cce6 c9bf
00000080: fcac c0e8 f025 f63f 87fa 7c9a 62c7 f23f
00000090: 768d 42e4 fe6f d8bf 73a5 40b3 7d62 f63f
000000a0: 2f17 8471 bb89 f4bf d2f5 7977 80ec e8bf
000000b0: 86a3 74dd a336 dfbf 1ed1 938c 0359 fa3f
000000c0: cae1 88af c3d9 d3bf ecf4 5ae0 0737 b1bf
000000d0: 88df d08c 59d9 a23f 887b 27d3 e796 adbf
000000e0: 792c 1674 9762 c2bf 43bd 8a86 33d5 c4bf
000000f0: 7f9b 68fc 1518 d6bf c279 0709 8724 d5bf
0.45986343180441225 0.38226992620668215 -1.024968058639953 0.588497705388575 -1.2393539297147471 -1.2404556005479155 -0.9655058708498649 0.4121681738907691
-0.19905905309577077 0.19568837226574637 -0.9071370052833458 0.20213513974294922 -1.3249729650979174 -0.746464740149708 -0.7644925885430177 -0.20235593472861624
1.3842629520320875 1.173678019971392 -0.3818356732465057 1.3990456583072415 -1.2836260256021423 -0.7788698514484003 -0.4877099669125119 1.6467319003396095
-0.31016628400859914 -0.06724595286773977 0.03681449741310333 -0.057791943097746545 -0.14363377731601526 -0.1627563864653699 -0.34522008561400946 -0.330354460542278

encoder.0.bias f8 [4]
00000000: 7c72 2cb5 14cb f33f d72a 8597 9d83 ed3f
00000010: ce7c 2a51 fb27 f13f 545b e2d8 2f3b d6bf
1.237080295285664 0.9223163565996754 1.072261158995207 -0.34736248188112495

decoder.0.weight f8 [4, 2]
00000000: 8021 ecb7 5542 a83f b1c8 de3f 9a37 d4bf
00000010: feb5 a04d 9bbe f83f 7be8 7cfd 4118 3540
00000020: 4021 a91b 23d9 2b40 8025 ce1a 8748 ff3f
00000030: dc0e 1cc0 a466 31c0 2455 25e2 64e4 07c0
0.04738109464784923 -0.31589370953873713 1.5465348274550474 21.09475693034663 13.924095978160608 1.9552069708900888 -17.40095139203082 -2.9865205447810173

decoder.0.bias f8 [4]
00000000: d81c 3704 85b2 c1bf d346 900c 6f79 1240
00000010: 83c3 37f9 84be 0b40 9664 b612 3d0f 0540
-0.13826048570465477 4.618587681108425 3.4680270643370377 2.6324407064353847

decoder.2.weight f8 [8, 4]
00000000: 3d6c 525c 880f d33f 22e7 50f5 f7a4 1340
00000010: 427b 2c55 580d 02c0 70da 25de d60f 37c0
00000020: 46c0 7645 b0e3 c93f 343c e01c aa8e 1a40
00000030: fdf9 d050 fd33 37c0 c84a 9a0c bf64 15c0
00000040: a055 3251 8963 c3bf cffa 857e 9260 35c0
00000050: 5edd 0568 f95a 1440 770c 08fe cd79 13c0
00000060: b80f b35a fd4b cebf d1f4 6441 1df0 1f40
00000070: 7394 c5da 8d55 29c0 39eb abb3 9066 2bc0
00000080: 43e4 7960 c0a9 debf 4d93 633f d4ae 00c0
00000090: c766 2770 3734 1d40 d0f2 4f3b a28c 2dc0
000000a0: dbab 9ec7 02c4 d43f d362 6e4b ddef 31c0
000000b0: 539f 0a1c 5499 1ec0 e617 ab1e 7ecc 0840
000000c0: dee9 bb48 a604 c83f 10ed 3290 3440 0dc0
000000d0: d4eb 5610 6347 02c0 dd91 d25d 6b8b 37c0
000000e0: 8cad e840 45be bc3f ec1e 2fb7 479d ffbf
000000f0: b8b5 33b1 acc4 39c0 8fbd 0126 985b 1140
0.2978230382520371 4.911102135718268 -2.2565161375236196 -23.061872371903917 0.2022610034159717 6.639320803819874 -23.20308404066053 -5.348385044972652
-0.1514751097171656 -21.37723532458295 5.088842034681276 -4.868949860802892 -0.236694020544858 7.984486600672612 -12.667097889536512 -13.700322737442194
-0.4791108076238439 -2.0853657676947592 7.300992729573131 -14.774675229558312 0.3244635533725934 -17.93697043843242 -7.649734914921129 3.0998499294246242
0.18764189292399086 -3.6563502564946546 -2.284856918003678 -23.54460703268875 0.11227829775514503 -1.9758984714152872 -25.76826007378051 4.339447587829809

decoder.2.bias f8 [8]
00000000: 8d3e d05d 0c96 2fc0 6d25 4541 d486 1640
00000010: 9776 14f6 2543 1240 3726 4850 4f1c 0d40
00000020: 2c74 66a3 b823 4cc0 5883 2c72 78ab 2040
00000030: 052e 8c97 85ee 4140 06fa 4a25 8b2e 2bc0
-15.793063098593189 5.631669063420628 4.565574498175599 3.6388231536882603 -56.27907221319796 8.334903304990505 35.863451903769636 -13.590905347254203

mu.weight f8 [2, 4]
00000000: a175 1d3d 1904 0640 e1a7 6cd5 52b8 f8bf
00000010: 26c8 c5f7 4d75 f9bf 6506 1ba8 57d2 dcbf
00000020: 9847 f956 706b f43f cb6f 526a af71 c0bf
00000030: ff95 177f 8a82 e8bf 584a 760d 4a69 c4bf
2.7520012640586207 -1.5450008713619285 -1.5911388090721714 -0.45033828178939067 1.2762301824008997 -0.1284693974638443 -0.7659351808803762 -0.1594631734593175

mu.bias f8 [2]
00000000: de9f d68a 99aa e33f 3013 22aa 0f0e 903f
0.6145751678168343 0.01567863918218676

gamma.weight f8 [2, 4]
00000000: f17f 52ee 7450 b83f cae1 7fd8 f4ce b7bf
00000010: babf 196b 18b5 a1bf 6571 63a2 b1ab dfbf
00000020: 67c9 3740 67d2 9e3f 0887 0697 04ee 95bf
00000030: adc8 f465 319b 8ebf c289 48b6 a57c d1bf
0.09497767275252024 -0.09300165448792722 -0.03458477313404225 -0.4948543630432794 0.030099499983358948 -0.021415778844704497 -0.01494444458385077 -0.27323286820515247

gamma.bias f8 [2]
00000000: d9ec f9d0 4c9f 80bf 577f 4035 0f52 80bf
-0.008116340758752493 -0.007969015896435101
