Experiments/MY/edge_model.pt (torch, 5631 bytes, 10 tensors)

encoder.0.weight f8 [8, 8]
0	0xbfc8458794b8cf4c	-0.18962187539875186
1	0xbfb73128303369ae	-0.09059382607248409
2	0xbfbc14be9f10d88a	-0.10969153769915088
3	0xbfc4891c46127083	-0.1604342786930638
4	0x3fc5adf4828cbab1	0.16937118887422778
5	0xbff4fc37c1134f65	-1.3115766088494294
6	0xbf930d4459dad689	-0.018605297073654135
7	0xbfe221477886d2b5	-0.5665624002491173
8	0xbfc4df1e38d77d39	-0.1630590226695661
9	0x3f9ebb3daecf859b	0.030011142534822715
10	0x3f8581ef1fdf68c8	0.010501735840012918
11	0xbfd823ebe3b9c4af	-0.3771924709208844
12	0xbfed81e5d67163dc	-0.9221066654528118
13	0x3fe062e04dabd2c3	0.512069846822293
14	0x3fcb90fda2ba5083	0.215362266976289
15	0xbfcfe3be220115ff	-0.2491376558338487
16	0xbfc0ce35a4966983	-0.13129301582814543
17	0xbfeaf02dee0445bd	-0.8418187760127506
18	0x3febe7d8c8bfa0dc	0.8720516129369815
19	0xbfd4c82cc9de9cdc	-0.32471770967317837
20	0xbfa29d2455c2390b	-0.03635514780863688
21	0x3f73e2d73a01d95c	0.004855004052038172
22	0x3f6c77fde7fd9b21	0.0034751853090030514
23	0xbff9dbba51ef04ca	-1.6161444855245457
24	0xbfd36ada8148b6d4	-0.3033968222178889
25	0x3fae639ff6ba35ee	0.05935382735070137
26	0x3fabaa86ca9ec5fb	0.054035389169609226
27	0x3fd797ecb70c0e72	0.36864774585431015
28	0x3fcc6594513f7a6c	0.22184995619950898
29	0xbff3c46a8b5c2f2b	-1.235453171134348
30	0x3fb94faabcf65f67	0.09887187112178496
31	0xbfcac46db0c0206e	-0.209119521430924
32	0x3fcb01923ef24826	0.2109854514461073
33	0xbfe9097a857df149	-0.7824070555939581
34	0xbff1692c0902fafe	-1.0881767608659056
35	0x3fe57ca37a0691e5	0.6714646704972976
36	0x3fb1ad7d33bcc2e9	0.06905348313444971
37	0xbfe59d4c2cacf9cd	-0.6754513619014745
38	0xbf80425e803d4f33	-0.007939089096602103
39	0x3fcd7fed399b211b	0.2304665118483705
40	0xbf7f0c96cfeb2a00	-0.007580365285955626
41	0xbff6d94e96319d26	-1.4280534617372012
42	0xbff6e711bef30395	-1.4314134081798546
43	0x3fdff0a3455fcced	0.49906236433817136
44	0x3fb0024b0cf872d3	0.0625349909464135
45	0xbfd3ef645d982960	-0.31148633136822035
46	0xbf7266c055928777	-0.004492522531252755
47	0x3fcffc5519f57ddf	0.24988807456519077
48	0xbfceaf708d7e8c56	-0.239728993500736
49	0xbfe3069d2d2a527f	-0.5945573694358045
50	0x3fab39b46b270a46	0.05317462738050387
51	0x3fcd7cca192a3ae8	0.23037077168233755
52	0xbfe42706f4af7443	-0.6297640589724626
53	0x3fe4d02c46c458cc	0.6504117376487328
54	0x3fb89f108bb9f1e1	0.09617713366782922
55	0x3fd5de136e249808	0.34167943721911387
56	0x3fd654707ddc20cb	0.34890377322200256
57	0x3f70896df67971b4	0.004037313024664636
58	0xbf8c9b440fa3a114	-0.013968021132726473
59	0xbfb6cbb58b89bece	-0.08904585510912996
60	0xbff94166a4173e3a	-1.5784670266911136
61	0x3fa24ba36435d575	0.03573332403440591
62	0x3fa14776bfd5f13c	0.03374835101837667
63	0xbfbbb3b391719734	-0.10821077633735571

encoder.0.bias f8 [8]
0	0x3fe5fed4d35a5cb4	0.6873573425281365
1	0x3ff29acd20e340b4	1.1627932820011155
2	0x3fc43400232d50f1	0.1578369304430747
3	0x3fecbd02ab8a7fa7	0.8980725622568472
4	0x3fec83001152c753	0.8909912432047612
5	0x3ff51d9c236e9ba9	1.3197289833130788
6	0x3ff363ed2c3bc8f9	1.2118961074707484
7	0x3fe1d75ab691f67f	0.5575383725951751

decoder.0.weight f8 [8, 4]
0	0x402a38d86cb5371d	13.111026188965804
1	0xc0257d21a15c0050	-10.744397203903787
2	0xc00dc45a9fca8ccf	-3.72087597691425
3	0xc01da37520099eea	-7.409626484477238
4	0xc0099800eaf581c4	-3.199220500581051
5	0xc0112b4e851c6ad7	-4.292291717395265
6	0x4023b625acf40598	9.85575619200499
7	0x4024bd551c44ac04	10.369789965994649
8	0xbff9d550c2fb378e	-1.614578973432319
9	0x4003034767ce9fd1	2.3766010389262893
10	0xc009e7a33635750d	-3.238104270464311
11	0x401cb62fc11e84b5	7.177916543471999
12	0x401c329ea9d03a6b	7.049433377584687
13	0xbff31d199063067c	-1.1946044578657213
14	0x4004a02fe68daa34	2.5782163631422694
15	0x400b60e2fe6a676c	3.422307956335251
16	0x402b39cabfa91414	13.612874974622208
17	0xc02f4d03f7589d27	-15.650420884673236
18	0x4007d4996ee1b687	2.978808275473799
19	0xc0117d20dfc22484	-4.372195717072035
20	0xbfe5e51139d05f5d	-0.6842123154810725
21	0x40128425bc18e402	4.629050196665959
22	0x4024884d3832c50a	10.266214138219329
23	0xc01314689e8a6b04	-4.769930340956083
24	0x40189718279a27dc	6.147553080352704
25	0x40126f60d08cad2e	4.608767756067477
26	0x40082f02f7a6e0f5	3.0229548785974836
27	0x4010ad5dc176888a	4.169302962169363
28	0x3ff50158fe1070d9	1.3128290104278248
29	0xc0302d41dadb31ff	-16.176786116137006
30	0x40202422196fb95a	8.070572657478511
31	0x4006b583c11e9ab5	2.8386302077736567

decoder.0.bias f8 [8]
0	0xbfb71ab2ba7c31a2	-0.09025113156184841
1	0x3ff79f2bc2c0fb4c	1.4763600928851757
2	0x40201c3a11d79d70	8.055130536623182
3	0x401210efeabe8bd7	4.516540210609455
4	0x401049746f8eef7c	4.071733229731645
5	0x4000fa401b7ad40f	2.1221925875529517
6	0x3ff8ed611a3935bb	1.5579539322237526
7	0x400ebf7bf0801e8c	3.8434981144999423

decoder.2.weight f8 [8, 8]
0	0xc006bb678660c828	-2.8415060518537025
1	0xc0022bc8b7cc2d5b	-2.2713789328751495
2	0xc00786f214d1775c	-2.9408914209770227
3	0xbfeb8ed8c7e6e198	-0.8611873535474386
4	0xbff1b13b2c9392fb	-1.1057693234699275
5	0xbffa1bf3991c82aa	-1.6318241101181834
6	0xbfe6485c7f0b0c83	-0.6963331681548798
7	0xbfe7838a12cc03b0	-0.7348070494773449
8	0x3ff8fc03db8f164f	1.5615271164437166
9	0xbfc10444903fba77	-0.13294274371533607
10	0x4009cb402b0a9cb3	3.2242434847463186
11	0xc02625e73642b92c	-11.074029632229745
12	0x3ffa6b42a3c22b72	1.6511865994277426
13	0x4011e7fe4fedf45e	4.476556061647981
14	0xc034412b7417baba	-20.254569297593413
15	0x3ff89d47bdefaa4f	1.53839849656892
16	0x40308eddc39f1c9f	16.558071352334647
17	0x401fc4dc7ef8e026	7.942247375431213
18	0xbfe5b1cbabe98ba4	-0.6779535634672027
19	0xc02e0c15b3a2608b	-15.023603070804048
20	0xbffd1c1210e8ff99	-1.8193531666329135
21	0xbfeb1079f2b7e543	-0.845761274394285
22	0x401c7a177935d918	7.119230169211981
23	0x3ffbd4c577c72d1e	1.7394461325482733
24	0xc033d9d2ced07874	-19.850872922798274
25	0x4022fa55567f88b7	9.488932326381798
26	0xbfde545246233e46	-0.47389656876928077
27	0xc02d37c978e9487b	-14.608958986737198
28	0xc0184cf565e947d6	-6.075154869426077
29	0x401389cea1439820	4.8845772931581735
30	0x402191a8787adb5c	8.784488453862359
31	0x40181cb03456b6a5	6.0280159166265195
32	0xc0284e1e74f340b5	-12.152576117223683
33	0x40278f25f1e73144	11.779586371871694
34	0xc005a991aeaa836b	-2.7077973981653733
35	0x40013cac8a03da87	2.1546259672571213
36	0x402b80b6d27bde78	13.75139482271264
37	0xbfeeb751b0ee0a42	-0.9598778205548302
38	0xc01735211b7c3e33	-5.80188410707301
39	0xc028fa37d7c0a587	-12.488707296625547
40	0xc02366f5a93983fd	-9.701092994948334
41	0xbff98fc9e952c957	-1.597604667109939
42	0x4003a082fb7ac664	2.453374828991217
43	0xc00aff3a9cf3d1fd	-3.37462351435738
44	0x4023b522dabc6a91	9.853781543254884
45	0x400ba5f8e1381e76	3.4560411067248493
46	0x401b36d784d71408	6.803556514384589
47	0xc0303b602558966a	-16.231935819747754
48	0x400b18ec77bbd7a5	3.387169776363367
49	0xc011d3a0718ada31	-4.456666730975983
50	0xc019a6ecaefd7054	-6.413012251108814
51	0x3fa5c731fed25f42	0.04253536449067365
52	0xc000eeb0410179af	-2.1165471151900515
53	0x402eccee4d66499c	15.400255602585098
54	0x4010df4dde9e45e6	4.218070486459942
55	0x400617f28f764fbe	2.7616931159954836
56	0xc03ab806e881b3c3	-26.71885541121061
57	0xbfcedc16b47e2585	-0.2410915738403611
58	0x3ff24ea0c212a5d8	1.1441962796183045
59	0x4021ccd4a317413a	8.900059792126388
60	0xc00078c744453f99	-2.058973821032805
61	0xc03c9ac1d99f6d2b	-28.60452041761634
62	0xc01560b3d8862334	-5.344436057269196
63	0x400307822b52fb0e	2.378666246862287

decoder.2.bias f8 [8]
0	0xbfd4d9b02094a233	-0.3257866209192201
1	0x4019ca842f326580	6.4477698683271
2	0xc015884ed4969c96	-5.3831132141996445
3	0xbfee4ad705c9eead	-0.9466357338964905
4	0x40037cf1a2215d6a	2.436007753985611
5	0x400e219252f5ab19	3.7663923722478896
6	0xbffebf07bf316526	-1.9216382473444553
7	0xbff043a911349c80	-1.0165186569300033

mu.weight f8 [4, 8]
0	0xbfd63f634b4daa11	-0.3476188884148153
1	0x3fe3767321e8bfac	0.6082091963089531
2	0x3fee7a6231d2d087	0.952439400969994
3	0xbfc21744bd3c625a	-0.14133509864838595
4	0x3f9d18aa721968e0	0.028414405073228788
5	0x3fe0faa9ca33d028	0.5305985402360465
6	0xbfef330ea7d209f2	-0.9749825742476885
7	0xbfbcc10ca1561cd5	-0.11232069910885241
8	0x3fecd0660387acbf	0.9004392689652362
9	0x3f41b1702f1d7230	0.0005399511121413954
10	0xbfe8005c77d07547	-0.7500440921900599
11	0xbfd42dff660467a9	-0.3153074737798485
12	0x3fdce3ece3683525	0.45141145904274743
13	0xbfe60cdc7764dde8	-0.6890699703134802
14	0x3ff2af61b3f8581e	1.1678177862245387
15	0xbfeffedac87d56ea	-0.9998601833164831
16	0x3fc20d46dd4b7205	0.1410301762142724
17	0x3fd3abea95d10688	0.30736794119375377
18	0xbfde49419a7666c4	-0.47322120746831
19	0x3fe97515b8882d39	0.7955425838603453
20	0xbfe133a08ccf1ba9	-0.5375521421600428
21	0x3fb52e885066da4b	0.08274127924855994
22	0x3fe5a0442438bb33	0.6758137423947573
23	0xbff64bf406af25a1	-1.393543268308669
24	0x3fdb1507673a2f29	0.42315850334920185
25	0xbff21df294e340f8	-1.1323114219595123
26	0xbfde33c5e0f11533	-0.4719099709221439
27	0x3faa01ea6300a8e3	0.050795864663386835
28	0xbfe8888cfc291eb1	-0.7666687893879126
29	0x3fc90ed293b2e5ad	0.19576484882217696
30	0x3fe8b064459f4854	0.7715321883972686
31	0x3feb1bebe94ad0e3	0.8471583897103553

mu.bias f8 [4]
0	0x3fc4c6b4c109d0af	0.16231402803135128
1	0xbfe5a20c847b17d3	-0.676031359435678
2	0xbfeca6ded0d2fda7	-0.8953699186894725
3	0x3fab6b651af605cb	0.05355373338808141

gamma.weight f8 [4, 8]
0	0xbf909d8b3d78ba9b	-0.016225982310226966
1	0xbf9199110965adb7	-0.0171854650483689
2	0x3fb09d2c9b64c1a9	0.06489828866756987
3	0xbf93558023aaf524	-0.018880846192350323
4	0xbfa4863304ae217f	-0.0400863593304761
5	0x3fb1c37fa7ce85ce	0.06938932272762274
6	0xbfb0af64528b429e	-0.06517626776918425
7	0x3fbd84e1a21638d1	0.11530885894009947
8	0x3f9fe6c0989aac38	0.031153687776775935
9	0xbfaaec3559370c44	-0.05258337701845808
10	0xbedac9a5d2dbc27e	-6.386682157120112e-06
11	0xbf577af156e65d27	-0.001433120425280718
12	0xbfaa22436574d8e0	-0.05104265798074592
13	0x3fa247eec9ba7f54	0.035705053448735896
14	0x3f86010148328580	0.01074410440043283
15	0x3fbbdb84f753b5e5	0.10881835020310111
16	0xbf804fd1121ce28a	-0.007964738240489728
17	0xbf9cb2b93fa0afe5	-0.028025526531720763
18	0x3f977fe9c113ebee	0.022948887261900745
19	0x3f7315d0c29bf67c	0.004659476727963626
20	0xbfa521f748903d07	-0.04127476464065621
21	0x3fa4bf813a3c3993	0.04052356563453254
22	0xbf8adbb04a560bf3	-0.013114335316236824
23	0x3fb235518c5fcbd6	0.07112607647995559
24	0xbf94b5642e3c0d48	-0.02022320301240413
25	0xbf95b89d83a2b837	-0.021212063941384165
26	0x3fa341c145108984	0.037611045532929516
27	0x3f5707a88f38881f	0.0014056345070305799
28	0xbfa05eba831b1ebf	-0.031972721580641565
29	0x3fa67860784443b3	0.043887152367580916
30	0xbf9e60e39f4de7f1	-0.029666477773822867
31	0x3fb360915dd9b718	0.07569225827475312

gamma.bias f8 [4]
0	0x3f7f719322bc993b	0.007676672695913485
1	0xbf9ce3eac9e45938	-0.02821318490267652
2	0xbf816ba0e0f323b9	-0.008506066193506233
3	0xbf51d61163871d9d	-0.001088635426741514
