seq_to_seq/edges_only/seq2seq_model.pt (torch, 861121 bytes, 14 tensors)

encoder.embedding.weight f4 [3001, 64]
000000 2e 45 3a 3f 4b 13 85 3e 44 6f c1 bf 88 a8 24 3f
       0.7276181 0.25991282 -1.511208 0.6431966
000010 72 fd 02 3e fa a2 01 40 6c e8 6a bf c0 2e ed bf
       0.12791994 2.0255723 -0.917609 -1.8529892
000020 ce 1a 3c 40 f6 28 4e bd be 21 90 3e 5c 74 65 bf
       2.939136 -0.050332032 0.28150743 -0.89630675
000030 31 3c e2 3f a2 f5 db 3e 08 89 b5 bf 4a 20 2b 3f
       1.7674619 0.4296084 -1.4182444 0.66846144
000040 b8 fa 6e be d6 80 c3 bd e2 44 12 3e 81 ac 81 bf
       -0.23337829 -0.09546058 0.14284089 -1.0130769
000050 a2 52 9f bf 4a ae 06 c0 c0 c5 40 c0 16 2a 93 bf
       -1.2447093 -2.1043878 -3.0120697 -1.1497219
000060 b4 2f f9 3f fc 75 e1 bf e4 8b 70 40 d8 53 13 3f
       1.9467683 -1.7614131 3.7585382 0.5754981
000070 b2 46 87 3f 82 a9 60 c0 be 3f 9c 3f 96 52 36 c0
       1.056845 -3.510346 1.2206953 -2.8487906
000080 54 4a 2f 3f e6 52 80 bd 30 df f1 3f 00 79 50 3f
       0.6847279 -0.062658116 1.8896236 0.8143463
000090 fe e5 99 3f a1 bb c9 3e 22 a2 86 be 30 4c 1c bf
       1.2023313 0.39400962 -0.26295573 -0.6105375
0000a0 ae fa ce bf c6 1a 19 3f 22 71 36 bf 60 0b d5 3d
       -1.6170251 0.5980648 -0.71266377 0.1040256
0000b0 a6 4e 7c 3e d8 53 0c c0 be 54 76 40 1e 96 3a bf
       0.24639377 -2.1926174 3.8489223 -0.7288531
0000c0 84 98 38 bf 2c af 21 3f be ca 2e bc 1d da ab 3f
       -0.7210772 0.63157916 -0.010668455 1.3425938
0000d0 3c e8 86 bf 42 48 b2 3f c6 0f 05 3c 70 01 af 3e
       -1.0539622 1.3928301 0.008121436 0.34180784
0000e0 42 dc aa bf ce 5d 81 3f d2 e3 c6 be af 3d a0 3f
       -1.3348467 1.0106752 -0.38845688 1.2518824
0000f0 68 6e 25 3f e6 8d 59 3e 33 01 d0 3d ec a1 e2 3e
       0.6462159 0.21245536 0.10156479 0.44264162
000100 f2 c5 81 3d ac 49 3e 3f 62 70 af 3e 83 85 9d 3e
       0.06336583 0.74331164 0.3426543 0.30765924
000110 42 61 61 be 51 4b 07 3d da 37 bf bd 4d f7 45 3e
       -0.22009757 0.03303081 -0.09336825 0.19332619
000120 b4 c3 38 bf da a1 c6 3c de f9 0c be a8 58 9e bd
       -0.7217362 0.024247099 -0.13767192 -0.077317536
000130 e5 be 86 be 37 f3 4d ba 4f 04 75 3e f8 a8 c0 be
       -0.26317516 -0.0007856371 0.23927425 -0.37628913
000140 10 d7 b8 be 34 2d f8 3e a4 25 15 bc 20 ea f7 3e
       -0.3610158 0.48471987 -0.0091032125 0.4842081
000150 a8 3c 70 3f 66 c2 16 3f 44 05 62 be 1c 66 d6 3d
       0.93842554 0.5889038 -0.22072321 0.104686946
000160 4e 2e d4 3d 26 ae 87 be 62 24 ab 3e 22 21 3b bd
       0.103603944 -0.26500052 0.33426195 -0.045685895
000170 04 fe cd be 80 8d 26 3e 7d 76 1f be c3 da 46 bf
       -0.4023286 0.16264915 -0.15572543 -0.77677554
000180 0f e7 19 bd d8 b2 11 bf de da 8b bd 2b b1 3d 3c
       -0.03757387 -0.5691352 -0.06828855 0.011577885
000190 22 8e 0e be 9c 4d 44 3f ea 27 55 bf ac 6c 32 3f
       -0.13921407 0.7668092 -0.8326403 0.6969707
0001a0 c8 11 53 3f ca c5 bc bd cc 33 fa 3d aa 46 13 be
       0.8244901 -0.09217413 0.12216911 -0.14382425
0001b0 91 bd aa be d4 ec b2 3e 72 1e 06 bf 38 ea 7e 3e
       -0.33347753 0.3494631 -0.52390206 0.24894035
0001c0 8a a8 99 bc 13 6b 02 bd de ab 82 be 51 b2 16 be
       -0.018757124 -0.031840395 -0.2552175 -0.1471646
0001d0 ee d3 fd 3e 36 9e 51 3e f2 24 8b 3e 6e 48 77 3e
       0.49575752 0.20470509 0.27176625 0.24148723
0001e0 28 5d 33 3e b8 25 6d bd bc a5 24 bf cc 83 48 3e
       0.17516005 -0.0578973 -0.6431539 0.19581527
0001f0 17 14 a4 3e af 2f 88 be 6a 13 aa be 77 70 ef 3e
       0.32046577 -0.2659888 -0.33217937 0.4676549
000200 59 b2 9e be 3e 98 09 3f bb 5c 36 bf f2 eb 23 3e
       -0.30995443 0.5374793 -0.71235245 0.16007975
000210 68 ee 21 bd af 21 a2 be 9a 7a 18 bf 4c c4 82 bc
       -0.039534003 -0.31666324 -0.59562075 -0.015962742
000220 9d 83 11 bf c4 7a e9 3e 96 17 69 bd 86 ca 21 3f
       -0.5684145 0.45601475 -0.05690726 0.6319965
000230 99 c3 a2 3e 61 4d 43 3e ec a7 91 3e 26 2f 70 be
       0.31789854 0.19072486 0.28448427 -0.23455486
000240 1f de 49 be 5c 67 65 3e 90 e5 4d be c0 4b 0e 3e
       -0.19713639 0.2240271 -0.20107102 0.13896084
000250 d4 ea 17 3f 0e 07 f3 3e 27 f5 0c 3f b0 64 18 3e
       0.59342694 0.4746632 0.5506157 0.14882159
000260 4a 6e 23 be 45 48 93 3c bc bb a0 3e ec bb 3c 3e
       -0.1596004 0.017978797 0.3139323 0.18431062
000270 d8 08 ae bd 62 c9 59 3e 1d 94 58 be e0 65 6c be
       -0.084977806 0.21268228 -0.2115025 -0.23085737
000280 52 f6 2e 3c 39 9e 06 be 48 df 76 3c ba e8 0e bf
       0.0106788445 -0.13146295 0.015067883 -0.5582386
000290 40 c4 8d 3d 98 04 29 3f ba 47 0d bf fc 9a c5 3e
       0.06922197 0.66022635 -0.5518757 0.38594806
0002a0 e6 e7 b6 3e 08 63 b4 be d8 f6 8a be 6d e4 e8 3d
       0.357238 -0.35231805 -0.27141452 0.11371694
0002b0 60 58 ae be e4 90 21 3f f6 72 f3 3d 42 09 c1 3e
       -0.340518 0.6311171 0.118871614 0.37702376
0002c0 0e 7f c2 bd c0 05 4b 3e 73 9b 0f bc 99 d5 91 3e
       -0.0949689 0.19826412 -0.008765089 0.28483275
0002d0 e7 16 31 bd ae c5 25 3f ec 9c 74 be c6 92 07 3f
       -0.043234732 0.6475476 -0.23887986 0.52958333
0002e0 58 d6 67 3e aa 0f b7 be 58 25 96 be a0 ab c2 3d
       0.2264036 -0.35754138 -0.29325366 0.09505391
0002f0 5a 33 1f 3f e8 d0 c0 be 94 34 eb bd 6a 1c f4 3e
       0.6218773 -0.37659383 -0.11484638 0.47677928
000300 29 71 ef 3d e4 c9 26 3f 20 a8 56 be ce 1b 23 3f
       0.116915055 0.6515181 -0.20962572 0.637143
000310 4a e4 f6 be be d7 6e be 20 71 17 3e 24 be 0e be
       -0.48221046 -0.23324487 0.14789248 -0.1393972
000320 b6 a0 b2 3e a4 f6 54 be 34 e8 24 3e d9 09 82 3e
       0.34888238 -0.20797211 0.16104203 0.25398138
000330 a6 2b c7 3d d8 c8 e7 bd a1 e8 81 3e 48 b8 52 be
       0.09725122 -0.11317605 0.25372794 -0.2057811
000340 c8 75 00 bf dc 8c d3 3d 0c 85 85 be 84 1e 2c 3e
       -0.5017972 0.10329601 -0.2607807 0.16808516
000350 63 71 47 3e d2 10 1e 3f 91 11 cd 3e 6f eb 10 be
       0.19476847 0.61744416 0.40052465 -0.14152311
000360 c6 ab b3 3e ae 52 2c bd 4e 33 14 3f be 7e 9a 3e
       0.3509199 -0.042071037 0.57890785 0.30174822
000370 d2 e4 5d bd da 4b 57 3e c5 87 5a 3e 84 bb 0e bf
       -0.0541733 0.21025029 0.21340854 -0.55754876
000380 23 03 0d bf e8 f8 8c be 36 d2 d0 3e 80 98 97 be
       -0.5508291 -0.2753365 0.40785378 -0.29608536
000390 10 2c c4 be 34 59 26 3f d0 15 15 bf bb ab 8a 3d
       -0.38314867 0.64979863 -0.5823641 0.06771036
0003a0 d4 fd 22 3f ab 20 e6 be aa fe 15 3e bc 0a 18 3e
       0.6366856 -0.449468 0.14647928 0.14847845
0003b0 15 2f a9 bd 14 c0 91 3e 64 bb 6e be 7a 41 68 3e
       -0.08260933 0.28466856 -0.23313671 0.22681227
0003c0 58 0e a8 3c fc 4e 04 3e 3a ff 1d be 52 44 08 3f
       0.020514652 0.12920755 -0.15429392 0.5322925
0003d0 0c 33 95 3e 68 75 f2 3e 36 fb ca be a8 cb 3a 3e
       0.29140508 0.473552 -0.39644784 0.18241751
0003e0 62 5e bf 3e f6 3c f8 3e 2c f2 3a bf 5f a5 87 be
       0.37376696 0.4848401 -0.73025775 -0.26493356
0003f0 64 6d 21 3f bc 46 17 bf 5b 42 ac 3e 18 41 aa 3e
       0.6305754 -0.5909231 0.33644375 0.33252788

encoder.gru.weight_ih_l0 f4 [90, 64]
000000 3a 97 62 3f 23 c8 fa be 11 81 0e 3e 13 16 9a bf
       0.88512003 -0.48980817 0.13916422 -1.2037987
000010 1f 6e 6e be 14 3a 85 be f2 68 3d be 87 1c 0d 3f
       -0.23284195 -0.26020873 -0.18497065 0.55121654
000020 f9 2f b9 3d db 82 dc be 39 a1 8d 3f c4 26 bf 3d
       0.09042353 -0.43068585 1.1064826 0.09333566
000030 b2 09 66 3f f9 b8 69 3f 0b 2b 19 3e e0 b5 75 be
       0.89858544 0.9129787 0.14957826 -0.23995161
000040 88 30 30 3f 4d 1c 16 3d dd d2 ab 3e 8c cb 46 bf
       0.6882405 0.036648083 0.33559313 -0.7765434
000050 91 8b cb be 16 d3 ad 3e 8e 73 db 3f 33 98 a6 bf
       -0.39754918 0.33950108 1.714464 -1.3015198
000060 f6 ec 9a bf 5b a5 a3 3f 2c 64 9c 3d 75 57 02 3e
       -1.2103565 1.2784837 0.07636294 0.12728675
000070 9b c3 a8 3e 1a 13 b2 be f1 08 8d 3f 13 7e 3a 3f
       0.32961735 -0.34780198 1.1018354 0.72848624
000080 44 f7 07 3f 30 8e 2f 3f bc bd 41 3f 2d dc fb 3f
       0.5311167 0.68576336 0.75680137 1.9676567
000090 b3 e3 0c 3f 4f 44 8c bf 24 5b ca 3d d1 f7 a5 3f
       0.5503494 -1.0958346 0.09880665 1.2966253
0000a0 47 24 38 3e ad 83 68 3e 64 28 0f 3e eb d5 e1 3e
       0.17982589 0.2270648 0.13980252 0.4410852
0000b0 bb f5 a9 3e 53 23 99 3f 54 ae 09 3f bb 17 af be
       0.3319529 1.1963905 0.5378163 -0.34197792
0000c0 96 bb d6 3d 78 5a 1d 3e f2 bf 8e be 5b 42 21 c0
       0.10484998 0.15366542 -0.27880818 -2.519675
0000d0 4d 69 c5 bf f4 9c cb bf 66 b0 a1 bf 65 85 49 3f
       -1.542276 -1.5907273 -1.2631958 0.7871917
0000e0 1f db 9d 3f ea 2c 69 be 14 a6 61 3f 8a 01 5c 3f
       1.2332495 -0.2277104 0.8814404 0.8593985
0000f0 82 df 33 3f 9a ca 07 be 2d 47 7f bf 43 70 7b 3e
       0.7026292 -0.1326088 -0.9971798 0.24554543
000100 7a de f8 be a5 eb 32 be e9 eb bc 3d ab a1 bf 3e
       -0.48607236 -0.17472704 0.09224684 0.3742803
000110 ed d7 00 bf eb db b8 3d 55 fd bd bf 1e 88 df 3e
       -0.50329477 0.09026321 -1.4842936 0.43658537
000120 0a 33 a3 bf ea 84 ba bf 5d 3a d6 bf 86 be 5e 3e
       -1.2749951 -1.4571812 -1.6736561 0.21752366
000130 44 c1 9a bf 4f fe 1d 3d 69 78 09 be 83 f2 49 bd
       -1.209023 0.038572606 -0.13424839 -0.049303543
000140 2c ec 64 3f ce a2 2e 3f 32 83 5c bf 3c 2f a8 bd
       0.8942287 0.6821717 -0.8613769 -0.08212134
000150 e0 96 b1 bf 1d 09 61 bf 73 21 66 bf 57 53 5c be
       -1.3874168 -0.8790453 -0.8989479 -0.21516167
000160 8e ca e0 3d b6 6e 3b 3f 48 2f d4 3e 82 6d 71 3f
       0.10976134 0.73215806 0.41442323 0.9430772
000170 aa cb 05 3f ac 1f e6 3b 44 7f f9 3e 20 27 0b 40
       0.5226389 0.0070228186 0.48729908 2.174263
000180 a5 25 0e 3f b4 b4 de be f1 ed cb bf f6 b5 c4 3e
       0.5552619 -0.4349724 -1.5931989 0.38420075
000190 1c 40 52 3f a3 78 88 be 8d 0c b5 3e 21 07 4d 3e
       0.82129073 -0.2665454 0.35361138 0.2002225
0001a0 d7 86 e7 3e e9 ff 76 3f c3 89 b7 bf 96 79 8a be
       0.45220062 0.9648424 -1.4338917 -0.27045888
0001b0 bb 1e 0c 40 3f 52 32 bf f7 c6 ef 3e 2c 08 98 bf
       2.1893756 -0.6965675 0.46831486 -1.1877494
0001c0 3c 13 4b 3f b6 42 b6 bf 30 4c 8a 3f 26 45 5a 39
       0.79326224 -1.4239109 1.08045 0.0002081586
0001d0 83 7c b0 bd d9 50 5c bf c6 91 97 bf 7e d0 41 bf
       -0.08617499 -0.86060864 -1.1841362 -0.7570876
0001e0 ca b9 fa 3e d3 49 37 bf c8 4a 59 3e 25 c2 20 c0
       0.4896987 -0.7159702 0.21219933 -2.5118496
0001f0 cd e7 17 3f 51 dd e1 3e 56 69 84 bf 64 e5 03 3e
       0.59338075 0.44114164 -1.0344646 0.12880474
000200 bd b4 11 bf bb 79 59 bc 99 bc c4 3e da 13 aa 3e
       -0.5691641 -0.013273652 0.3842514 0.3321827
000210 5d a6 7a 3e d4 64 f8 3e 21 3e 95 bf 35 a6 2f 3f
       0.24477525 0.48514426 -1.1659585 0.68612987
000220 98 a1 21 3f a0 b0 c0 3e cc 55 85 bf 3c b1 e3 bf
       0.631372 0.37634754 -1.0416808 -1.7788463
000230 2b 3d 18 bf 4a 5f ae 3e e5 8b a9 be 09 24 54 3f
       -0.59468335 0.34057075 -0.33114544 0.82867485
000240 d2 39 89 3f 47 e8 d5 3e 46 42 0b 3e 78 ba 14 bf
       1.072077 0.41778776 0.135995 -0.5809703
000250 65 80 15 bf c1 12 7f 3e d4 e7 ac be 42 16 27 3f
       -0.5839904 0.24909498 -0.3377062 0.6526834
000260 a6 54 ca 3c 70 fa 72 3e 0f 11 f0 3e 5e 19 42 3f
       0.024698567 0.23728347 0.46888015 0.7581996
000270 39 01 b2 3e 71 84 9a bf 43 d4 9e 3e 9f f8 fb 3e
       0.34766558 -1.2071668 0.31021318 0.4921312
000280 14 4a dc 3e 72 c1 aa 3f ba 2b a0 3b 68 82 21 3e
       0.43025267 1.3340285 0.004888025 0.15772402
000290 b9 16 0b be 79 57 e6 3e e6 18 36 3f 54 23 78 bf
       -0.13582887 0.4498861 0.7113174 -0.96928906
0002a0 0d 3c 0b 3e a2 a0 f2 be ea 5a 15 bf 77 8e 06 3f
       0.13597126 -0.47388178 -0.5834185 0.52561134
0002b0 8b a2 08 3f 0e a1 53 3e 04 66 15 3e 49 32 10 3e
       0.5337302 0.20666906 0.14589697 0.14081682
0002c0 41 36 c3 3e 39 7a 0d 3e 49 57 9b 3f cf f3 ef 3e
       0.3812733 0.13816155 1.2136012 0.468657
0002d0 48 2f b4 be d5 6d 86 bd 1c df ec be 70 59 ac be
       -0.35192323 -0.065639175 -0.4626397 -0.33661985
0002e0 02 3c 27 bf 45 a5 c1 3c fd 30 9c be 59 b9 d5 be
       -0.6532594 0.023638377 -0.30506125 -0.41742972
0002f0 dc 30 a5 be 97 b4 aa 3f 1a e2 02 3f b3 5e d0 bd
       -0.3226384 1.3336362 0.51126254 -0.101743124
000300 9f fc 22 bf f9 01 7f be 89 a8 f4 be ae 34 9a 3f
       -0.6366672 -0.24903096 -0.47784832 1.2047327
000310 43 37 f8 be 3b 46 7c be 5b b3 73 3e 9e 42 c6 be
       -0.4847966 -0.24636166 0.23798887 -0.387227
000320 01 1d b9 3e 97 1e ff 3e 88 8f 08 3f 82 e4 51 3f
       0.3615494 0.49828026 0.5334401 0.819893
000330 24 f5 22 c0 37 33 0f be e3 4f 6c 3f 5b 9b 82 bf
       -2.5462122 -0.1398438 0.923094 -1.0203661
000340 52 4f 4c bf 89 84 1f 3e 81 ca d0 3f 59 b8 a7 bd
       -0.79808533 0.15577902 1.6311799 -0.081894584
000350 84 04 e8 3e ee 3d 4b 3e bf c1 c1 bf 7d b6 c2 bf
       0.45315945 0.19847843 -1.5137252 -1.5211941
000360 4f 70 ce be 88 37 6a 3f c8 77 2e bf 65 cb 1c 3e
       -0.4032006 0.91490984 -0.6815152 0.15311964
000370 4a df 91 3f 97 26 ba 3e 0b 7c 58 bf 37 44 5c 3e
       1.1396267 0.36357567 -0.84564275 0.21510397
000380 ed 55 8c be 6e 59 0b 3d f4 6a 5a 3f 28 1a 0a 3f
       -0.27409306 0.034020834 0.8531945 0.5394616
000390 2c df 82 3f 67 cc 2d bf 84 7f b1 3e 0b 8f 5c 3f
       1.0224357 -0.6789002 0.346676 0.86155766
0003a0 c9 a4 18 3e e5 0e 08 3f 60 36 89 be f4 f0 15 bf
       0.1490661 0.5314773 -0.26799297 -0.5857079
0003b0 78 f9 8f bf 55 0a bf be 41 c7 26 3f de 9e 3e be
       -1.1248007 -0.3731257 0.6514779 -0.1861529
0003c0 ad 6c 13 be 06 af 90 3f 3f 3f 13 3f e6 6b bf be
       -0.14396925 1.1303413 0.5751838 -0.37387007
0003d0 cf 3e a3 3e 8a 59 8d be f0 93 74 be e3 f0 d9 3f
       0.31883857 -0.27607375 -0.23884559 1.7026638
0003e0 b6 08 48 be f6 e4 a1 bf ad 0d a0 bf ea de 9f 3e
       -0.19534573 -1.2647998 -1.2504174 0.31224757
0003f0 ed c8 37 3f 8c b0 21 bf 16 aa 49 bf f2 f7 a7 3f
       0.71790963 -0.63160014 -0.78775156 1.3122542

encoder.gru.weight_hh_l0 f4 [90, 30]
000000 db e4 24 40 34 0b 1c bf 56 ff 9c 3d 22 f3 ab 3e
       2.5764682 -0.60954595 0.07665889 0.33583933
000010 cb cc 4c bf 54 b2 86 3f 19 96 0a be 8f 1a 90 3e
       -0.7999999 1.0523171 -0.1353382 0.28145263
000020 82 ad 52 bf 5c 5d 48 3e c3 e2 7a be 74 68 b0 3e
       -0.82296 0.19566864 -0.24500565 0.3445469
000030 bb 00 1c 3d 11 e2 00 3e 9a ce fb be 8a b9 6a 3d
       0.038086634 0.12586237 -0.49181062 0.05730585
000040 57 03 75 3e 42 6a 38 3e 50 cd 21 3f e1 92 34 bc
       0.23927055 0.18009284 0.63203907 -0.011021347
000050 47 5e 79 3f c6 28 85 3e cb 60 30 bf c2 92 1b bf
       0.9740948 0.2600767 -0.68897694 -0.6077081
000060 21 ab cf 3c dd 9e 8b 3d 5a 80 34 3f 38 a0 77 3f
       0.025350155 0.0681741 0.7050835 0.9672885
000070 3f 4a e9 be 80 ce 3a 3e 65 97 f1 3d cf f6 80 3f
       -0.45564458 0.18242836 0.11796454 1.007532
000080 35 f9 d7 3e 0a d5 87 bd 4f 16 19 be 7c 01 ce bd
       0.42182317 -0.06632431 -0.14949916 -0.10058877
000090 01 79 57 be 13 6a d6 bd 5d 69 d5 bd e9 a9 18 bd
       -0.21042253 -0.10469451 -0.10420487 -0.037271414
0000a0 c9 23 ee 3e e7 46 43 3e 51 f5 af 3d 87 04 88 3c
       0.46511677 0.19070016 0.08591712 0.016603721
0000b0 b6 f7 be 3e ee 0c 27 be 1b ba eb 3e 67 67 f9 be
       0.37298363 -0.16313526 0.46040425 -0.48711702
0000c0 f9 9a 58 3e 0e 20 43 bd b1 f4 fe bc 43 6c 83 bb
       0.21152867 -0.04763799 -0.031122537 -0.0040107085
0000d0 01 ce 8b be c8 78 b9 be 0c 15 33 3f e9 d2 4f bd
       -0.27305606 -0.3622496 0.6995399 -0.05073825
0000e0 9c b3 f4 3d 6e 38 a7 be c2 98 5d be 81 b5 36 3f
       0.1194832 -0.3266024 -0.21640304 0.71370703
0000f0 43 13 a5 be 66 14 09 bd 8e 23 8a bf f3 2c a9 bd
       -0.32241258 -0.03346672 -1.07921 -0.082605265
000100 ce ea a5 bc 6b ad da 3e 41 a9 63 3e 6b 3c db 3e
       -0.020253565 0.42710432 0.22232534 0.42819533
000110 55 13 4d be 84 f9 bd be 20 58 77 3e 25 e0 71 3e
       -0.20026906 -0.37104428 0.24154711 0.2362066
000120 f8 5c 88 3d 6d 6a 9d be 94 61 4b 3e c2 c4 b9 3e
       0.066583574 -0.3074526 0.19861442 0.36282927
000130 54 15 53 be 00 be a3 bc f2 fc 4c bd df 05 80 be
       -0.20613605 -0.01998806 -0.050045915 -0.2500448
000140 62 f7 5c 3d 2f 3c 38 3e d8 c8 80 3e a6 f4 11 3e
       0.05394686 0.17991708 0.25153232 0.14253482
000150 d4 26 0b 3f c7 4b d4 bd 2a b9 8e 3d 9b a3 bb 3e
       0.5435612 -0.10366016 0.06968911 0.3664826
000160 b6 f2 12 bf 0a a2 b9 3b 73 e4 df 3e 20 fa 19 bc
       -0.574016 0.0056650685 0.4372898 -0.009398013
000170 68 be 5d bf 91 ff dc 3f 08 f3 7a bf b5 6f db 3e
       -0.8661866 1.7265493 -0.98027086 0.42858663
000180 98 06 ef be 67 87 36 3e 6c 33 78 bf 0d 8c d4 3e
       -0.46684718 0.1782509 -0.96953464 0.415131
000190 23 ed 1c 3f 96 e0 40 bd 46 cd 69 be 51 3b ee 3d
       0.6129934 -0.04708918 -0.22832212 0.116324075
0001a0 bd 96 b1 3e 7b f0 d4 3e 57 f2 9e 3e e8 82 54 be
       0.34685317 0.41589722 0.31044266 -0.20753062
0001b0 d4 68 4d be 8e c3 a3 3e 4c e8 8b 3f 05 be 74 3e
       -0.2005952 0.31985134 1.0930266 0.23900612
0001c0 32 3f 6e bf 00 d0 d3 bd 48 26 4b bd ab 05 cf be
       -0.9306518 -0.10342407 -0.049597055 -0.40434012
0001d0 71 7d 2e be ce 7c d7 3f de de 85 be 20 fa e8 3e
       -0.1704004 1.6834962 -0.26146597 0.4550333
0001e0 84 51 0d bf 33 68 54 bd 37 57 3f 3e 48 a2 6f be
       -0.5520251 -0.051857185 0.18685614 -0.23401749
0001f0 75 97 85 be 53 29 5f 3d 78 13 29 3d 11 17 86 be
       -0.26092115 0.05448277 0.041278332 -0.26189473
000200 a8 f7 26 be a1 6d be bd 48 b6 aa 3e 57 37 33 be
       -0.16305411 -0.09298254 0.33342195 -0.17501579
000210 1b d8 99 be f6 ea 22 be 30 2c 9f bc d6 71 c2 3e
       -0.30047688 -0.15909943 -0.01943025 0.37977475
000220 24 8a e3 3e 0e 7f 75 3e 79 2a 40 3e c4 c1 72 3e
       0.4444133 0.23974249 0.18766202 0.23706728
000230 02 2b a6 bd 17 d5 87 bd ae ba 27 bf 39 ec 1e be
       -0.08113672 -0.066324405 -0.65519226 -0.155198
000240 85 3b ff bd 6b e9 94 3e 3e f3 38 bf da b1 94 be
       -0.12462524 0.29084334 -0.7224616 -0.2904194
000250 6f f4 b5 be dc d3 02 3f 67 1a 92 3e 77 d8 e9 3d
       -0.3553805 0.5110452 0.28535768 0.114182405
000260 d2 1a 59 be b3 c2 a8 be 53 70 07 3f 55 16 ac bf
       -0.21201637 -0.32961044 0.5290577 -1.3444315
000270 33 4c 5f 3f 39 0e 86 3e f7 5e 4b 3e a1 0e 00 bf
       0.87225646 0.26182726 0.19860445 -0.5002232
000280 ae 89 67 3e c7 ce 3b bf 05 54 9c 3e 75 64 03 3c
       0.22611114 -0.7336239 0.30532852 0.008019556
000290 b3 dd 93 be e4 da 7a be f0 32 da be 8a c4 be 3e
       -0.2888008 -0.24497563 -0.42616987 0.37259322
0002a0 25 36 8d 3e 9b e4 05 bc b6 46 a5 be b0 a3 d5 3e
       0.27580371 -0.00817218 -0.3228051 0.41726446
0002b0 6d 5d f1 3e 1e 19 d7 3e 19 ad a5 3e c4 0a 51 be
       0.4714159 0.4201135 0.32358626 -0.20414263
0002c0 0a 55 1c bf b5 c5 fd bd 78 21 27 3f 48 4a 90 3f
       -0.6106726 -0.12391225 0.65285444 1.1272669
0002d0 50 91 5b bc 28 48 05 bd 50 c2 78 3e f2 0b 37 bf
       -0.013401344 -0.032539517 0.24292874 -0.715026
0002e0 7d 60 14 3f 8e b9 c4 bd 72 1f 8f bf ff dd 86 be
       0.5795973 -0.09605704 -1.1181471 -0.26341245
0002f0 cf 21 f4 3d 6f c5 92 3e 8d 0a 7b bd 77 de 21 be
       0.11920511 0.28666255 -0.06128936 -0.1580752
000300 da b6 9e 3e 0b 4e e0 3e 1e 7e 3f 3c 8e b4 e2 bc
       0.3099888 0.43809542 0.0116877835 -0.027673986
000310 95 1c 59 be f2 69 9f 3e 13 77 0b 3f ff 63 81 bd
       -0.2120231 0.31135517 0.5447857 -0.06317901
000320 23 00 f8 be bf fd 02 3f e0 20 06 3f fa 29 f2 3c
       -0.48437604 0.51168436 0.52393913 0.029561032
000330 fe b1 c4 3e 88 1d cb be 25 16 ac 3b 70 f0 63 bf
       0.38417047 -0.39670968 0.0052516633 -0.89038754
000340 6b 52 42 3e 4c 5b 14 be 7a 08 57 3e 3b ff 04 3f
       0.18976752 -0.14487952 0.20999327 0.5195195
000350 c5 b2 73 be 37 b7 eb bc 6e 5a c9 be 0f 7c 68 3e
       -0.23798664 -0.028773887 -0.39326805 0.22703575
000360 85 78 0c be 56 f5 8e 3f ce f8 ff be 45 62 98 be
       -0.1371785 1.116862 -0.4999451 -0.29762474
000370 8d 5e 9b be 1a 30 2a be cf 3a 29 bf e0 ef cf be
       -0.30345574 -0.16619912 -0.6610536 -0.40612698
000380 ef 08 08 be 0b 6f ec 3d 56 71 52 be 84 64 fa 3c
       -0.13284658 0.11544617 -0.20551047 0.030565508
000390 88 fa af 3e 59 0f 8e 3e fc aa 9a 3f 41 a3 22 bf
       0.34370828 0.27746084 1.208343 -0.63530356
0003a0 17 7f 0c bf bc bd 8b 3e 42 a2 9d 3e 9c a5 1d 3d
       -0.54881424 0.27293193 0.30787855 0.038488016
0003b0 d3 56 9e bf 74 df a2 3e 18 90 ba be 27 0d 9d bc
       -1.2370247 0.31811106 -0.3643806 -0.01917131
0003c0 0e 83 87 3e 00 c5 33 be 42 8d 03 bf a2 20 4b 3f
       0.26467174 -0.17555618 -0.5138742 0.7934667
0003d0 b3 bf 16 bd ca 05 13 3e 23 92 14 3e 44 62 8a be
       -0.036803912 0.14357677 0.14508872 -0.27028096
0003e0 3f 22 fd 3d 6d b0 bb be 83 fc 4b 3d 44 9b 79 3d
       0.123600475 -0.3665804 0.04980136 0.06093909
0003f0 e6 d3 4f 3e dd 15 24 3f a3 07 82 3e b1 6b e8 3e
       0.20295677 0.6409586 0.2539645 0.45394662

encoder.gru.bias_ih_l0 f4 [90]
000000 9b 92 b2 be 3b 3b e1 be 0d b3 87 bf 5b 1a 24 be
       -0.34877476 -0.43990502 -1.0601517 -0.16025679
000010 ca 65 aa bf 5d e4 cd 3f a7 86 ad 3c 57 67 0f bf
       -1.3312314 1.6085316 0.021182371 -0.5601706
000020 e8 1a 36 bf 80 9a c2 bf 97 c2 4e bf 61 49 63 bf
       -0.71134806 -1.52034 -0.8076567 -0.8878384
000030 b3 87 aa bc f8 12 ac bc 1f 59 2a bf f5 4f 35 bf
       -0.02081666 -0.021005139 -0.6654224 -0.7082513
000040 fb 62 3d bf 17 db f1 be ee 3e 0f bf fc bc 2a be
       -0.7397916 -0.47237465 -0.559554 -0.16673654
000050 41 f5 54 bf f9 64 b3 be 58 55 d2 be 57 67 2d bf
       -0.8318673 -0.35037974 -0.41080737 -0.6773581
000060 2d 4e e7 be 43 1a 26 bf 98 3b 2a bf c8 ca c0 be
       -0.4517683 -0.6488382 -0.6649718 -0.3765471
000070 1d e2 8d bf 9e 1a f1 be de 80 b3 3f ba 51 8c 3d
       -1.1084629 -0.4709062 1.4023702 0.068515256
000080 49 b3 c3 be 39 20 db 3e ab d4 14 bf ae 97 84 bf
       -0.3822272 0.4279802 -0.58137006 -1.0358789
000090 9a 8f d9 3d fe 7c 0f 3f b5 17 d7 be aa 6b ee be
       0.10623093 0.560501 -0.42010275 -0.46566516
0000a0 3e 8d a1 be 7a e6 65 be b2 04 9b bd 7e 23 d5 3f
       -0.31553072 -0.22451201 -0.07569255 1.6651456
0000b0 43 a0 c6 be 09 7a 3b be 8c 62 03 bf 29 2e 10 bf
       -0.38794145 -0.18308271 -0.51322246 -0.56320435
0000c0 ea 9b f8 3f 00 28 b6 3f 46 61 10 bf 49 26 2a 3d
       1.9422581 1.4230957 -0.5639843 0.041540418
0000d0 f6 2f ea bd 0b 79 07 be 8c 62 34 3d 89 33 a8 3e
       -0.11434929 -0.13229768 0.044039294 0.32851818
0000e0 88 6f fb 3f a7 37 3e bf 33 9c 87 bd a5 1f 7b be
       1.9643412 -0.7430367 -0.066215895 -0.2452379
0000f0 1c f0 24 bd 60 44 cd 3e c6 06 4f bf 11 e0 0b 3f
       -0.04026805 0.40091228 -0.8086971 0.54638773
000100 05 3a 9b bd ea 3a 94 3e cd e9 ea 3e 97 b0 a3 be
       -0.07579426 0.28951198 0.458815 -0.31970665
000110 06 b2 c0 3e d9 c3 b9 be 5c 7b cd bd c5 6b a2 be
       0.3763582 -0.36282232 -0.100332946 -0.31722847
000120 d9 8b d0 3d 3b ed 2d 3f 3e 28 73 be d7 e3 ea 3d
       0.10182924 0.6794011 -0.2374582 0.11469238
000130 ae 0f 7d 3e b2 1b 5b be 4d e7 10 bf 1e 80 48 bf
       0.24713013 -0.21397284 -0.56602937 -0.7832049
000140 a3 73 35 bf 02 6f 2b 3f 79 6b 2e 3e a2 7b f4 be
       -0.7087957 0.6696626 0.17033185 -0.47750574
000150 6d ea f7 be d5 c8 be 3e ba b9 27 bf 73 99 25 bf
       -0.4842104 0.37262598 -0.6551777 -0.6468727
000160 e4 be c1 be 0d 26 c8 3d
       -0.3784095 0.097728826

encoder.gru.bias_hh_l0 f4 [90]
000000 5f 33 11 be 01 4e c8 be 86 8f 79 bf 44 1c fc bd
       -0.14179753 -0.39122012 -0.97484624 -0.12310079
000010 c9 7b a3 bf 45 91 bc 3f 20 bf 83 be 9a cc d1 be
       -1.2772151 1.4731833 -0.25731754 -0.4097641
000020 a6 d1 3f bf 64 fd b4 bf 79 c1 28 bf b2 6e 47 bf
       -0.74929273 -1.4139829 -0.65920216 -0.7790328
000030 27 6d f3 3d a2 9d 45 bd 31 5d 28 bf 05 00 dc be
       0.118860535 -0.048246033 -0.657672 -0.42968765
000040 d5 e9 62 bf 77 2e 3e be 73 2d 29 bf 0b 64 8d bc
       -0.8863805 -0.18572412 -0.66084975 -0.017259618
000050 e8 b3 4e bf 28 3f d9 be da 0b df be 63 71 16 bf
       -0.80743265 -0.42430997 -0.4356373 -0.58766764
000060 bb f9 ce be 7f 3f 61 bf 81 d2 1d bf 68 ab e3 be
       -0.40424904 -0.8798751 -0.6164933 -0.4446671
000070 b4 db 9c bf 91 12 34 bf 62 a2 bf 3f 9c 9c 0e be
       -1.2254548 -0.7034083 1.497143 -0.13926929
000080 16 9c 2c bf 41 bc 21 3f 40 0a d4 be 29 f9 83 bf
       -0.6742567 0.6317788 -0.4141407 -1.0310413
000090 9e 9b 74 be a6 70 0f 3f 6c 33 88 be e7 b8 bd be
       -0.23887488 0.5603126 -0.26601732 -0.37055132
0000a0 3e 1b 02 bf 73 28 05 be 0f 44 85 be a2 f9 c6 3f
       -0.5082282 -0.13003711 -0.26028487 1.5544932
0000b0 2b ff 38 be 22 2b f8 bd 1d 42 13 bf f3 bf 53 bf
       -0.18066089 -0.12117602 -0.57522756 -0.82714766
0000c0 2e a8 e0 3f a6 71 c5 3f c8 7c 0e bf a6 92 a7 3c
       1.7551324 1.5425308 -0.5565915 0.02045567
0000d0 e7 d8 97 be 66 34 29 be 03 a1 17 be 3f ad e1 3e
       -0.2965767 -0.16523895 -0.14807515 0.4407749
0000e0 b4 2b e6 3f d9 51 0b bf e0 17 ca be 16 62 8b be
       1.7982087 -0.54421765 -0.3947134 -0.2722327
0000f0 32 e4 ea 3e 90 8e 46 3f 8e d2 2f 3e 19 fc 2a 40
       0.45877224 0.77561283 0.17170164 2.6716368
000100 79 cd 04 be 30 25 e6 bf c6 11 8f 3e 67 a3 05 be
       -0.12969007 -1.7980099 0.27943248 -0.13050614
000110 07 ff 68 3e df 46 d0 bd 86 d8 ae be 5f bf 90 be
       0.22753535 -0.101697676 -0.3414957 -0.28271005
000120 85 73 4b bf c3 26 94 bd 23 53 c6 3c ec 7f e5 3e
       -0.79473144 -0.07233956 0.024209565 0.4482416
000130 98 12 ca bd ec aa ab 3c 0a 75 0c be 55 31 9a be
       -0.09866828 0.020955525 -0.13716522 -0.30115762
000140 fc a9 a9 be 7d bf 36 3f 9b ae d3 be e4 b3 53 be
       -0.331375 0.7138594 -0.4134415 -0.20674092
000150 89 fb 13 bf ff 29 6e 3e e1 6c 81 bf 88 cf 51 b9
       -0.5780569 0.23258208 -1.0111352 -0.00020009105
000160 57 b8 2a 3f fa 1e 90 3e
       0.6668753 0.28148633

decoder.embedding.weight f4 [3001, 64]
000000 2e 45 3a 3f 4b 13 85 3e 44 6f c1 bf 88 a8 24 3f
       0.7276181 0.25991282 -1.511208 0.6431966
000010 72 fd 02 3e fa a2 01 40 6c e8 6a bf c0 2e ed bf
       0.12791994 2.0255723 -0.917609 -1.8529892
000020 ce 1a 3c 40 f6 28 4e bd be 21 90 3e 5c 74 65 bf
       2.939136 -0.050332032 0.28150743 -0.89630675
000030 31 3c e2 3f a2 f5 db 3e 08 89 b5 bf 4a 20 2b 3f
       1.7674619 0.4296084 -1.4182444 0.66846144
000040 b8 fa 6e be d6 80 c3 bd e2 44 12 3e 81 ac 81 bf
       -0.23337829 -0.09546058 0.14284089 -1.0130769
000050 a2 52 9f bf 4a ae 06 c0 c0 c5 40 c0 16 2a 93 bf
       -1.2447093 -2.1043878 -3.0120697 -1.1497219
000060 b4 2f f9 3f fc 75 e1 bf e4 8b 70 40 d8 53 13 3f
       1.9467683 -1.7614131 3.7585382 0.5754981
000070 b2 46 87 3f 82 a9 60 c0 be 3f 9c 3f 96 52 36 c0
       1.056845 -3.510346 1.2206953 -2.8487906
000080 54 4a 2f 3f e6 52 80 bd 30 df f1 3f 00 79 50 3f
       0.6847279 -0.062658116 1.8896236 0.8143463
000090 fe e5 99 3f a1 bb c9 3e 22 a2 86 be 30 4c 1c bf
       1.2023313 0.39400962 -0.26295573 -0.6105375
0000a0 ae fa ce bf c6 1a 19 3f 22 71 36 bf 60 0b d5 3d
       -1.6170251 0.5980648 -0.71266377 0.1040256
0000b0 a6 4e 7c 3e d8 53 0c c0 be 54 76 40 1e 96 3a bf
       0.24639377 -2.1926174 3.8489223 -0.7288531
0000c0 84 98 38 bf 2c af 21 3f be ca 2e bc 1d da ab 3f
       -0.7210772 0.63157916 -0.010668455 1.3425938
0000d0 3c e8 86 bf 42 48 b2 3f c6 0f 05 3c 70 01 af 3e
       -1.0539622 1.3928301 0.008121436 0.34180784
0000e0 42 dc aa bf ce 5d 81 3f d2 e3 c6 be af 3d a0 3f
       -1.3348467 1.0106752 -0.38845688 1.2518824
0000f0 68 6e 25 3f e6 8d 59 3e 33 01 d0 3d ec a1 e2 3e
       0.6462159 0.21245536 0.10156479 0.44264162
000100 f2 c5 81 3d ac 49 3e 3f 62 70 af 3e 83 85 9d 3e
       0.06336583 0.74331164 0.3426543 0.30765924
000110 42 61 61 be 51 4b 07 3d da 37 bf bd 4d f7 45 3e
       -0.22009757 0.03303081 -0.09336825 0.19332619
000120 b4 c3 38 bf da a1 c6 3c de f9 0c be a8 58 9e bd
       -0.7217362 0.024247099 -0.13767192 -0.077317536
000130 e5 be 86 be 37 f3 4d ba 4f 04 75 3e f8 a8 c0 be
       -0.26317516 -0.0007856371 0.23927425 -0.37628913
000140 10 d7 b8 be 34 2d f8 3e a4 25 15 bc 20 ea f7 3e
       -0.3610158 0.48471987 -0.0091032125 0.4842081
000150 a8 3c 70 3f 66 c2 16 3f 44 05 62 be 1c 66 d6 3d
       0.93842554 0.5889038 -0.22072321 0.104686946
000160 4e 2e d4 3d 26 ae 87 be 62 24 ab 3e 22 21 3b bd
       0.103603944 -0.26500052 0.33426195 -0.045685895
000170 04 fe cd be 80 8d 26 3e 7d 76 1f be c3 da 46 bf
       -0.4023286 0.16264915 -0.15572543 -0.77677554
000180 0f e7 19 bd d8 b2 11 bf de da 8b bd 2b b1 3d 3c
       -0.03757387 -0.5691352 -0.06828855 0.011577885
000190 22 8e 0e be 9c 4d 44 3f ea 27 55 bf ac 6c 32 3f
       -0.13921407 0.7668092 -0.8326403 0.6969707
0001a0 c8 11 53 3f ca c5 bc bd cc 33 fa 3d aa 46 13 be
       0.8244901 -0.09217413 0.12216911 -0.14382425
0001b0 91 bd aa be d4 ec b2 3e 72 1e 06 bf 38 ea 7e 3e
       -0.33347753 0.3494631 -0.52390206 0.24894035
0001c0 8a a8 99 bc 13 6b 02 bd de ab 82 be 51 b2 16 be
       -0.018757124 -0.031840395 -0.2552175 -0.1471646
0001d0 ee d3 fd 3e 36 9e 51 3e f2 24 8b 3e 6e 48 77 3e
       0.49575752 0.20470509 0.27176625 0.24148723
0001e0 28 5d 33 3e b8 25 6d bd bc a5 24 bf cc 83 48 3e
       0.17516005 -0.0578973 -0.6431539 0.19581527
0001f0 17 14 a4 3e af 2f 88 be 6a 13 aa be 77 70 ef 3e
       0.32046577 -0.2659888 -0.33217937 0.4676549
000200 59 b2 9e be 3e 98 09 3f bb 5c 36 bf f2 eb 23 3e
       -0.30995443 0.5374793 -0.71235245 0.16007975
000210 68 ee 21 bd af 21 a2 be 9a 7a 18 bf 4c c4 82 bc
       -0.039534003 -0.31666324 -0.59562075 -0.015962742
000220 9d 83 11 bf c4 7a e9 3e 96 17 69 bd 86 ca 21 3f
       -0.5684145 0.45601475 -0.05690726 0.6319965
000230 99 c3 a2 3e 61 4d 43 3e ec a7 91 3e 26 2f 70 be
       0.31789854 0.19072486 0.28448427 -0.23455486
000240 1f de 49 be 5c 67 65 3e 90 e5 4d be c0 4b 0e 3e
       -0.19713639 0.2240271 -0.20107102 0.13896084
000250 d4 ea 17 3f 0e 07 f3 3e 27 f5 0c 3f b0 64 18 3e
       0.59342694 0.4746632 0.5506157 0.14882159
000260 4a 6e 23 be 45 48 93 3c bc bb a0 3e ec bb 3c 3e
       -0.1596004 0.017978797 0.3139323 0.18431062
000270 d8 08 ae bd 62 c9 59 3e 1d 94 58 be e0 65 6c be
       -0.084977806 0.21268228 -0.2115025 -0.23085737
000280 52 f6 2e 3c 39 9e 06 be 48 df 76 3c ba e8 0e bf
       0.0106788445 -0.13146295 0.015067883 -0.5582386
000290 40 c4 8d 3d 98 04 29 3f ba 47 0d bf fc 9a c5 3e
       0.06922197 0.66022635 -0.5518757 0.38594806
0002a0 e6 e7 b6 3e 08 63 b4 be d8 f6 8a be 6d e4 e8 3d
       0.357238 -0.35231805 -0.27141452 0.11371694
0002b0 60 58 ae be e4 90 21 3f f6 72 f3 3d 42 09 c1 3e
       -0.340518 0.6311171 0.118871614 0.37702376
0002c0 0e 7f c2 bd c0 05 4b 3e 73 9b 0f bc 99 d5 91 3e
       -0.0949689 0.19826412 -0.008765089 0.28483275
0002d0 e7 16 31 bd ae c5 25 3f ec 9c 74 be c6 92 07 3f
       -0.043234732 0.6475476 -0.23887986 0.52958333
0002e0 58 d6 67 3e aa 0f b7 be 58 25 96 be a0 ab c2 3d
       0.2264036 -0.35754138 -0.29325366 0.09505391
0002f0 5a 33 1f 3f e8 d0 c0 be 94 34 eb bd 6a 1c f4 3e
       0.6218773 -0.37659383 -0.11484638 0.47677928
000300 29 71 ef 3d e4 c9 26 3f 20 a8 56 be ce 1b 23 3f
       0.116915055 0.6515181 -0.20962572 0.637143
000310 4a e4 f6 be be d7 6e be 20 71 17 3e 24 be 0e be
       -0.48221046 -0.23324487 0.14789248 -0.1393972
000320 b6 a0 b2 3e a4 f6 54 be 34 e8 24 3e d9 09 82 3e
       0.34888238 -0.20797211 0.16104203 0.25398138
000330 a6 2b c7 3d d8 c8 e7 bd a1 e8 81 3e 48 b8 52 be
       0.09725122 -0.11317605 0.25372794 -0.2057811
000340 c8 75 00 bf dc 8c d3 3d 0c 85 85 be 84 1e 2c 3e
       -0.5017972 0.10329601 -0.2607807 0.16808516
000350 63 71 47 3e d2 10 1e 3f 91 11 cd 3e 6f eb 10 be
       0.19476847 0.61744416 0.40052465 -0.14152311
000360 c6 ab b3 3e ae 52 2c bd 4e 33 14 3f be 7e 9a 3e
       0.3509199 -0.042071037 0.57890785 0.30174822
000370 d2 e4 5d bd da 4b 57 3e c5 87 5a 3e 84 bb 0e bf
       -0.0541733 0.21025029 0.21340854 -0.55754876
000380 23 03 0d bf e8 f8 8c be 36 d2 d0 3e 80 98 97 be
       -0.5508291 -0.2753365 0.40785378 -0.29608536
000390 10 2c c4 be 34 59 26 3f d0 15 15 bf bb ab 8a 3d
       -0.38314867 0.64979863 -0.5823641 0.06771036
0003a0 d4 fd 22 3f ab 20 e6 be aa fe 15 3e bc 0a 18 3e
       0.6366856 -0.449468 0.14647928 0.14847845
0003b0 15 2f a9 bd 14 c0 91 3e 64 bb 6e be 7a 41 68 3e
       -0.08260933 0.28466856 -0.23313671 0.22681227
0003c0 58 0e a8 3c fc 4e 04 3e 3a ff 1d be 52 44 08 3f
       0.020514652 0.12920755 -0.15429392 0.5322925
0003d0 0c 33 95 3e 68 75 f2 3e 36 fb ca be a8 cb 3a 3e
       0.29140508 0.473552 -0.39644784 0.18241751
0003e0 62 5e bf 3e f6 3c f8 3e 2c f2 3a bf 5f a5 87 be
       0.37376696 0.4848401 -0.73025775 -0.26493356
0003f0 64 6d 21 3f bc 46 17 bf 5b 42 ac 3e 18 41 aa 3e
       0.6305754 -0.5909231 0.33644375 0.33252788

decoder.gru.weight_ih_l0 f4 [90, 64]
000000 0d 7d f6 be 8e ec 68 bf 84 d1 a1 bc ec 4d df be
       -0.4814228 -0.90985954 -0.019753225 -0.43614137
000010 6f 2f 5e bd b2 f8 03 3d a9 83 50 bf d5 4c bb 3e
       -0.054244455 0.032219596 -0.814509 0.36582056
000020 61 d5 57 3e 40 a4 7b bf 8e 22 51 3f d6 a1 44 3f
       0.21077491 -0.982975 0.8169335 0.7680944
000030 a6 f7 9d be 4d ef 0c 3f 39 e6 15 bf 3b a9 61 be
       -0.30853003 0.55052644 -0.58554417 -0.22037213
000040 3b 7d f9 3e ea c3 95 be 72 e9 7c be 59 61 f6 be
       0.48728356 -0.29251033 -0.24698427 -0.48121145
000050 dd 9d 15 bf 5a 4d 64 bf fd 0a e8 3d 06 2e 49 3f
       -0.58444005 -0.8918053 0.11330221 0.7858585
000060 3d ab cf be 43 84 7b be c7 60 5e be c6 eb 8a be
       -0.40560332 -0.24562173 -0.21716605 -0.27133006
000070 68 37 87 3e e3 84 ec be 02 ec b6 be 88 f2 09 3e
       0.2640946 -0.46195135 -0.35726935 0.13471425
000080 3d bd 81 3f 9c c6 58 3f 6e 57 02 bf 56 38 07 3e
       1.0135876 0.84678054 -0.5091466 0.13205084
000090 22 e7 f3 3d 37 94 d2 be 9d f6 f6 3e 66 e5 50 bf
       0.119093195 -0.41128704 0.48235026 -0.81600034
0000a0 b8 b8 26 bf 83 3f 7a 3c 26 e5 5b bf 92 93 a6 3e
       -0.6512561 0.015273931 -0.8589653 0.32534462
0000b0 bc 06 5f 3f 50 af 2b bf 5b 6e b9 3f f9 ab 8c 3e
       0.8711965 -0.6706438 1.4486803 0.27474955
0000c0 d8 31 60 bd 68 85 a4 be 7d 87 7e be c3 30 a2 3e
       -0.054735035 -0.3213303 -0.24856372 0.31677827
0000d0 cd 23 29 bf 28 b9 23 bd ea 0d d1 3e a0 87 19 bf
       -0.6607025 -0.0399715 0.40830928 -0.5997257
0000e0 f8 ba 35 3f 50 51 b0 bd 74 23 a2 be 71 dd 75 be
       0.70988417 -0.08609259 -0.31667674 -0.24010254
0000f0 56 6e 62 bd 73 1d 32 3f 12 7b 9f 3e fe 16 c7 bd
       -0.055281006 0.69576186 0.31148583 -0.09721182
000100 eb 83 d7 be 28 d1 08 bf 2d 6c a0 3e 95 b1 97 3e
       -0.42092833 -0.5344415 0.31332532 0.29627672
000110 2c eb 85 bc 10 d1 0c bf d7 76 67 be 0f 16 67 be
       -0.01634749 -0.55006504 -0.22603928 -0.22567008
000120 ac 37 06 bf b3 9f fe 3e 7d 3e 7e bc 1f cb 9f 3e
       -0.524287 0.49731216 -0.015517828 0.31209657
000130 f2 13 a4 be f0 1e 48 bd d6 b7 46 b9 48 c6 ad 3d
       -0.32046467 -0.04885763 -0.00018951236 0.08485085
000140 80 55 39 3d 25 8e 4f 3d fc 8b de 3e 34 a5 f6 bd
       0.045247555 0.05067267 0.43466175 -0.12043229
000150 63 5c 1e bb 86 a1 1a bf e9 28 55 bf 81 97 c1 3e
       -0.0024163953 -0.60402715 -0.8326555 0.378109
000160 89 68 12 bd ca 8a d9 3e 21 1a 10 bf a5 ef 91 be
       -0.035744224 0.424887 -0.5628987 -0.28503147
000170 9d 62 c3 be 0a 83 a8 be ce 98 01 3f 2a 65 20 3f
       -0.38161173 -0.32912475 0.50623786 0.62654364
000180 ec e4 93 3d 6e 7a bb be cd 52 a5 bd 0f f8 69 be
       0.07221398 -0.36616844 -0.080724336 -0.22848533
000190 32 be da be 5a 6b ec be 7a f1 94 3e d4 fb dd bd
       -0.42723233 -0.46175653 0.29090482 -0.10839048
0001a0 b7 85 12 3e 92 4f 48 3f cf 5c 39 bd 8d ee 0f 3f
       0.1430882 0.78246415 -0.045254525 0.56223375
0001b0 1e 49 2a 3f af 72 ff 3e 35 9a bd 3e a0 1b 1e 3f
       0.6651782 0.49892184 0.37031713 0.617609
0001c0 6a 47 22 3f 8c 08 a3 be fd 02 82 bf db 4f 40 3f
       0.6339022 -0.31842458 -1.0157162 0.7512185
0001d0 dd 19 41 bf 67 4d b3 3c 7d a9 33 bf f4 06 17 bf
       -0.7543009 0.021887494 -0.70180494 -0.58994985
0001e0 1a db 07 3e 28 63 26 be cc 34 7d 3e fd 82 ec be
       0.13267174 -0.16248763 0.24727172 -0.46193686
0001f0 f8 df c9 3c a6 5c b4 be 35 be 23 bf 48 85 bb bd
       0.02464293 -0.35226935 -0.6396211 -0.09156281
000200 ab c3 94 be b2 e4 6e 3e 2d 31 f9 be 1e bb 1f 3f
       -0.29055533 0.23329428 -0.4867033 0.62394893
000210 78 be 1c bf c1 90 71 bf 0c a4 e4 3e 7b 6a 84 3f
       -0.6122813 -0.943615 0.44656408 1.0344995
000220 c9 9d 49 3e 6b f9 a7 3e 67 9b a7 3e 96 be 84 bf
       0.19689097 0.32807478 0.3273575 -1.0370662
000230 f8 20 8d be b8 14 87 bf 42 e3 5b 3f 5b 90 fd 3d
       -0.27564216 -1.0553198 0.8589364 0.12381049
000240 46 07 06 bf 03 a3 c0 bd 63 03 37 3f 81 b7 7f bf
       -0.5235485 -0.09406092 0.7148954 -0.9988938
000250 f9 20 9b be d1 3a 7d 3f 21 25 ad 3e 31 12 2e 3f
       -0.30298594 0.9891787 0.3381739 0.6799651
000260 fa a9 4e 3f dc 97 1a 3e 82 c7 81 be d3 77 dc bd
       0.80728114 0.15096992 -0.25347525 -0.10765042
000270 eb 2d ee be f3 ca 52 bf c6 cf d4 be 5d 53 78 3c
       -0.46519408 -0.82340926 -0.4156477 0.015156594
000280 93 60 32 bd 73 e8 67 3e 2d a0 a0 3f 0d 9e 1d be
       -0.04354913 0.22647266 1.2548882 -0.15392323
000290 ba 17 fe 3d 44 b5 3b 3f a8 c8 80 be 61 59 1c 3f
       0.12406869 0.73323464 -0.2515309 0.6107388
0002a0 f1 cc 48 bf 6f fe c7 be d6 df 8e 3e f6 b5 43 bf
       -0.78437716 -0.39061305 0.27905148 -0.76449525
0002b0 aa 30 cd bd 96 87 0c 3f 31 89 52 bf 44 8f 9d be
       -0.100190476 0.5489439 -0.8224059 -0.30773365
0002c0 c1 4c 2e bf 93 a0 f0 3e fd 90 b9 3e 18 a1 17 be
       -0.6808587 0.46997508 0.3624343 -0.14807546
0002d0 2b 4e 93 3e 84 50 2a 3f e4 ea 1d 3f 14 f1 85 3e
       0.28770575 0.6652911 0.6168654 0.2616049
0002e0 80 bf 57 3d f9 e3 3c be 3d 01 03 bf 5f ed ec bd
       0.052672863 -0.1844634 -0.51173764 -0.115687124
0002f0 4f e0 a6 3e 49 27 00 bf eb 02 5d be 11 2a 45 be
       0.3259301 -0.50059944 -0.21583144 -0.19254328
000300 f2 ba 80 bd 6e 71 62 be 8a aa 0f bf 5b 34 5f 3e
       -0.06285657 -0.22113582 -0.56119597 0.21797316
000310 35 40 2c 3f 08 b0 d5 bd 24 0a 84 3c 13 14 80 3d
       0.6728547 -0.10433966 0.016118117 0.06253829
000320 21 7e 88 3d b0 48 f4 3e bd e3 0c bd b0 17 1a 3e
       0.06664682 0.47711706 -0.034396876 0.15048099
000330 e4 b7 ac be d6 51 4f be 3f 4c 2e be fc 12 ad 3e
       -0.33734047 -0.20246062 -0.17021273 0.33803546
000340 08 99 0e bf 4d 0a 57 bf c1 fd 03 bf e6 51 9a 3e
       -0.5570226 -0.8400009 -0.5155907 0.3014061
000350 88 91 ff 3d 24 cf 28 bf 9d 3d ef 3d ec 26 c3 3e
       0.1247893 -0.6594107 0.11681674 0.38115633
000360 d9 1d c1 3d 2a f9 ec be 9a a7 d9 bd c9 d3 0a 3f
       0.09429521 -0.46283847 -0.106276706 0.5422941
000370 29 45 c8 3c 45 96 fd be 99 87 93 3e 65 bb 29 3e
       0.02444704 -0.4952871 0.2881439 0.16575392
000380 df 59 8a bd c3 0b de bd 56 14 dd be 4e 46 7d 3e
       -0.06755423 -0.10842087 -0.43179578 0.2473385
000390 86 02 d8 3e 5a 8d 87 3e 17 a5 aa bd bf 8b 33 bd
       0.42189425 0.2647503 -0.0833227 -0.043834444
0003a0 a4 8f b3 be 4b 5c 79 be 68 35 a1 be f8 40 a1 bd
       -0.35070527 -0.24351613 -0.31486058 -0.0787372
0003b0 26 45 fe 3c f7 e0 66 bd 97 f8 e5 3e b3 29 c2 3e
       0.031038832 -0.056366887 0.44916221 0.3792244
0003c0 ca 6f 81 3e eb 72 c2 bd 8d 82 03 3e a8 1b 80 3f
       0.252806 -0.09494575 0.1284277 1.000844
0003d0 c2 7e e3 be e3 e5 1f 3d a2 c0 c7 bd d4 40 e1 be
       -0.44432646 0.039037596 -0.09753539 -0.43994772
0003e0 e2 c3 8b be 0f 78 b1 bd fd 1f fa 3e c5 c1 56 be
       -0.27297884 -0.086654775 0.4885253 -0.20972355
0003f0 c8 52 2c 3e 1a 53 ab 3c f1 9c 90 3e 82 67 9d be
       0.16828454 0.02091365 0.28244737 -0.30743033

decoder.gru.weight_hh_l0 f4 [90, 30]
000000 ba 1d 7b bf c4 ce 80 be 48 e2 53 bc d8 27 ce be
       -0.98092234 -0.2515775 -0.012932368 -0.40264773
000010 be 83 40 3f 1d 46 bb 3d 1f 03 86 3f 53 12 95 3e
       0.7520102 0.091442324 1.0469702 0.29115543
000020 5c e5 8d be 26 fc b7 bd be 1f 25 bf ac a1 4d be
       -0.2771405 -0.089836404 -0.6450156 -0.20081204
000030 c4 f9 96 3e 15 bf 99 3e 64 cc f0 3e 57 4c c4 3d
       0.2948743 0.30028597 0.47030938 0.09584873
000040 30 5f 9e 3e 66 8e 0d 3f 36 8a 26 3d 08 8e 28 3e
       0.30931997 0.5529541 0.040659152 0.1646043
000050 45 5e 86 3c 41 b8 c1 be 6b fc a9 be 11 72 4d bf
       0.016402373 -0.37835887 -0.33200392 -0.80252177
000060 2f a9 77 be 32 15 06 3f 2a 77 25 be 50 b0 9c be
       -0.24185632 0.5237609 -0.16158739 -0.30603266
000070 41 03 80 3e 97 28 13 be a8 30 9a be 63 f9 19 3e
       0.25002483 -0.14370953 -0.30115247 0.1503654
000080 77 71 aa bf 59 ef c0 bd cf 64 6b bf ff ba 0c bf
       -1.3315877 -0.09420652 -0.91950697 -0.54972833
000090 98 1c 4d 3f 7d 9c b7 bf 9d 6f dd 3e d2 0f 3d 3e
       0.80121756 -1.4344631 0.43249217 0.18463066
0000a0 10 3b 9f 3f 8a 17 85 be 7b 1b 22 3e 58 f2 a3 be
       1.24399 -0.2599452 0.15830795 -0.3202083
0000b0 1a a7 95 bf f0 3e 41 3e df 1b c4 3e 3d 3b bb 3e
       -1.169162 0.18871665 0.38302514 0.36568633
0000c0 c7 93 24 3e 94 05 c5 3d 86 94 45 3e d8 8a 12 bf
       0.16071998 0.096202046 0.19294938 -0.5724311
0000d0 c5 8f 2c bf 4c 70 de bd 6b 89 8f be 04 74 65 bf
       -0.67406875 -0.10861263 -0.2803453 -0.8963015
0000e0 5e 2e 9b be e8 dc a0 be 15 f2 8f 3e 42 c5 84 be
       -0.30308813 -0.31418538 0.2811438 -0.25931746
0000f0 98 22 0d be f4 84 df be df 63 67 bf 12 a9 99 3e
       -0.13782728 -0.43656123 -0.90386766 0.30011803
000100 30 50 48 3e 66 5f e3 be fa 82 1e 3d 86 83 ae bd
       0.19561839 -0.4440872 0.038699128 -0.0852118
000110 2d 27 e7 3e 4d f0 29 3f 09 5a f4 be 38 c2 2c bf
       0.45147076 0.66382295 -0.4772494 -0.67483854
000120 25 6b 54 bf 87 8b 9b be bc 98 65 3e c7 d0 8c 3e
       -0.8297599 -0.30379888 0.22421545 0.27503034
000130 9b d0 2b 3f b5 87 34 bf 47 4f e0 3e 65 13 b2 bd
       0.6711518 -0.7051957 0.43810484 -0.086951055
000140 24 a3 fc bd f5 c1 4d 3f a2 14 a7 3e d6 9c c1 3e
       -0.12335804 0.8037408 0.3263293 0.3781497
000150 2e 7a f7 3e f2 be 17 be d1 fd 06 3e 94 fb 83 bd
       0.48335403 -0.14818934 0.13182761 -0.06444469
000160 e8 50 7a 3b 06 c7 c9 3e 5a 48 cb 3c 8c 67 9b be
       0.0038195197 0.39409655 0.024814773 -0.30352437
000170 f9 f3 90 be b2 e4 a6 bf 6a 57 aa 3d 3d 7c 33 3e
       -0.28311136 -1.3038542 0.08317454 0.17527862
000180 ec fe 1a 3f 6c 66 0d bf d1 8e af 3e be 90 57 3e
       0.6054523 -0.5523441 0.34288648 0.21051309
000190 e9 da 9f 3e ee 8c f1 bd a7 67 f3 bd e2 d0 bf 3d
       0.31221703 -0.11794458 -0.118850045 0.09366013
0001a0 f2 c4 ea be ba 3b 10 3f c6 52 58 3f e1 c0 a6 bd
       -0.45853382 0.56341136 0.845013 -0.081422575
0001b0 70 c1 6a be 4c 53 12 be ba 08 36 bd 17 dc 23 3e
       -0.22925353 -0.14289588 -0.044441916 0.16001926
0001c0 42 a2 17 3d 4d 93 09 bc 9f 9d 01 3e a5 34 0b 3f
       0.037019975 -0.008396936 0.12657784 0.54377204
0001d0 9b 9f 2c 3d de f0 15 3f 08 8c a1 3e b8 dc 40 3e
       0.0421444 0.5857066 0.31552148 0.18834198
0001e0 79 5d 0b 3e d9 9d 83 be ce b7 c8 be 26 a1 bb bd
       0.13609876 -0.25706366 -0.39202732 -0.09161596
0001f0 c5 9c a7 bf a1 f1 07 bf 06 d8 5e bd a3 fb 68 bf
       -1.3094717 -0.5310307 -0.054405235 -0.9100897
000200 90 46 80 3f ab f5 e5 be 68 9d 08 3f 6c 4b 19 be
       1.0021534 -0.44913992 0.5336518 -0.14970177
000210 04 9e 23 bf 3a ca 4b 3d 01 2b d7 bc ca 95 93 3f
       -0.6391299 0.049753405 -0.026265623 1.1530087
000220 65 de b5 3e fe 2d 94 be ee ff 88 3e 3b bc fd 3e
       0.35521236 -0.2894134 0.2675776 0.4955767
000230 ea 94 47 3f dc 5d a4 3e 9c f1 59 3d 75 00 10 3f
       0.779616 0.3210286 0.053208932 0.562507
000240 07 2f 92 be 82 64 8c be c3 71 6f 3d 0e 53 41 bf
       -0.28551504 -0.2742043 0.0584581 -0.75517356
000250 e2 f1 2d 3e 32 d5 27 3e 86 ee aa be 2a 54 7a 3d
       0.16986802 0.16389921 -0.33385104 0.06111542
000260 d8 2e be 3d 38 1f 81 be 84 85 94 3e 88 4c d3 bf
       0.092862785 -0.2521913 0.29008114 -1.650773
000270 b0 e5 ec bc fd 05 c6 3d 82 b2 27 3e 90 8d 8b 3e
       -0.028918117 0.09669111 0.16376689 0.2725644
000280 5b 37 1b 3e 4b 17 8b bd c7 24 1f 3e 94 0d c6 3e
       0.15157835 -0.06791552 0.15541373 0.38682234
000290 65 ac df 3e 81 a3 a7 3e 9d a1 17 bf 9e 14 5f 3e
       0.43686214 0.3274193 -0.5923098 0.21785209
0002a0 a9 57 a5 be 22 18 db 3d a8 3e af 3e f0 f3 48 be
       -0.32293442 0.10697962 0.3422749 -0.19624305
0002b0 76 69 1d 3f b6 4a df be 33 08 d0 be a7 e5 00 bc
       0.61489046 -0.43611687 -0.40631256 -0.007867253
0002c0 f4 9e e3 bc 2f 3a 81 3f d6 9e 8a 3e 84 91 ef 3e
       -0.027785756 1.0095881 0.27074307 0.46790707
0002d0 4f 90 1e be a1 b7 1f bf 83 2c 36 bf 6c c7 ab 3e
       -0.15484737 -0.6238957 -0.7116167 0.33550584
0002e0 21 cc 81 be 6d ef 92 bf 0b 4c 8b 3f 5d ba 04 3e
       -0.2535105 -1.1479317 1.0882581 0.12961717
0002f0 0b cb 1b 3f 10 a4 72 bf 19 69 3f 3e 16 06 2c bf
       0.60856694 -0.9478159 0.18692435 -0.67196786
000300 55 52 a0 be 56 09 8e bf f5 af 24 3e 73 9c 3c bd
       -0.31312814 -1.1096599 0.16082747 -0.04604764
000310 08 8b 55 bd c0 86 a2 3d e5 36 46 3e 56 0c 57 3e
       -0.052134544 0.07935858 0.19356878 0.210008
000320 35 90 cb be 1f d6 00 bf db bb 92 3f 2f a5 d9 bd
       -0.3975846 -0.5032672 1.1463579 -0.106272094
000330 c0 1f 91 be ba 99 3a 3e 14 d5 25 bd ed e8 d0 3e
       -0.28344536 0.18222705 -0.04048641 0.40802708
000340 f7 d9 8f bd 12 ab 5a be 67 ae 4d be b7 ea 15 3f
       -0.07023995 -0.2135432 -0.2008606 0.5856127
000350 de cc ad 3d e1 cb 74 be 66 c5 51 3e ca d1 ca bf
       0.08486341 -0.23905899 0.20485458 -1.5845273
000360 b4 a5 e2 bd a5 ab 83 3f 91 04 a7 be 9b 31 d6 3e
       -0.110667616 1.0286757 -0.3262067 0.4183472
000370 20 1b 2b bd a0 be 13 3f 34 ae 6a 3e fe 67 dd bc
       -0.041773915 0.57712746 0.22918016 -0.027027126
000380 b2 13 18 3f 58 fa 4d 3d e5 f1 b2 be 0a eb 44 bf
       0.5940505 0.050287575 -0.34950176 -0.7692114
000390 22 00 fa 3e 88 73 57 be b2 5e 74 be 25 b9 80 be
       0.48828226 -0.21040165 -0.23864248 -0.25141254
0003a0 08 e2 ff 3e c3 f4 b4 be d9 cd 2d be 04 60 3a 3e
       0.49977136 -0.35342988 -0.16973056 0.1820069
0003b0 86 39 fb 3e 12 55 b9 be bc 53 36 3d d0 41 81 bc
       0.49067324 -0.36197716 0.04451345 -0.015778452
0003c0 d2 77 38 3e 95 85 1b 3e 1f 62 c4 3e cb 10 51 3f
       0.18014458 0.15187676 0.3835611 0.8166625
0003d0 86 b8 42 bf 62 71 e1 be c8 dd c2 bd 69 91 c2 bc
       -0.7606281 -0.44031817 -0.09514958 -0.023750978
0003e0 81 83 8f be a9 94 c0 3d cb a1 0f bd 1e f5 80 3f
       -0.28030017 0.09403355 -0.035066407 1.0074804
0003f0 17 94 73 3e 24 eb 4b be bf 7a 64 3d 21 5c 30 be
       0.2378696 -0.19913918 0.055781122 -0.17222644

decoder.gru.bias_ih_l0 f4 [90]
000000 76 6b af be 26 80 7f be ce 22 0e 3f e9 9f 88 3e
       -0.34261674 -0.24951228 0.5552186 0.26684502
000010 80 71 ef bd 21 1a 08 3f c3 88 5d be 56 8a 2f 3e
       -0.1169157 0.5316487 -0.21634202 0.17142615
000020 ad 2d 9f 3e da f4 7b 3e 4b 56 17 3f 59 92 28 3e
       0.31089535 0.24605122 0.5911605 0.16462077
000030 48 de 3a 3e 49 07 2c be be 32 15 bd 2e 46 2b 3e
       0.18248856 -0.16799654 -0.036425345 0.1672599
000040 1e 09 e7 bd bd 8e d2 bc 81 2b e6 3e 36 2c ef 3d
       -0.11281036 -0.025702829 0.44955066 0.116783544
000050 ce d9 b9 3d 05 06 1d 3f 50 c0 c9 bc 4c 68 92 3e
       0.09074746 0.6133731 -0.024627835 0.28595197
000060 86 53 d4 3e b3 43 19 bf 95 3f ec 3d 2f 35 35 3f
       0.41469973 -0.59868926 0.11535565 0.70784277
000070 6f ad f6 be d8 7d 41 3d cd e9 b4 be 53 32 4c 3f
       -0.48179194 0.047239155 -0.35334626 0.7976429
000080 25 aa 92 3e 13 39 cd be 37 73 ca 3e 1c e2 09 bf
       0.28645435 -0.40082607 0.39541027 -0.5386064
000090 96 a6 e7 3e c1 c2 f7 bc 4b 32 81 3e cd 61 9a 3f
       0.45244282 -0.030244233 0.25233683 1.2061096
0000a0 50 c6 5e 3e c4 a6 59 3f 87 95 c9 3e 8e ba bd 3d
       0.21755338 0.8502009 0.39371893 0.09264098
0000b0 f2 f0 60 3f c9 83 57 3f 19 18 d9 3e f5 7d a6 3e
       0.87867653 0.84185463 0.42401198 0.32517973
0000c0 38 6e 25 be ac 9d f0 bd ee f1 19 3f 6e 33 4d 3f
       -0.16155326 -0.117488235 0.6013478 0.801566
0000d0 aa 79 02 3e 81 6a 8b 3f 9e bf 43 3f 63 01 8e 3d
       0.12741724 1.0891877 0.7646426 0.06933858
0000e0 32 06 82 be 09 6c c0 be ab 82 54 3f 90 7d cd 3e
       -0.25395352 -0.37582424 0.83011883 0.4013486
0000f0 f2 ef 83 be fd cd 0c 3f 36 d2 64 3f 7b d2 f4 be
       -0.25769 0.55001813 0.89383256 -0.47816834
000100 45 88 27 3f 08 fd 08 bf f2 13 40 3f ad 02 3a 3f
       0.65442306 -0.53511095 0.75030434 0.7266033
000110 db 8f 66 bf 22 25 15 be 8b 7a 8b bf 65 84 cc 3e
       -0.90063256 -0.14564946 -1.0896772 0.3994476
000120 86 31 23 3f ba 98 7f be 76 01 ae 3e eb 20 ab 3e
       0.6374744 -0.24960604 0.3398549 0.33423552
000130 2d 87 66 bf 0f d7 04 3f b4 08 98 3e ca a3 ef bd
       -0.9005001 0.51890653 0.2969414 -0.11701162
000140 ae 67 0d bf eb ef ee 3e ab ab 7f 3f 4e 74 14 3e
       -0.5523633 0.46667418 0.9987132 0.14497492
000150 0a a4 d0 be 95 4b a8 be 4a ed fe 3c 54 13 14 3f
       -0.40750152 -0.32870165 0.031119008 0.5784199
000160 bf 8f 10 be 16 c7 38 3e
       -0.14117335 0.18044695
