seq_to_seq/attributes_only/seq2seq_model_1.pt (torch, 44487 bytes, 9 tensors)

encoder.gru.weight_ih_l0 f4 [120, 1]
00000000: 9699 80be df4e 9ebe 4454 44bf bc14 53bf
00000010: 4306 99bd 7184 e8be 87c6 e9be 028d 7abe
00000020: 8986 32bd 335b edbd ad9f ab3d de3e f0be
00000030: ab8d c93a 5ca6 86be 9a84 12bf af45 ad3e
00000040: f819 d2be cd68 8fbf 7ce3 93be 5818 163f
00000050: 3006 68bd 3ba5 00be 9364 2cbf cbfc ff3e
00000060: f26a 6fbe 1d31 c53e a83b fd3e f5cc 7bbe
00000070: dfa5 793f 7f5d 8bbe 9c26 343f 4b6d 1bbf
00000080: 2bfe 043f b788 4ebe 2384 a6be ac38 e7be
00000090: 34bf 81bf bacc 18bf fa5d 4dbf 90dc b7be
000000a0: 7a6b 25bf ee74 1ebf 6dce 3bbf 48ff 2bbf
000000b0: 62e3 b4be f2df 46bf 0d87 e2be f049 dcbe
000000c0: a71a 143f 419f 67bf ca11 8ebc 7c3b 27bf
000000d0: 23c5 9c3e 2b61 7dbe f227 09bf cd32 1e3f
000000e0: bd56 8ebe 85bf 6fbe 9c30 bcbe 30ef a0be
000000f0: da53 05bf 3301 35c0 edfa 28be 19b6 9dbe
00000100: 48b8 75be 8c11 043e 9692 623e a5f1 c0be
00000110: b5b9 c3be bd75 11bf ac46 54bf 72a6 3bbf
00000120: 16c2 77be 8e24 b7be 0b2e c9be 42af 91be
00000130: ae7e 2dbe 2106 9cbe 1985 c63e 90aa 8bbe
00000140: 912b 88be 1d9b 423e 7540 d3bf 6485 22bf
00000150: a47d 0dbe 5b6a ce3f e2ad 45be 060d 61be
00000160: b999 11bf e38c 24bf bea9 adbe 963b 373f
00000170: 05e9 b1bf fbf1 51be afef 683f 0242 87bf
00000180: 9875 033e d58d dd3e 169a 4bbe 1989 1dbe
00000190: 06d7 673e 56a3 64be 2d0b e33d 0734 59be
000001a0: 88da f63f babd aa3d 0522 853e 2f1d 563e
000001b0: 3bd5 94be 3794 b2be fd63 babd 6784 12be
000001c0: 7a94 98bf 3faf 16be 391f 603e b079 073e
000001d0: 123e 48be 4ae7 0abe 8ada 533e bff1 f53d
-0.25117177 -0.3091955 -0.7669108 -0.82453513 -0.074718975 -0.45413545 -0.45659277 -0.24467853
-0.043585334 -0.115896605 0.08380065 -0.46922964 0.0015377303 -0.26298797 -0.57233584 0.33842227
-0.41035438 -1.1203858 -0.28884494 0.58630896 -0.056646526 -0.1256303 -0.67340964 0.49997553
-0.2338064 0.38514033 0.49459577 -0.24589904 0.97518724 -0.2721977 0.70371413 -0.6071364
0.5195033 -0.2016934 -0.32522687 -0.45160425 -1.0136476 -0.5968739 -0.8022152 -0.35910463
-0.6461712 -0.6189717 -0.73361856 -0.67186403 -0.3532973 -0.77685463 -0.4424366 -0.4302516
0.5785317 -0.9047738 -0.017342467 -0.6532514 0.30619153 -0.24744098 -0.53576577 0.61796266
-0.2780055 -0.23412903 -0.36755836 -0.31432486 -0.5208107 -2.8281982 -0.1650197 -0.30802992
-0.23996079 0.12897319 0.2212623 -0.3768436 -0.3822762 -0.5682028 -0.82920337 -0.7330085
-0.24195132 -0.35770077 -0.3929294 -0.28454024 -0.16942856 -0.30473426 0.3877342 -0.27278566
-0.2659574 0.19004484 -1.6504046 -0.6348479 -0.1381746 1.6126207 -0.19304612 -0.21977624
-0.5687519 -0.64277476 -0.33918566 0.71575296 -1.3899237 -0.20502464 0.9099073 -1.0567019
0.12837827 0.43272272 -0.19882998 -0.1538433 0.22640619 -0.22327933 0.11086116 -0.21211253
1.928544 0.08336969 0.26002517 0.2090957 -0.29068932 -0.34878704 -0.091011025 -0.1430832
-1.1920311 -0.14715289 0.2188691 0.13230014 -0.19554928 -0.13564792 0.20688835 0.12009

encoder.gru.weight_hh_l0 f4 [120, 40]
00000000: 58a2 6dbd 81f4 d73e a3c3 30be ddb7 f1be
00000010: f7a4 eabe d4c6 f03e 3f20 2fbf 308e 83bf
00000020: ccae 8abe ecf2 29bf 2e08 debe add6 dfbd
00000030: e6eb f4be 482e ca3d b717 c53e 0813 aebe
00000040: 9ecc f93e 73c0 5dbe 14ab d2be b5a4 b2be
00000050: 271c 5cbb 9f42 1e3f a7cc e5be b36a 0fbd
00000060: d170 ad3e 2815 233e bfa1 0f3f 2204 df3e
00000070: 9d9a 833d 4d48 12bf f7e7 673e 00ee 88be
00000080: 1d64 1fbf 5029 03bf e4ff 8b3e b0ab ce3d
00000090: 73f6 42bc 773f b1be dbc0 f73e 4490 363f
000000a0: efcd d13e 2fb2 5f3e 9e7d 2c3e a36d 73be
000000b0: b487 22be cba0 44bf b6c9 0abd 0664 f4be
000000c0: 0ffe 983e e631 cf3e cf9e 993d 00c6 63be
000000d0: c914 ae3e 1109 6dbe 7ecc f83e 13b9 c73e
000000e0: 041c 44bd d678 57bd 88d2 973b e8be d13a
000000f0: b58a 9dbe 4497 d13f 9b0c 2d3e 15ac bebe
00000100: 253b ddbe 1225 f43b 6d3c 80be 6b91 c33c
00000110: c669 5fbe 0634 60bd d4a6 48bc 035b 71be
00000120: d1d6 843e 540d 7bbf a708 c33e 52f6 c3be
00000130: 0a21 1fbf 8008 c3be ba5c a33c 96d2 c93e
00000140: d04e e2be a34d 7b3f ebc1 f3be 7899 0dbd
00000150: fa82 dcbe fc31 81be 543f 0bbf 8152 29bf
00000160: ffc1 07be 00e7 6cbe 95c8 4dbe d3e4 193f
00000170: cc00 8bbe 8df1 d03e 8063 10be 5914 d2be
00000180: d4f7 fd3e 4c28 47be c8c6 23bf 84b7 5cbe
00000190: 8071 203f 66af 023e fcb6 a23f 738a 20bf
000001a0: 9307 9b3e 127c 853f f067 9c3e 1ee9 7b3f
000001b0: 7817 69be 896b 51bf ae2d 8a3e f77f e8be
000001c0: 75e4 cfbe 27c3 12bf 3a81 683f 993f bcbd
000001d0: 180d 9f3e 3727 5abe b7ce 80be 5b8d 203f
000001e0: 06ca 10bf 1132 093e 8e1d edbc e5c5 febc
000001f0: 2ac7 38bb 2329 95bf 8ec0 82bb 5aad 05be
00000200: 8cca dc3e ce4a 1f3f c7bb dabd 9637 9ebe
00000210: 09ec eabd 4586 b6be 0eb8 503e 1b75 2b3d
00000220: fbcd 833e 6e90 bc3d 25a8 32bf 937e cb3d
00000230: 0a90 313d 2318 2bbb a6be b33e ace2 a3be
00000240: e34f ebbe 3876 bbbe ded8 8cbe 5b6b 8dbe
00000250: 9bb6 e4be fda2 893e a0da 4b3c 3360 a9bd
00000260: 8f27 033f 3974 6ebe 4919 d23e 43e3 84be
00000270: 76eb 06bf ff9c b8be 24e1 283c 2240 033e
00000280: 9de0 81bf 3d7d fa3e e975 4dbe e2ff f1be
00000290: a151 58bf 92c9 1e3f 2508 12bf 3bfd 0cbf
000002a0: 84de 0e3f ab13 753e 29c7 c6be 6c0a 41be
000002b0: aaf2 bebe d40d 3bbd 276a 023f 5cc9 4dbe
000002c0: c6ca 863f ba9b 8d3e 1807 90bf 6f21 60be
000002d0: 3136 153f a2dc 9e3d 5647 eb3c bb13 033f
000002e0: f33e 923e 930c 2b3f ba21 c2bc c19a a13d
000002f0: a20c 883d 572f 13bf 1d08 e73c 9dc2 11bf
00000300: 9575 233f e7ee eebc b15c 913d b4cd 833e
00000310: 587c 0ebe 7af6 a3bd 263c 5a3e f194 2f3f
00000320: e63a babd 3c85 f23e a2ad a5be ba3f ebbd
00000330: b2e1 8ebe 2320 413e 1fa4 783e a12d 47be
00000340: b7c1 7dbf d1cb b8be 20da adbe a17d 1c3f
00000350: b91a edbe fe34 bcbc d46f b43e 1327 24bf
00000360: 7ee1 5c3e a280 30bc ce95 2fbd 2b22 80be
00000370: 0f32 aa3d 5396 1e3f 310c a03e 166e e3be
00000380: 3d25 5a3f 38c7 be3d 0a8f d03e 3474 c5bd
00000390: dbfe debe 20c4 1bbe 0fa1 d43e 9b39 26bd
000003a0: 9451 4cbf 6555 b5bd 25e5 823e def5 193e
000003b0: ef1e 38be 9968 98bd e218 c63d 1047 673e
000003c0: 5c58 56bb 30d7 ef3e 37fe 883d 2a89 763e
000003d0: 9552 b0bf da7f 233f 518f 8e3e ef6a 1e3e
000003e0: 8008 4c3d c5de c13e 2af3 31be bcca c23e
000003f0: 1651 57be 2d41 ecbd 7264 47be 6d54 eabe
-0.05801615 0.4217873 -0.1726213 -0.4721059 -0.45828983 0.47026694 -0.6840858 -1.0277767
-0.27086484 -0.66386294 -0.43365616 -0.10929618 -0.47836226 0.09872109 0.38494655 -0.33998895
0.48788923 -0.21655445 -0.41146147 -0.34891286 -0.0033586116 0.61820406 -0.448827 -0.035013866
0.33875135 0.15926039 0.5610618 0.4355784 0.064259745 -0.5714157 0.22647081 -0.2674408
-0.62262136 -0.5123491 0.27343667 0.100913405 -0.011899578 -0.34618732 0.48389325 0.7131388
0.40977427 0.21845315 0.16844794 -0.23772292 -0.15872079 -0.7680785 -0.033883773 -0.47732562
0.2988133 0.40467757 0.075009935 -0.222435 0.34000233 -0.2314799 0.48593515 0.39008388
-0.04787828 -0.052605473 0.0046332516 0.0016002329 -0.30769888 1.6374288 0.1689934 -0.37240663
-0.43209186 0.007450708 -0.250461 0.023873052 -0.21817693 -0.054737113 -0.012246806 -0.23569874
0.25945142 -0.9806721 0.3809254 -0.38273865 -0.6215979 -0.38092422 0.019941676 0.39418477
-0.44200754 0.9816534 -0.47608885 -0.034570187 -0.43068677 -0.25233448 -0.54393506 -0.66141516
-0.13257597 -0.23134995 -0.20096047 0.60114783 -0.27149045 0.4080929 -0.14100456 -0.4103115
0.4960314 -0.19448966 -0.6397519 -0.2155438 0.6267319 0.12762222 1.2712092 -0.62711257
0.30279216 1.0428488 0.30548048 0.98402584 -0.22762859 -0.8180471 0.26987976 -0.4541013
-0.40603986 -0.5732903 0.90822184 -0.09191818 0.31064677 -0.21304022 -0.2515771 0.6271569
-0.56558263 0.13398005 -0.028944757 -0.031100223 -0.0028194883 -1.1653179 -0.0039902395 -0.1305441
0.4312328 0.6222352 -0.10680347 -0.30901784 -0.114708014 -0.35649315 0.20382711 0.041859727
0.25743088 0.09207235 -0.6978782 0.099362515 0.043350257 -0.0026106916 0.3510639 -0.32008874
-0.45959386 -0.3661363 -0.27509207 -0.27620968 -0.44670567 0.26882163 0.012442261 -0.08270302
0.51232237 -0.23286523 0.41034916 -0.25954637 -0.52703035 -0.3605728 0.010307584 0.12817433
-1.0146672 0.48923674 -0.2006451 -0.47265536 -0.84499556 0.6202632 -0.5704368 -0.550739
0.5580828 0.23933284 -0.38823822 -0.18851632 -0.37294513 -0.045667484 0.50943226 -0.20096344
1.0530632 0.27657872 -1.1252165 -0.21887754 0.58285815 0.07756926 0.028720539 0.5120198
0.2856365 0.6681606 -0.023697723 0.07890845 0.066430345 -0.5749411 0.02820211 -0.5693758
0.6385129 -0.029166652 0.070977576 0.25742877 -0.13914621 -0.08005996 0.21312007 0.6858664
-0.09093265 0.47367275 -0.32359034 -0.11486764 -0.27906567 0.18859915 0.24281357 -0.19451
-0.9912371 -0.36093 -0.3395548 0.61129194 -0.4630945 -0.022974487 0.35241568 -0.6412212
0.21570393 -0.010772856 -0.042867474 -0.25026068 0.08310329 0.61948127 0.312593 -0.44419926
0.8521307 0.09315342 0.4073413 -0.096413046 -0.43553814 -0.15211535 0.41529128 -0.04058228
-0.7981198 -0.08854178 0.25565448 0.15035197 -0.1798055 -0.074418254 0.09672715 0.22585702
-0.0032706475 0.46843863 0.06689113 0.24075761 -1.3775202 0.6386696 0.27843717 0.1547048
0.049812794 0.37865272 -0.17377916 0.380453 -0.21027026 -0.11535869 -0.1947191 -0.45767537

encoder.gru.bias_ih_l0 f4 [120]
00000000: ea5f 2abf f63b ac3e fe3d aebe 370d 0fbe
00000010: 0393 9dbe bdee 13bf c576 d7be aed0 123d
00000020: 98c6 7f3e 2f6d 66be 82d0 103f 58b2 cb3e
00000030: dc27 833e 8a4e d43d ae36 733d db4b 8c3e
00000040: 623f 42be 0c37 acbc 03dd d4be f8da a13d
00000050: a2ee a7be 00f7 1a3e 7818 b0be 9285 cc3d
00000060: 6d06 93be dadc 02be fa6b ae3e 8b66 5abe
00000070: a88f 323e 3c0a 023e fac1 d0bb 67c0 063f
00000080: 0ea7 d3be a4c6 babe 920f 423e 4c91 cfbd
00000090: 289a 243d 5b5f eabd 6e27 8a3e a152 11bd
000000a0: b903 3e3f dfe5 8f3e 784c a93e f112 3a3f
000000b0: c282 b43e 4a64 b73d 85c6 4c3f fd38 7d3f
000000c0: 414f e7be d5ff 5f3c ffa5 debe 7499 333e
000000d0: 334c 41bc e9ce f03e 032b 483e 8615 0cbf
000000e0: 52c2 0c3f 433b d63e e5fc 443f 3929 1a3f
000000f0: 2f22 d33e cf27 cf3d 47d0 4f3f 0517 063f
00000100: 3a3b 71be 4bf0 b1bd f6cf df3e 102d 563f
00000110: f782 263f 71e4 143f eb1a 233f 58e3 9a3e
00000120: 0a49 dabe dfae d63e 0261 143f f5ff 023f
00000130: 1976 db3e e4d1 4b3f a22b 4e3e d0a4 a83e
00000140: 9caa 3f3e 5ef1 0dbf c4e5 6d3d 3981 dabd
00000150: 07cc 403d 5141 59be 45ea 3d3d 82c1 a83c
00000160: dabd 8b3e c9ec 863d e995 1a3f 8483 e1bd
00000170: a269 f83e 53ff 663d 4777 bdbb 42f2 e83e
00000180: b3d9 3a3e 2951 3f3e aa65 213e fffa f93d
00000190: b209 b9be 0314 9b3e c8b3 063c 6b25 833d
000001a0: d3fa 2ebe cff3 e63d 8a2e 993c 0edc 813e
000001b0: 4a3f dfbd 8493 00be abb7 67be ad4b 833f
000001c0: 2d35 1c3e a80b 48be e35d 7cbd aacb 103e
000001d0: 4ac8 fabe 33bf 0fbe 84fa 213f af42 a73e
-0.66552603 0.33639497 -0.3403167 -0.13969885 -0.30776224 -0.5778616 -0.420828 0.035843544
0.24978101 -0.22502588 0.5656816 0.39784503 0.25616348 0.10366543 0.05937832 0.27401623
-0.18969491 -0.021022342 -0.4157487 0.07903093 -0.3279925 0.15133286 -0.34393668 0.09986414
-0.2871584 -0.1277956 0.34066755 -0.2132818 0.17437613 0.12699217 -0.00637078 0.5263733
-0.4133839 -0.36479676 0.18951252 -0.10135135 0.040186077 -0.11443969 0.26983207 -0.03547919
0.7422443 0.28105065 0.33066154 0.7268515 0.3525601 0.089546755 0.79990417 0.9891508
-0.45177653 0.013671835 -0.4348602 0.17539006 -0.0117979525 0.4703286 0.19547658 -0.5472034
0.5498401 0.41842088 0.76948386 0.6021915 0.41237018 0.10115015 0.8117718 0.52378875
-0.2355775 -0.0868841 0.4371335 0.8366251 0.65043586 0.58161074 0.6371295 0.30251575
-0.4263385 0.4193029 0.5796052 0.5117181 0.4286354 0.7961714 0.20133832 0.32938242
0.18717426 -0.5544642 0.05808045 -0.106691785 0.047069576 -0.21216322 0.046365995 0.020600084
0.27293283 0.06588132 0.60384995 -0.11011413 0.4851809 0.05639584 -0.0057820412 0.45497328
0.18247108 0.18683304 0.15761438 0.12206077 -0.3614021 0.30288705 0.008221574 0.06403621
-0.1708787 0.112769715 0.01869895 0.253632 -0.10900743 -0.12556273 -0.22628658 1.025747
0.1525466 -0.19535697 -0.061612975 0.14140192 -0.48980933 -0.1403778 0.6327288 0.32668063

encoder.gru.bias_hh_l0 f4 [120]
00000000: 24ab e9be 3ce7 c53e 2d7b 16be 81a1 13be
00000010: d857 aebe d0a9 9bbe 4097 45be e55b 1bbe
00000020: 22c8 0f3e ead3 a9be 0b8a 4b3f ee0e bf3e
00000030: 63f2 6d3e 34c0 09bd 10c2 0ebd 2547 a43e
00000040: f369 893c 0c0c babc 53aa 07bf 7dfc 9cbd
00000050: f6df f6be 0b29 c53d 457e a4be 7562 aa3e
00000060: 931c 96be dee9 eb3d 17d8 cc3e ffdf 7ebe
00000070: 2b3c ba3e ea15 8f3d 2890 0b3b 4311 1e3f
00000080: dce4 a3be 5263 c3be 9074 7abd a662 8ebd
00000090: 5b6e 2d3e 9494 ba3d 0d4f a23e abfc adbd
000000a0: bb7e 003f c31f 223d 56d3 933e 302c 3c3f
000000b0: 4fd0 b13e 768d d63d f18f 123f d595 543f
000000c0: 643f acbe 4207 01bb 2fc9 e4be 42ad 663e
000000d0: 79fc 76bd 1722 d73e f112 933e 38fd d5be
000000e0: 3fa6 233f a3bb a43e b7f2 6d3f 0b32 073f
000000f0: 85c3 023f 960c 893c 859e 163f 2b8a fd3e
00000100: 9b97 6abe 15fa aabd 3c7f af3e 1e15 303f
00000110: 6ed9 5c3f cb2e 413f 55c6 ea3e 3a1b 003f
00000120: d9a1 1cbf d9cc 043f 6587 c73e d813 d13e
00000130: 3fb6 e63e 3807 4e3f 6b89 ae3e a162 cf3e
00000140: 9a95 86bd 03ec 1dbf 38c4 d6be a0b0 193e
00000150: 371c 0c3d f20d 95ba c127 f2bd df7a 333c
00000160: 8950 333e 8bc4 27bd 0e07 4f3f ca36 9fba
00000170: 89b8 003f 5007 58bb 8784 35bd 87a6 423f
00000180: fbfb 91bd f9a3 0a3d e193 c73c c108 b43e
00000190: 78a8 0fbe c62b 81bd 269c 613e 4c43 863d
000001a0: a7e1 98bc dba6 7b3e fab3 be3d d2dc 103e
000001b0: 3395 533e 5e0e 073d 93b0 11be bdbd a23f
000001c0: 3e45 00be f5d3 1bbe 8999 453e f67b 6bbd
000001d0: bf99 85be 08a0 21be 8205 db3e 6839 173d
-0.45638382 0.3865298 -0.14695425 -0.14417078 -0.34051394 -0.30402994 -0.19295979 -0.15171774
0.14041188 -0.3316949 0.7950751 0.37316078 0.23236994 -0.033630565 -0.03485304 0.3208553
0.016774153 -0.022710823 -0.5299427 -0.07665346 -0.48217744 0.09626969 -0.32127586 0.33278242
-0.29318675 0.11519216 0.40008613 -0.24890135 0.3637403 0.06986602 0.002129564 0.6174509
-0.32010543 -0.38161713 -0.06114632 -0.069524094 0.16936629 0.0911037 0.31700936 -0.08495458
0.50193375 0.03958107 0.28872174 0.73504925 0.3472924 0.104762 0.5725089 0.83041126
-0.33642113 -0.0019688164 -0.4468474 0.2252703 -0.06029937 0.42018196 0.2872539 -0.41794753
0.63925546 0.32174405 0.9294848 0.52810735 0.5107959 0.016729634 0.5883563 0.49519476
-0.22909395 -0.083484806 0.3427676 0.6878222 0.8626927 0.75462025 0.4585444 0.50041544
-0.6118446 0.5187507 0.38970485 0.40835452 0.45060918 0.80479765 0.34089217 0.40504935
-0.06571503 -0.6168825 -0.41946578 0.15008783 0.034206595 -0.0011371954 -0.11823989 0.010954588
0.1751119 -0.040958922 0.8087014 -0.0012147066 0.5028158 -0.0032963343 -0.04431584 0.7603535
-0.071281396 0.033847783 0.024362506 0.3516293 -0.1402911 -0.06307177 0.22032222 0.065558046
-0.018662287 0.24575369 0.093116716 0.14146736 0.20662384 0.032972686 -0.14227514 1.2714154
-0.12526414 -0.15217574 0.1929685 -0.057491265 -0.2609386 -0.15783703 0.4277764 0.03691998

decoder.gru.weight_ih_l0 f4 [120, 1]
00000000: b307 193f 3e2d 493b d31d 73bf fccd 063f
00000010: 7731 21bf c02b 2b3e 1e2f c9be f52c 46bf
00000020: c8fb 47be 9637 5c3f 9152 72be 13f1 a8be
00000030: 822e 873f 7f26 b1be 2b33 4fbe 0bf0 b23e
00000040: 655a 973f 3552 4e3f 7b0d 0ebd 09e1 17bf
00000050: 4e54 45bf 5dbf 503e 335c ca3e 542c 93bf
00000060: 6c9f 12bf 893c b03e 9e31 9d3d c0c1 843e
00000070: 9566 403d c500 e93e fc95 213d 8a1f b03e
00000080: 32e5 98bc 091a ecbe 5047 73be 3190 23bf
00000090: 55e3 8bbf cbb0 18bf eee9 5cbf f4e6 853d
000000a0: 1a54 393e eef7 14be 8cde 4a3e 0c88 afbe
000000b0: 495d 1c3e 5c72 c03c f2fb da3d f0b1 66be
000000c0: 374c 013d 7d56 563f df67 83be 88bf 7b3b
000000d0: 2438 9bbe 612b 42bc 50cf 913d 1f32 2cbf
000000e0: 9585 82bd c05c 443d daad 90be c2ae 27be
000000f0: d556 b5bc eba1 5c3e 2a08 1dbe e8aa 0ebe
00000100: 9f72 323d f904 993e be14 80be a38c 903d
00000110: 0f9e f8be 3658 ad3e 81fe 26bd dfb1 283e
00000120: 4cb9 e53d be5d 99be d5a5 4ebe c04f e83d
00000130: f3e6 233c 11a9 8d3e 5727 473d fcf7 4ebf
00000140: 061b 42be 6822 81bd dc04 b1bd 7c99 713c
00000150: 9b17 503e 2655 67bd 936b 0ebd a423 403f
00000160: 1bc4 a83e 4eba f43d b98e 3d3c 5b08 92be
00000170: 7434 513f a501 96bd 397d 55bd 56c5 d7bc
00000180: 7630 5c3e 62fd 02bd c874 a83e 87b0 1e3f
00000190: 1943 9d3d fb54 50be 3a0e 533e aca0 b5bd
000001a0: 87c0 4cbf 0d1a d03b f774 d03e 7dbc 063f
000001b0: 3811 ec3d 51fe 0b3e 97d3 023d 58c0 d6bd
000001c0: 4d6e 373e 2f8c 933d c5f4 733c 4747 80be
000001d0: 1bd6 01be c3e5 543e d251 5f3e 8e9f 9f3d
0.59777373 0.0030697132 -0.94967383 0.5265806 -0.629661 0.16715908 -0.3929376 -0.7741235
-0.1952964 0.8602232 -0.23664309 -0.32996425 1.0561068 -0.34599683 -0.20234363 0.34948763
1.1824461 0.8059419 -0.034680825 -0.5932775 -0.77081764 0.203855 0.39523467 -1.1497903
-0.5727451 0.34421185 0.07675479 0.2592907 0.04697283 0.455084 0.039449677 0.34399062
-0.018663976 -0.46113613 -0.23757672 -0.63891894 -1.0928751 -0.59644765 -0.8629445 0.065381914
0.18098488 -0.14547703 0.19811457 -0.34283483 0.1526996 0.02349203 0.10692586 -0.22528815
0.031566825 0.8372572 -0.25665185 0.0038413722 -0.3031627 -0.011851163 0.0711962 -0.6726398
-0.06373135 0.047940016 -0.28257638 -0.16375259 -0.022136131 0.21546142 -0.15335146 -0.13932383
0.043566342 0.29886606 -0.25015825 0.07058074 -0.4855809 0.33856362 -0.040770058 0.16474102
0.11216983 -0.29954332 -0.20180447 0.11343336 0.010003793 0.2766805 0.0486215 -0.80847144
-0.18955621 -0.063053906 -0.08643505 0.014746066 0.20321505 -0.05647769 -0.03477056 0.75054383
0.32962117 0.11949597 0.011569672 -0.28522 0.8172066 -0.073245324 -0.052121375 -0.026339214
0.21502861 -0.031979926 0.32901597 0.6198811 0.076788135 -0.20344917 0.20610896 -0.08868536
-0.79981273 0.0063507617 0.40714237 0.5263136 0.11526722 0.13671233 0.03194007 -0.104859054
0.1791317 0.07204472 0.014889901 -0.2505438 -0.12679331 0.20790772 0.21808556 0.077941045

decoder.gru.weight_hh_l0 f4 [120, 40]
00000000: 1758 d63e 6211 0f3f 5535 94be 213e 6c3e
00000010: c9ef a5be 1bd7 fd3d 2a6d 4abe 97ba a6be
00000020: 877d 2b3f a15b dfbe 593a d53e d077 a33d
00000030: a90e 00bf 0972 9b3c 8bec 2d3e 0400 2b3e
00000040: dd80 b23d ec8f 1e3f 229a 18be 48ae 333e
00000050: 7405 6cbe dee2 21be 83b1 ae3e c36e 3bbe
00000060: 27b4 3abe 9c05 dfbe 1527 86bf 8e20 1f3f
00000070: 0fcd bebc e6d6 33bd 70fa 8cbe 4314 cdbe
00000080: 68d3 52bd 68a5 303e 9ad1 293e 1179 323f
00000090: ccee a53d 407f 3f3b 393b 483f 1a2f 893e
000000a0: 2ecb 83be f791 0e3f 6605 01bf 5485 a8be
000000b0: 86e9 b13d 800c 383f 1067 fabe 3aa5 15bf
000000c0: dd39 e03e d985 dcbe 5f6c 3e3e f48e 9ebd
000000d0: 7896 823d 6407 7c3e 36f0 c93e 21cc 203e
000000e0: 7d12 453e b643 f73e d290 b6be fbad 023f
000000f0: 84d0 0e3f 59d3 493f aaab c33e 0537 10bf
00000100: f97e 553f 6076 9f3d 8511 22bf f32a 93be
00000110: f55b 703e 683e 2d3f ea1d be3e 069a afbb
00000120: 5046 083f d44a b33e 160a 843f 291f 1ebd
00000130: ac96 343e 7c76 adbd 7e66 18bf fd73 fa3d
00000140: 4eab 79be 6001 a93e b6b7 27bf 15d2 4ebf
00000150: 01d6 14bf 1763 d43d 3ea3 a5be 783d 32bf
00000160: 5fb4 6ebe fda4 073d 1f80 d13e 67e8 673e
00000170: da75 d3be b95e 77be 5377 d23e 8d41 e93d
00000180: b5be bf3e fe85 1dbc cef1 eabe 66c0 03be
00000190: e8ba 29bd b78c c43f 2de7 c03e c4f1 92bf
000001a0: b004 62bf f4f5 743d 09ca 1c3d b8d6 683e
000001b0: b9d9 00bf 28bf 003f 9d78 ddbd b864 a3be
000001c0: 5a99 d83e 55f4 3fbe e16b 523e e391 af3e
000001d0: fea3 103e 4ba6 8abe 88b1 3ebe b0d2 a73e
000001e0: 53d3 e03e b160 333f 6054 2ebf ef0d 293f
000001f0: 7141 f3be fc12 cc3e 3dde 7f3e 3688 90be
00000200: 4716 7e3e 01ed 8c3e 1bc8 f2be ff9c 8fbe
00000210: 456d 2cbf 783a 393e 32b0 823f 031d 1cbf
00000220: 880f b63c fcbf 613e 7cae 69be f013 14be
00000230: d559 ad3d 95b6 3c3e 4531 a23f f17e 273e
00000240: b271 983c 26db 83bc 80dc ce3e a74f e6be
00000250: ee22 9fbe badd b0be 9d31 69bd 640a 6d3d
00000260: 55dc 32be f9fe 1c3e ec81 8b3e 2cec 443f
00000270: 15c4 76bb 7ea4 d93e 3137 b93e a9e2 383f
00000280: 7328 0dbf f61a 37bf 6ec1 cfbf f832 01bf
00000290: 3337 c4be 1568 2e3e 254f 47bf ce55 11be
000002a0: 2ab2 6a3d 14de 9f3e 77bc 50be 9ed3 9dbf
000002b0: 1254 a1be 4992 55bf 28bb 463f 4b79 02bf
000002c0: 4c35 e8be eb9f 0dbd 9101 63be 39c0 023f
000002d0: f003 273c 2e10 853f cfc8 1d3e 6e99 c4bf
000002e0: 5312 bbbd eacc 033e 2d98 d9be 5fa2 233f
000002f0: 2fa1 a33c 1134 033f c96c 20be 0541 563e
00000300: ecdf 973e 39d6 073f 09de 9c3c 0c88 c7be
00000310: 4424 83bf 541f 61bf e1ac c8be 861a aa3e
00000320: 4173 17bf f745 013e 95b1 1b3c 7e6c 4b3e
00000330: 7244 09bf 0dbc b0be f238 053e 93f9 0f3f
00000340: 592d 75be dc6d a53f 868b a7bf abeb fdbe
00000350: e9fc afbe 5bfe 543e d27b 94be 34e9 18bf
00000360: 8ed4 92bd 1412 85bc 6c2c 323f 3c1d dabe
00000370: 6a23 d83e 28ec 7a3f 2c49 633e e0c3 953e
00000380: 0f97 6bbe f10c a53f 568a 8d3e 695c dd3e
00000390: f310 393e 404b 20bc 28c3 ec3e 33ef 94bf
000003a0: 334d 773f 42b2 0c3e f45c 893f 5b40 1dbf
000003b0: 2237 b83e 64c3 45bf be7c 00bf e635 1a3e
000003c0: 5be7 803e c9b0 0cbe 8913 a9bd 41ae a9be
000003d0: 42e0 15bf 2bc7 e7be 507e 8cbd a757 a2be
000003e0: 05ff 573f 63ed 40be f0ad 083f b12a f6bc
000003f0: ed1c 0fbe 56a8 933d 0131 1d3f 11f6 8f3e
0.41864082 0.558859 -0.2894694 0.23070575 -0.32409504 0.12394544 -0.19768205 -0.32564232
0.66988415 -0.43624595 0.41646078 0.07981837 -0.5002237 0.018975275 0.16984765 0.16699225
0.08715985 0.6193836 -0.14902547 0.17546952 -0.23048955 -0.15809199 0.34119806 -0.18303971
-0.18232785 -0.43558967 -1.0480677 0.6215905 -0.023291139 -0.043906115 -0.2753482 -0.4005452
-0.051471144 0.17250597 0.16583863 0.6971598 0.081021875 0.0029220134 0.78215367 0.26793748
-0.2574095 0.55691475 -0.5039886 -0.3291422 0.08687119 0.71894073 -0.48906755 -0.5845524
0.43794146 -0.43070868 0.18596028 -0.0774211 0.06376356 0.24612194 0.3944108 0.15702869
0.19245334 0.48293847 -0.35657364 0.51046723 0.5578692 0.78838116 0.38216907 -0.56333953
0.8339687 0.0778625 -0.6330798 -0.28743705 0.23472579 0.6767335 0.37132198 -0.005358937
0.5323229 0.35018027 1.0315578 -0.038603935 0.17635602 -0.08469865 -0.5953139 0.12229154
-0.24381754 0.33008862 -0.65514696 -0.8078931 -0.58139044 0.103704624 -0.32351106 -0.69625044
-0.23310994 0.03311633 0.4091806 0.22647248 -0.4130085 -0.24157228 0.41106662 0.11389456
0.37450185 -0.009614466 -0.45887607 -0.12866363 -0.041438013 1.5355443 0.37676373 -1.1480031
-0.882884 0.05980487 0.038278613 0.22738159 -0.5033222 0.5029168 -0.10814021 -0.3191278
0.42304498 -0.18745549 0.20548965 0.3429099 0.14125058 -0.27079996 -0.1862241 0.3277793
0.43911228 0.70069414 -0.68097496 0.66036886 -0.47510865 0.39858234 0.24987121 -0.2822892
0.24813186 0.2752457 -0.47418293 -0.28049466 -0.6735423 0.1808871 1.021002 -0.6098177
0.022224203 0.22045892 -0.22820467 -0.1446073 0.084644 0.18429025 1.2671286 0.16357018
0.018608902 -0.016095709 0.40402603 -0.44982645 -0.31081337 -0.34544164 -0.05693208 0.057871237
-0.17466862 0.1533164 0.2724756 0.7692287 -0.0037653495 0.4250831 0.3617492 0.72220856
-0.55139846 -0.71525514 -1.6230905 -0.504684 -0.38323364 0.17031892 -0.7785514 -0.14192888
0.057298817 0.3122412 -0.20384394 -1.2330205 -0.31509453 -0.8342634 0.7762933 -0.5096633
-0.45353162 -0.034576338 -0.22168566 0.5107456 0.01019381 1.0395563 0.15408634 -1.5359323
-0.091343544 0.12871137 -0.42498913 0.63919634 0.01997432 0.5125132 -0.15666498 0.2092324
0.29663026 0.5306125 0.019148843 -0.38970983 -1.0245442 -0.8793843 -0.39194396 0.3322336
-0.5916024 0.12624346 0.009502788 0.19865605 -0.53620064 -0.3451847 0.13010004 0.56240195
-0.2394308 1.2924151 -1.3089454 -0.49593863 -0.34372643 0.20800154 -0.29000717 -0.5973084
-0.07169448 -0.016243972 0.6959903 -0.4260043 0.4221452 0.98016596 0.22195882 0.29251003
-0.23006843 1.2894574 0.27644604 0.43234566 0.18072872 -0.009783566 0.46242642 -1.1635498
0.9660217 0.13739875 1.0731492 -0.61426324 0.35979563 -0.7725127 -0.5019034 0.15059623
0.2517651 -0.13739313 -0.08255679 -0.33140758 -0.58545315 -0.4526914 -0.0686003 -0.31707498
0.84373504 -0.18840556 0.5339041 -0.030049654 -0.13975878 0.07209842 0.614029 0.2811742

decoder.gru.bias_ih_l0 f4 [120]
00000000: 4217 84be 4016 17be 173e 56be e9d5 59be
00000010: 0369 a8be 7b03 86be 0d54 11be 9265 acbd
00000020: f6b9 7cbe 196b d63e 4c1c 093f d181 593d
00000030: 848c 97be 22cd 06bf b825 d43d cfc5 0bbe
00000040: 843e 86bd d601 a5be 9961 f93e f93f f4bd
00000050: 78ef d13d eacb c8be a15d f53d d124 a9be
00000060: 1069 083d 3a98 533e bca5 29bf 15aa dc3e
00000070: 52b8 343e 881f 91bd 1054 8e3d a9f2 adbe
00000080: 681a 1c3e 025c 3fbe 4e5f a93e ee1f 04bd
00000090: 3dc7 30bf 29ab c0be 758f 4c3d 6fcd aa3d
000000a0: 74bd e03d 42fc 033e c9c6 6a3c 46dc 303f
000000b0: b3a2 65be 1c77 133f aac1 dd3e a44d 2abf
000000c0: a9e4 bb3e b748 1f3d ee6d dbbd c367 973e
000000d0: d06d 8cbb 49f7 b73d d24a a6be 9f4a e4bc
000000e0: d850 0f3f c045 5c3e c899 fc3d 1431 333e
000000f0: 83a5 1ebc 5d3f db3e f927 433f 10ac b03e
00000100: dd41 b93c b7c5 853e f7b4 7a3e 724f bb3d
00000110: da0a 81be c4f5 243e 11c3 e0bd 58d4 86bd
00000120: b6ef 043c 1af9 023f ee90 2ebf fed4 363f
00000130: d8d7 a93d c7da 683e da02 be3e 485c d0bc
00000140: 7561 81bd 3b01 bfbd 3fe7 d13c 5889 50bc
00000150: 2a13 96bc 8858 ccbe 4107 dabd b125 693d
00000160: acbc 48be 7713 99be 0f38 b9bd 8051 8e3d
00000170: e2c5 ccbc 5d5a 99bd 7196 a43e 6982 a9bd
00000180: d06e a3bd 24d1 683e 96b8 8d3d dbd1 92be
00000190: 92f2 a6bc d82a 1a3e 5f9b fb3b 8261 eebc
000001a0: 059b 93bd f42b e93d fccd 7fbc 1c1a da3d
000001b0: f737 77be d127 3cbd 5dae 573d 99a1 e8bd
000001c0: 4f7a ab3d 4292 42bd ca41 bbbe a98f db3d
000001d0: edc9 d9bc 3994 c03c b9f0 8a3d ee41 a33d
-0.25798994 -0.14754581 -0.20922123 -0.21273006 -0.32892618 -0.2617453 -0.14192219 -0.084178105
-0.24680313 0.41878584 0.535588 0.05310232 -0.29599392 -0.5265676 0.10358757 -0.13649677
-0.06554893 -0.32227963 0.48707274 -0.11926264 0.10250753 -0.39218074 0.11980749 -0.330359
0.03330332 0.20663539 -0.66268516 0.43098512 0.17648438 -0.07086092 0.069496274 -0.33974198
0.15244448 -0.18687442 0.33080524 -0.032257013 -0.69054013 -0.37630585 0.0499415 0.083399646
0.10973635 0.12889197 0.014329621 0.6908611 -0.22425346 0.5760362 0.43311816 -0.6652472
0.3669789 0.038887706 -0.10714327 0.2957135 -0.0042855516 0.08982713 -0.32478958 -0.027867613
0.5598273 0.21510983 0.12334019 0.1749919 -0.009683016 0.4282178 0.7623287 0.34506273
0.022614414 0.26127407 0.24483095 0.09146012 -0.25203592 0.16109377 -0.10974706 -0.0658347
0.008113792 0.5116135 -0.68189895 0.7141875 0.08293122 0.22739707 0.3711155 -0.025434628
-0.063174166 -0.093264066 0.025622962 -0.012728058 -0.018319685 -0.39911294 -0.10645915 0.05692071
-0.19603223 -0.29897663 -0.090438955 0.06949139 -0.024996702 -0.074879386 0.32146028 -0.08276827
-0.0798012 0.22736031 0.069199726 -0.28675732 -0.020379338 0.15055406 0.007678434 -0.02909923
-0.07207302 0.113853365 -0.015613075 0.10649511 -0.24142443 -0.04593641 0.05265652 -0.11358947
0.08372938 -0.047502764 -0.3657363 0.107207604 -0.026585544 0.023508178 0.067841955 0.079715595

decoder.gru.bias_hh_l0 f4 [120]
00000000: 0aed 08bf 127e 31be 67af 38be a3d7 3abe
00000010: ee20 10bf 51f3 d2be dd78 14be fe52 5ebe
00000020: 7aee b2bd 4fa6 8e3e 107a d43e 4758 c23d
00000030: da0a cabd 8f61 eebe 5d34 b83e cbe7 3ebe
00000040: 67b4 31bd af0b 73be fe3a bd3e f932 5fbe
00000050: 740c debd d8e0 c4be 9e03 303e 5f35 b5be
00000060: cfe3 533e 8693 cf3d 9c86 22bf 6135 643e
00000070: d45a 523e f0e4 273d de07 53bd fbd9 f9be
00000080: 8842 01bd 4d02 a23d fa77 9f3e a1cb f4bd
00000090: c79c 25bf 3718 d4be 4151 633d 2d09 f03d
000000a0: 9bdb 763d 82c5 133d 2c7d 0dbd 8ebe 2d3f
000000b0: b8d9 a9be a447 a33e 6e62 973e da01 1fbf
000000c0: 651a 8c3e 35e5 46bc 6ce0 16be f004 413e
000000d0: 82eb e3bd 46a2 9b3e 86fe b6be 4d4e d3bd
000000e0: 0ef5 0b3f 76dc 923e 7a7e 15be 472e d4bd
000000f0: ba26 113e 5d9e 623e a914 403f 6fbb 793e
00000100: 6e60 b03d 5f36 b73e 4b5b c73e 1cec 323d
00000110: d0c7 07be e76e 8c3e 387c 19be ba62 153e
00000120: 3c7c ee3d c992 b13e f87c 30bf 8a73 353f
00000130: 202c ef3d 10dc 883e 26dc c43e 5224 3a3e
00000140: c46c 70be 0538 efbd f161 1b3e 62d0 45bd
00000150: 78f6 383d 0f74 5dbd 2a71 953e 8b6e f93d
00000160: fc02 babe da42 a93c e1ed c63b d190 25bf
00000170: 7652 723e c950 17be bb99 c53c a1c5 89be
00000180: 9371 8bbe f205 b5bd d356 c73d 0e99 75be
00000190: a389 013d 17ea febd 5630 7bbe 7061 d13e
000001a0: efb0 093e 864c 7fbd e0b9 f33c a897 303c
000001b0: d858 6d3d 0047 e53d 65b4 443d a0b7 5c3d
000001c0: 8240 3f3c 3e16 00be 8d11 b1be 7ed5 15be
000001d0: 1e96 343e d35d d1bd 3d89 10be 34ae 833e
-0.5348669 -0.17333248 -0.1803566 -0.18246321 -0.56300247 -0.4120126 -0.1449923 -0.21711347
-0.08736892 0.27861258 0.41499376 0.09489494 -0.09865351 -0.46558806 0.3597745 -0.1864311
-0.043384936 -0.23734926 0.3695907 -0.21796788 -0.10842219 -0.38452792 0.1718888 -0.3539228
0.20692371 0.1013556 -0.6348665 0.22285987 0.2054246 0.040989816 -0.051521175 -0.48799118
-0.03155759 0.07910595 0.31146222 -0.11952902 -0.6469235 -0.41424724 0.05549741 0.117205
0.060268026 0.03607703 -0.0345432 0.6786889 -0.3317392 0.31890595 0.29567283 -0.621122
0.27363887 -0.012139608 -0.14734048 0.1884954 -0.11128904 0.30397242 -0.3574106 -0.10317669
0.546708 0.28683823 -0.14599028 -0.10360389 0.1417493 0.22130723 0.75031525 0.24387906
0.086121425 0.3578367 0.38936839 0.043682203 -0.13259816 0.27428362 -0.14988792 0.14588442
0.116447896 0.346823 -0.6894069 0.70879424 0.11678338 0.26730394 0.3844921 0.18177918
-0.23478991 -0.11680607 0.1517408 -0.048294432 0.045156926 -0.05406576 0.291879 0.121792875
-0.36330402 0.02066176 0.006070838 -0.646741 0.23664269 -0.14776911 0.024121156 -0.2690859
-0.27235088 -0.088390246 0.09733357 -0.23984167 0.0316254 -0.12446993 -0.24530157 0.4089465
0.13446401 -0.062328838 0.029751718 0.010778345 0.057946056 0.11195183 0.0480236 0.053886056
0.011673095 -0.12508485 -0.34583703 -0.14632222 0.1763539 -0.10222974 -0.14114852 0.25718844

decoder.fc.weight f4 [1, 40]
00000000: 54e4 f9be d03c bd3e 8b16 fa3e 7bcf d0be
00000010: 2429 073f 9d7b d33e 8755 85bf f50c 51bf
00000020: 091a 1a3f 8242 febe 7cb5 023f cefe c23e
00000030: c8a8 dc3e 8e43 ebbe c3b6 dd3e 20fb 143f
00000040: 92cb dd3e 81d6 c33e 963f 553f 7a3c b63e
00000050: b6fc 2cbf 6527 3b3d cd28 323f 7ea7 40bf
00000060: 8f3e bfbe 26d7 c83e 45ea febe d72f c0be
00000070: 259e 20bf 60c7 903e d497 15bf 6a14 043f
00000080: d705 9e3e 0b69 07bf 8f70 cdbe 1737 ff3e
00000090: 04b2 31bf 3791 09bf ab94 e53e aded bd3e
-0.48807013 0.3696046 0.48845324 -0.40783295 0.5279715 0.41305247 -1.0416726 -0.81660396
0.60195976 -0.49660116 0.51058173 0.38085026 0.4309752 -0.45949978 0.433035 0.58195686
0.43319374 0.3824959 0.8330015 0.35593015 -0.67573106 0.045691866 0.6959351 -0.7525557
-0.37352416 0.39226645 -0.49788108 -0.375365 -0.6274131 0.2827711 -0.58434796 0.5159365
0.3086383 -0.5289466 -0.40124938 0.49846718 -0.69412255 -0.53737205 0.44839987 0.37095395
