autoencoder_model/edges_only/vae_model.pt (torch, 81671 bytes, 10 tensors)

encoder.0.weight f8 [45, 62]
00000000: 7fef 9ea2 e11f 913f f90c 0952 4ca3 7d3f
00000010: c743 7aa6 c0b8 d1bf 16a2 d90f 6bcb 73bf
00000020: ac06 7fc3 98c1 ca3f 3b91 c600 6ed1 813f
00000030: 8ad3 1dfc 9804 863f 88bb 3f8c 347d 9cbf
00000040: 1c86 0682 0790 9c3f cbab 70ba e235 bd3f
00000050: 80e2 a436 e783 a5bf 5bd9 18e7 5c4e c7bf
00000060: 5ee6 ab82 3d09 a13f 89c2 df50 187a a33f
00000070: 6e0f 66b1 6032 ae3f d9a9 09a9 a976 85bf
00000080: e035 4f66 a1e6 a9bf 4311 42c7 d1f8 a8bf
00000090: 8906 3005 c25b cebf ba5c fbcc 7fce 87bf
000000a0: 7455 8afb 3218 84bf ae20 1ddf 589f c03f
000000b0: da35 423a e8c6 c43f 102d 4715 f065 ad3f
000000c0: d408 63dd 8aef c8bf f4a4 4dfc 2006 bd3f
000000d0: 7e1d c29b db1a afbf e33a 1142 79af 9a3f
000000e0: 019a 83c9 2fb5 c23f bb11 5742 9f65 cdbf
000000f0: 7f69 538a b8ba acbf e9aa 6c76 e57b a8bf
00000100: c4dd a6c2 354d c83f 7293 ee18 1bbc 953f
00000110: e8fd 065a 880a c8bf 73ad f3c7 7c9d c33f
00000120: efc0 4bc4 035d c4bf 5fe4 ac93 2f3d ce3f
00000130: be21 86d8 2ae5 bebf 3a61 2094 8fbf bbbf
00000140: 08f9 bc37 8f81 a9bf 92fa 5937 c114 a63f
00000150: 4b20 a33f 2031 aa3f 638a 31e1 20cc 713f
00000160: d89c a199 49b3 883f ec00 1f0e a4ad 96bf
00000170: 9e73 a0c5 97e1 a5bf 3cd0 f16e 74ef 98bf
00000180: ddb2 ca36 7bcd a0bf daee 23ce 86fe 9abf
00000190: 6a7f 953a 00a2 a8bf e05d a2d3 49f0 8ebf
000001a0: 1a4f 5a24 5e13 a5bf 83b8 a6a0 188e b0bf
000001b0: 93a7 028c 4be6 c1bf fee9 41be 240f c33f
000001c0: 677e c41f 8d42 76bf 0741 eb7b e10c a3bf
000001d0: 6d07 c915 3c25 b03f 9554 41ae 26ac a5bf
000001e0: 4afd 7fee 9b8a 883f f93f 1383 c182 abbf
000001f0: c2de 1198 5718 723f 4a5a d80d 7b10 7a3f
00000200: 80f6 e184 eb78 c23f 6abb 2c85 1e5d 84bf
00000210: c5ab 5571 9920 81bf cc74 95ad 633e 9c3f
00000220: dc25 d531 35c8 9c3f c075 9b96 859a cdbf
00000230: 71b1 3346 32d2 a73f ef90 2843 7578 b53f
00000240: 5681 8717 febe c23f 881c 2ed6 c0d2 c7bf
00000250: aa7b 5dd1 faa9 b43f bef9 1254 2081 c4bf
00000260: 2e88 6e64 34b2 98bf e424 24ef fde1 b83f
00000270: e32f c783 8d2a 9a3f 75d7 af03 12c8 bb3f
00000280: 584c 54b9 2d27 bd3f c5a6 f5c4 ca29 abbf
00000290: bea1 b4e1 93f0 9b3f 6383 00a0 d8e3 bb3f
000002a0: b690 6f67 f0c1 a6bf 9d09 0460 9998 cabf
000002b0: 3d8d 58f3 67f1 cdbf 946d 62e6 da11 afbf
000002c0: 5c71 9369 226c c3bf 7cc7 222d bca3 8dbf
000002d0: 2af5 6127 a90c cc3f cc19 c6a0 c2e8 c13f
000002e0: 0c82 eeaa 8188 c13f 7791 1dbd 286f b1bf
000002f0: 0525 f9f1 299d bebf 659b 58fe 7e71 bfbf
00000300: d0ee 00ff d535 913f 453b f7b8 921e c43f
00000310: 233b bb09 1ca4 a43f 6918 dee5 0040 c2bf
00000320: d3a4 b1a6 7c39 bbbf 3840 ccc3 3481 b3bf
00000330: 5774 c71e b1c5 923f 5f4e cbb3 5161 ca3f
00000340: a40f 217f 3a31 9dbf 7d2b 06d6 f202 88bf
00000350: ad29 1b85 4227 b8bf 6038 e9a4 7223 a6bf
00000360: 47cc 87c9 f244 a4bf e175 fbd4 ed36 99bf
00000370: dd85 4587 1f15 aebf 4ec9 17bf 0102 7f3f
00000380: db5d 2cf1 bb21 c63f f916 5fa2 b001 b5bf
00000390: cf5e 3245 df7c a3bf 4d49 8598 923c 97bf
000003a0: 8713 5f41 95fb a03f 7a84 2efe 7b7d b6bf
000003b0: fc21 e432 3379 ae3f 1a0d 47d6 3ca0 93bf
000003c0: 6ca4 a0c9 073b b63f 0a76 e783 3060 babf
000003d0: 0c67 73d9 64ae c1bf 528a 7aed bf9d 61bf
000003e0: 902f acce 4686 993f 9e91 7f2b 4c68 903f
000003f0: d264 e52a 8fd3 7b3f 6c50 5bb4 3a79 b03f
00000400: 2d5f ea14 05e5 87bf bd17 d35e 9faa e6bf
00000410: 9115 5b91 c774 8cbf 19d4 8161 66be 723f
00000420: 4e61 d27f 4036 a2bf a017 a7c5 37f8 77bf
00000430: fd7c 8182 dcbb 6abf 575f 9890 902d 90bf
00000440: 1f6f c3a8 329b 5dbf db45 c3c2 d52a 88bf
00000450: 8d2a a046 6409 963f 4e63 0e58 6b78 a8bf
00000460: 01df e40f 856a ab3f c912 ac4e 7f8c be3f
00000470: 7057 ca1b 3dcf a0bf 7ca6 01e5 3f96 9fbf
00000480: 4565 66a4 a82d a33f 1848 5066 e3c5 a0bf
00000490: 80dd 6ab3 7408 91bf 1d86 f031 9e32 aabf
000004a0: e577 3008 693c 27bf ca1b 472a 6f5e c83f
000004b0: d409 dba6 8bff bcbf 4c77 5bb8 0b67 a2bf
000004c0: 03e9 7168 85ba 91bf cfa8 18d6 fb14 a0bf
000004d0: b141 e47a 105a 97bf c311 cb5a be00 a1bf
000004e0: 3970 e3b8 bbae 703f ac3d cb88 46ce a0bf
000004f0: ba46 89aa 44d4 9fbf 3ac5 7bdf 30d2 863f
00000500: 5c0e da55 e31c a6bf 9f62 6eb0 9b1d a3bf
00000510: a33e 735e f8fd 86bf b074 9575 292c 9bbf
00000520: 9694 954e da5b a9bf b624 a2b0 9651 7a3f
00000530: d595 abf8 f085 a7bf 31e3 4167 5c99 b4bf
00000540: ab25 cb2f 7fd1 c4bf 6c3e 053b ec3f dd3f
00000550: e65f a087 680c bbbf 56fe a1b9 55f1 b3bf
00000560: 0855 cf28 9cbc 99bf 8449 bec0 6d05 98bf
00000570: 2938 2c16 2468 79bf 5a31 2e92 8be6 90bf
00000580: 7f51 9671 d6e3 b6bf 9dc5 2f9d f6e3 c1bf
00000590: 6a1e 5629 d4be d0bf 5b73 c0fa dc0c 98bf
000005a0: 80a6 379b a568 88bf 0195 cedb 6b65 9bbf
000005b0: 5444 36db cad4 b33f 0eca c6ed be6b b2bf
000005c0: b32a 8ab5 61c6 aabf 6cae db31 bd3f 7b3f
000005d0: 7a32 8ebb 860a a73f 113a 220b b2f3 aa3f
000005e0: 0bd9 d7e4 a1fa c23f a37e f2cb 9892 b7bf
000005f0: ddd0 5e58 1983 be3f 7126 6ece 02ca ac3f
00000600: 9bd2 4de7 eb05 af3f feb4 0ac4 45bb a1bf
00000610: 8dc2 4e18 797a 8b3f 1514 4382 1d0e d0bf
00000620: 2917 84d9 01f6 c63f 07dd 555c 5d90 c0bf
00000630: 1cdf 6f0b 643d b23f cdd6 8da1 b582 ba3f
00000640: e6ec b0a5 53a9 85bf 47b1 01fa 2df9 c23f
00000650: 9aa7 e153 e2da b43f 17e4 b079 2117 a0bf
00000660: 79d4 436b ff4b c4bf 0963 60e8 8bbb b13f
00000670: 419f 51dc cc40 a53f 866f 549f 4152 d1bf
00000680: 92c1 9764 dcf1 963f c7be b32b 88fd 76bf
00000690: 43f9 fee0 f4f0 843f dbe6 c18e a0e3 c03f
000006a0: a282 041f 07c8 b73f 884b b3de b0fe 953f
000006b0: 59de f179 ba44 803f 3ac6 6f8a 3913 b0bf
000006c0: bc44 ed62 1194 b9bf a70e 1b14 9fde b2bf
000006d0: f3f0 720f 4317 be3f 7bc2 b896 7329 c7bf
000006e0: 824f e704 d773 bdbf 6f90 8c28 5390 b83f
000006f0: 0dcd dce4 30a5 92bf df91 5d6d 656c bdbf
00000700: 5fcf 1679 3324 cf3f da7c 1903 ff70 cc3f
00000710: 243c 7dc8 4d0f 543f f70a a324 a37e 663f
00000720: fd22 d011 a831 b8bf 80dc 9611 3f33 9f3f
00000730: cc80 8544 e21a 7e3f ea16 0522 4648 b2bf
00000740: 1de5 7bb2 36ea a0bf c7b4 1552 ddcf a2bf
00000750: d3de d342 c848 76bf 5944 61c0 6940 90bf
00000760: 5d44 abd1 091a 893f 4d14 b385 053e c1bf
00000770: 0df2 b422 ebc0 adbf 79a4 0d1c 0db0 adbf
00000780: c8af 3add 4113 bbbf a17e 8b25 472e a93f
00000790: 01e1 4a15 53b9 a9bf 6e04 7bb1 a85f a43f
000007a0: dad3 e01f 22fa adbf b849 5434 f1b0 a6bf
000007b0: 067c 3f90 4232 b0bf 260b 0961 70f3 bdbf
000007c0: 73f9 bd2d 285a 723f 1057 0a7a 339f 63bf
000007d0: 6865 1efd 794e 62bf 8b59 7a9f 2fff 6abf
000007e0: 122e dbff bc0e 6cbf 2aa4 0936 686c 333f
000007f0: d6dd 4827 2053 783f d25d 7762 10ff 773f
0.016723180342281815 0.007235811354408422 -0.2769014001615315 -0.004832666597942145 0.2090331034251468 0.008700236700697963 0.010750956720338118 -0.027821370182148836
0.02789317828285763 0.1141034798790052 -0.0420219663814736 -0.1820789459613462 0.03327362270460975 0.038040885803529774 0.05897810140143532 -0.010480237456438711
-0.05058769582647549 -0.04877334172582206 -0.23717522862721221 -0.011624334757853173 -0.009811781217005523 0.12986288923480543 0.16232016415271638 0.057418348882118164
-0.19481025514512018 0.11337476882694714 -0.06075178409906366 0.026060003907612105 0.1461543783145345 -0.2296637605596866 -0.05611206711337768 -0.04782025404559482
0.1898562622497889 0.02122537936851949 -0.1878214301668628 0.15324363482737233 -0.15908858380090105 0.23624224386893197 -0.12068431650380426 -0.10839173666352489
-0.04981658511541026 0.04312709618260614 0.05115605141469411 0.004345062671833408 0.012060713768916306 -0.02214676223934557 -0.042736761926995145 -0.024350947639007567
-0.032817697943164005 -0.026361566860017095 -0.048110968734134854 -0.015106751223625758 -0.04116338914641755 -0.06466821596288423 -0.1398405488628752 0.14889964380184034
-0.005434561983093645 -0.037207647682977955 0.06306815654627736 -0.042329033633600556 0.011983125892583008 -0.05373196339644432 0.004417745746756631 0.0063633734512423355
0.14431518543635846 -0.00994323581616437 -0.008362959643553833 0.027581746549334693 0.028107482115307877 -0.23127813199873337 0.04652554614026173 0.08386929406748654
0.14645362995998806 -0.18611917932523547 0.08071868525938322 -0.1601906214254551 -0.024117296819561478 0.09719836319358738 0.025552951019378056 0.10852158155452492
0.11387906813279025 -0.053053223174015986 0.02728491845224012 0.10894540697382875 -0.04444838774341646 -0.20778195560712912 -0.23392962820171617 -0.06068309843359568
-0.1517375007159768 -0.014472456099926971 0.21913637564640825 0.13991577959332202 0.1369783482196144 -0.06810240380361231 -0.11958563001202911 -0.1228255625688753
0.016806930245578056 0.1571830180314128 0.040314556301032554 -0.14257823204042389 -0.10634593076396763 -0.0761902788183314 0.018332259658439955 0.20609494475376075
-0.028508104333255027 -0.011724373966691232 -0.0943490576711727 -0.043239195471515 -0.03958853445137627 -0.024623600124746296 -0.05875490690483407 0.007570273229691017
0.17290448452034365 -0.08205703701159085 -0.038062073895330444 -0.022692003783342064 0.03316942618361112 -0.08785223918541077 0.05951843258123188 -0.019165945604766234
0.0868382327322636 -0.10303023548427617 -0.1381345807811204 -0.0021504162394461535 0.024926287044805984 0.016022863535810943 0.006793555496494368 0.06434981253852506
-0.011667289448538643 -0.7083279468577001 -0.013894614337355534 0.004576110768643304 -0.035570159533735976 -0.005851953372660562 -0.003263407405071582 -0.015798815560713688
-0.0018070215910971977 -0.011800451284588334 0.021520201502463854 -0.04779372644333667 0.05354705637949842 0.1193313185759265 -0.032831105844862374 -0.030846594192928553
0.03745772368274428 -0.032759767760708935 -0.01663381905629313 -0.05116743430722812 -0.00017727644089487942 0.1903819042620099 -0.11327431510566238 -0.035942426924278154
-0.017313084125341948 -0.03141009319763698 -0.022804505825719527 -0.03320879801097789 0.004072888650821276 -0.03282375736091167 -0.03108317652578905 0.011143094844984536
-0.04318914816851979 -0.03733526734067038 -0.011226597196951465 -0.02653565197157509 -0.04952890595704067 0.006425465233527541 -0.04594376597905706 -0.08046510239536243
-0.16264333566350095 0.45702653659552683 -0.10565808592980339 -0.07790122777986971 -0.02513355254253205 -0.023458208932035443 -0.00620283218701271 -0.01650446014132121
-0.0894140269577459 -0.13976938891532323 -0.2616472629237935 -0.023486569218323577 -0.01191834812103143 -0.026754079142524926 0.07746570445876105 -0.07195657067385516
-0.05229478207646334 0.006652583162331287 0.04500218429084142 0.052640498980611856 0.1482736937902661 -0.09208064059429914 0.11918791205863806 0.056228721331604066
0.06059205244574636 -0.03463190095986056 0.013417192510901255 -0.2508615276422586 0.17938254471681006 -0.12940566071095125 0.07124924926017367 0.10355696863356485
-0.01057687138938097 0.14822935778955523 0.08146490619551941 -0.03142647371755219 -0.1585692666773502 0.06926798270468394 0.04151001157225532 -0.27064552840760603
0.022407001151749713 -0.00561288062748106 0.010225213161785823 0.1319466301973112 0.09289593226686546 0.021479381172706563 0.007943589064083033 -0.06279334668922668
-0.0999155870934087 -0.07370943299161557 0.11754244925663553 -0.18095249995669235 -0.11504882688251253 0.09595222225158449 -0.018208278626116448 -0.11493524475151372
0.24329226887277408 0.22219836856218117 0.0012243518449002256 0.0027459322346613485 -0.09450769839180491 0.030468926857534218 0.007349857194953024 -0.07141531305850504
-0.03303690842398963 -0.03674213053714364 -0.005440504331310786 -0.0158707164449122 0.012256695471849871 -0.13470524814889231 -0.05811247633616654 -0.05798378913352393
-0.10576259280304534 0.049181197484128754 -0.05024203905981218 0.03979231993208364 -0.05854899062288839 -0.0443187118891219 -0.06326690694503165 -0.11699583405519984
0.004480511615723481 -0.0023952489285176196 -0.0022346861450840867 -0.003295510305018461 -0.00342499650910156 0.00029637855735714874 0.005938649749217947 0.005858482363201261

encoder.0.bias f8 [45]
00000000: 1a44 6cf0 2525 883f 7225 6b24 4ceb 90bf
00000010: ff1c d531 35f0 abbf 7eee 4d17 5dbb b5bf
00000020: 4afa 9efd 88e3 4fbf 82a7 711d 0033 a73f
00000030: 32b9 1a4e 7a1f 8a3f f7a7 8954 1be2 72bf
00000040: db6e 56a8 9b8d 29bf 1338 64d6 3758 b8bf
00000050: 46a7 c04f 6b7f 983f 4ead 7450 3f77 ca3f
00000060: 8b5e cd6a 67fd 963f 8070 f22a 783e acbf
00000070: d388 2882 1460 6ebf 6fff 565c fec2 b83f
00000080: cadd 725a b6e5 d03f 9a55 ab10 4b5c 783f
00000090: ece1 436d 7503 763f 9c16 eef0 0fac 95bf
000000a0: 00c3 51c8 628e a1bf 7daf 2ae7 997a b13f
000000b0: c57d cd7a 0812 793f 7001 77aa cd2e b53f
000000c0: fe7f e376 71a1 aabf 8749 0b9a 4760 b9bf
000000d0: 2fb6 917a 8ed6 623f d3e5 9daf 2285 61bf
000000e0: 1c92 55e1 4225 67bf edee 3114 2fdd 613f
000000f0: 0fa1 fe09 98ef b73f 423e 4328 7335 b7bf
00000100: 83e9 ff85 a20c 703f 7d9e 93b8 ad60 703f
00000110: c558 5728 79f6 c5bf 5fdd f8a4 2101 7dbf
00000120: 59ba 1d68 f1d4 953f e35e fa83 4266 a1bf
00000130: eb7f b21f b002 bbbf 9494 0478 8978 713f
00000140: 99b3 3796 fd8b 913f 051b 4b7e 83a9 96bf
00000150: 82a4 10ac 0df9 71bf b304 937b c948 adbf
00000160: be70 ffc2 e3e7 7ebf
0.01178960456812388 -0.01652258846551064 -0.05456701501185001 -0.0848901922126348 -0.0009731692218720247 0.04531097754882209 0.012755351551586889 -0.004610163458531594
-0.00019495511166388907 -0.09509610160986907 0.023923565619191643 0.20676413944725386 0.022451034444513723 -0.05516410373931624 -0.0037079239421170334 0.09672536615744119
0.2640205271995596 0.005947392676451635 0.0053743922219315725 -0.021164177971079043 -0.034289442971276785 0.06827699559897656 0.006120713352032185 0.08274541293849835
-0.052012964022424044 -0.09912536154596384 0.002299574164274863 -0.002138679262256396 -0.0028253847364558948 0.0021806640157232466 0.093499662819003 -0.09065932972884475
0.003918299538776873 0.00399844989554021 -0.17158426732811996 -0.007081157134556675 0.0213201255605163 -0.03398330555972764 -0.10550976537569993 0.004265343654229831
0.017135584157518122 -0.022131018241249318 -0.004387906462434478 -0.05719594605899072 -0.0075453659955792545

decoder.0.weight f8 [45, 30]
00000000: 84b9 0992 2e54 e73f c3cf 39ef d819 debf
00000010: 2de4 5813 b046 b2bf 42ce 7203 d1ed d73f
00000020: e9d0 0849 f0bb aa3f 79ca ef49 19ba e03f
00000030: 0925 3da7 01ad c1bf a0bb c3f1 f3a1 dcbf
00000040: 676c 1111 745c e1bf af02 2ce9 65f4 c8bf
00000050: 83fd 8040 8a07 cabf 703b 6378 ed80 e93f
00000060: 1e54 cdbc e01e ff3f 6511 cf6d 4b3c c7bf
00000070: b89b aa5b ca05 d73f cd48 0967 c1ab 853f
00000080: 4155 fdac 3ec4 ea3f f3ec e593 d138 d23f
00000090: 63f2 b028 51af e2bf df7a 23a6 97ce bdbf
000000a0: 98d8 5b13 107f ec3f 452f 5ec9 ec94 ecbf
000000b0: 4b27 4ec2 9348 c1bf 0925 4896 12cf e2bf
000000c0: 40c7 8a8f 0458 e43f 9d1d 5a78 da22 debf
000000d0: 241e c153 e533 c0bf d081 7def 5529 8cbf
000000e0: c2c4 ab0d 9f1f e13f 46a7 b0d3 d612 d1bf
000000f0: f8e8 d5cc 24f5 d8bf f057 f4d1 f33b ed3f
00000100: 763a bcaf f523 b43f e9c8 e4ab 7616 ca3f
00000110: 64ee 172e d4dc babf 1609 990c 4034 cdbf
00000120: e84a ca6e 7bca b8bf 22fc 55cc 87a3 d6bf
00000130: 3f76 da62 6be9 f03f 0aed 37e5 c766 a4bf
00000140: 8d78 5e1b 46c8 edbf 1a5a 3def 68b5 d43f
00000150: a377 2fb8 dfda d9bf fada 41fe 24c7 d8bf
00000160: f137 2fbb 9513 c93f c0a3 c5bd cee5 c23f
00000170: af8b 1102 ae8f f03f 7236 27bc 9cd4 f33f
00000180: 5a9f 3355 5d7f de3f 3d6e 0496 5e3d b83f
00000190: fdd3 7977 5bcb a9bf d03f ddce d37e bd3f
000001a0: 70f3 551a c7a3 c1bf 8269 b9ee 78ea b23f
000001b0: 05ac ce34 dfd6 ef3f cf22 e021 36c1 f0bf
000001c0: 53a1 921b 0071 e2bf fd1c 5bf5 b6ff e13f
000001d0: a062 4cc2 5da3 eabf a5e3 eecb 33ea e7bf
000001e0: 5128 3fbc 1f4f d0bf ed60 9b7e 3ccb f43f
000001f0: 4101 7c4a 8963 debf 8521 4984 5227 e1bf
00000200: 178c d269 c4ba b83f 135e d252 bdf2 e4bf
00000210: dd63 043d cf55 c03f d9f0 65ae 488b aa3f
00000220: a94b 2d88 4a66 21c0 c974 2f31 4f34 dbbf
00000230: d962 3587 39ec d4bf 275a d5f7 d88e e4bf
00000240: a43e 9144 a365 bc3f b343 3c80 021f c23f
00000250: c334 1608 99b9 f03f 2105 3b30 198f 923f
00000260: e7ef 2399 546d d5bf 0af3 f27f b3c4 da3f
00000270: 8b4a dfd9 e298 e53f 1961 1aec e36d b5bf
00000280: 05fe 1020 b3b0 e7bf 0216 de71 2335 de3f
00000290: 794d 1f27 2558 d43f a8c7 1df9 5813 0fc0
000002a0: 8b69 37e0 2936 fb3f c09d 7fbd 443a b23f
000002b0: 32c1 5575 7217 0840 201d 2183 39b3 d8bf
000002c0: dc38 b59e ee1a 943f 72f1 b0b9 d737 d6bf
000002d0: cfe7 a7b4 8303 f8bf dbd5 db6f e012 eebf
000002e0: 908b 6c61 04c6 e03f 299f a50f 657b fa3f
000002f0: 5ed2 d927 7408 e4bf ac1d 0b3a 764c c9bf
00000300: 4c0e e762 69a6 ecbf 30cc ab6f 1761 c33f
00000310: 0812 1b51 b137 b63f e31b 035c 9002 f33f
00000320: 1e8e e2b2 19f9 c43f ad2a 93bb 59a1 dabf
00000330: 259f 7f1a cdf5 c13f cf13 35bd 2b22 c43f
00000340: aaa0 9591 1160 dbbf 297e 9650 6fd9 c7bf
00000350: 5573 1e4b 5d06 d2bf f8c9 e827 4117 cf3f
00000360: 8444 bddf be12 ccbf 11d3 0bb0 bd97 ce3f
00000370: a3ce da85 860a d3bf 9708 10cd eafb d4bf
00000380: f2c1 2d28 1ad2 c23f a7f2 ab15 48b0 cbbf
00000390: 65aa 8baa 8dec e13f b3ed 885c 7601 e13f
000003a0: 3101 3389 b0f3 dcbf ad55 7ebc 2c95 e63f
000003b0: f9be fb49 fff6 e23f 281b 35b9 a23c cdbf
000003c0: bf3f f210 3da4 c63f 63b2 cfb8 0b42 e4bf
000003d0: 6aca 1dcb 9739 e3bf ed0e 64aa 7bcc e8bf
000003e0: a152 4849 d3f5 b43f 0126 20f2 33f5 d43f
000003f0: 4f86 17ac 5100 dfbf 17d6 08b6 3617 c63f
00000400: 3b0e b0aa d239 e5bf b6bc 6646 8bb2 ea3f
00000410: 6541 7d02 ae82 f4bf 4015 5408 d115 ecbf
00000420: 8a81 9449 f19b d43f 23fb ddd4 e096 d53f
00000430: b788 1c71 05ac d9bf 9cd8 b2d4 d933 ccbf
00000440: 4975 838e fb53 e6bf cc49 6531 1359 e3bf
00000450: 4197 0412 3cd2 da3f bb9c 42db 7791 a03f
00000460: 55d8 9ab9 b0b3 e53f 9b39 a4ad 2f18 d13f
00000470: c8ed 72c1 1643 f03f bcfb 0c17 b503 a13f
00000480: 5140 ae87 58b1 c13f ef1c 8bf9 6b08 e8bf
00000490: bd90 eda6 0212 d53f fdfe 76e7 cd86 f13f
000004a0: 62fc e06e 6d8a d1bf 60b4 b4bd 5f59 f1bf
000004b0: a349 bd40 7387 e1bf 7326 31f2 cf62 d1bf
000004c0: 64f2 2dc1 5b96 e5bf 38ca 0e7b a126 d0bf
000004d0: 9c6b 15de fb01 d53f 34ec a0d2 939a dfbf
000004e0: 6737 ab25 fb0a c7bf 8b6e d4c7 8bfb d3bf
000004f0: ec30 5ebf d55e b9bf 4688 b404 d38f e6bf
00000500: 576e 6204 219f c5bf 2eee 74f5 79a2 f33f
00000510: 891e 2f44 136f eabf be9f 766a 7644 d5bf
00000520: 219b 4e17 8b73 d53f 1e25 af34 3f14 d7bf
00000530: b4f9 f07a 6c42 f5bf 2e4b aa39 3827 db3f
00000540: 19d1 14da ff29 f3bf 55a6 550f 1391 f73f
00000550: c429 61f7 a7b0 c2bf cfee 7a89 a8b9 c3bf
00000560: 241f d1ea 3f1b ba3f 1397 7bde 5147 adbf
00000570: 4ec3 f1da b006 d0bf 79d0 8081 8f49 f6bf
00000580: 8a30 7f2e f651 debf 748e e934 ee73 d23f
00000590: 9590 2238 f48a c33f c9a1 f470 23d4 cb3f
000005a0: 97b0 9466 7efc cfbf c250 19f2 fac3 d4bf
000005b0: 27eb 6d75 8c29 d1bf 6ef5 3eb8 ed7a c23f
000005c0: 7d8e 66c4 ec1f ed3f 15ac 8420 83ec cd3f
000005d0: 14cd 2e52 f624 e63f 3380 e913 39cb dc3f
000005e0: de0f 4f8f f8fb e03f 0a44 36eb 3edb b93f
000005f0: d274 01b0 cc42 9cbf cf1f d1f5 b982 d03f
00000600: 875f 4983 8b7d ea3f b8df dcb0 6c9f e4bf
00000610: 751d be90 c818 dfbf 9d03 f68d cabc f1bf
00000620: 559c c253 75c8 c83f 140b 470f 0bd8 94bf
00000630: 8c2f a151 803d dc3f 5152 ef58 5b1c dd3f
00000640: 7e96 9c7c 5be8 e6bf 8543 485d d4be d1bf
00000650: 9ab5 739f 1245 da3f d554 c47b c43a e5bf
00000660: e793 9541 b3dd f3bf 3f20 e598 0add dcbf
00000670: 5fbb 3f22 81a3 d13f 40f4 e12c a7a5 eb3f
00000680: 2230 2de7 6c08 e2bf 8d6d 8b94 96b6 c43f
00000690: 9801 5761 ab68 f5bf 34a9 da2e 7a9f c5bf
000006a0: f7d1 a6df 8bd4 e73f fa62 9897 cb8f f4bf
000006b0: 2af7 594e 7db9 ec3f c850 3273 654c f13f
000006c0: 7503 a165 2571 f1bf 75dc 5a11 2933 d2bf
000006d0: 7d14 c715 7020 c3bf 0e34 92df 4984 9bbf
000006e0: 155c 0cfa feb2 dbbf aa29 239d d3ab dd3f
000006f0: ac25 71cb 5522 f03f d096 c52c 9cdb ca3f
00000700: dae7 4d8c a377 c5bf 97f6 bc77 ff61 dd3f
00000710: b1f9 de57 6c51 ac3f 41d2 db3b d8da e5bf
00000720: 4d9e f5ee 78cb e33f 8af3 e3c9 6d16 f03f
00000730: e8e3 79a5 5a05 cebf 481e f40b 668f bd3f
00000740: 63c9 d01f 0f16 dbbf d26e 2660 258b c43f
00000750: 141f 2701 4ed9 c53f 471c 5967 136e e43f
00000760: 5c73 f4b3 4888 d3bf 0711 1c18 5f19 e3bf
00000770: f3d6 5b1f c154 e6bf b16a cd39 54a3 e73f
00000780: e338 a1ae c1f5 e7bf 96e9 a3f9 e5f5 ddbf
00000790: 296e 4703 bd75 d9bf f21b 7d4b 0b71 f0bf
000007a0: a5e6 1a74 4a9a e6bf f9b5 4f8c c867 e3bf
000007b0: c7e9 c04f d61f ec3f 4550 848a 198f e33f
000007c0: c7d5 f367 ea33 c1bf 02eb a989 a49f aebf
000007d0: 1c7d cacb a20d d4bf 186a 07ab 8300 e53f
000007e0: de3f e191 e09c ec3f 3ed3 d77f e4ba c9bf
000007f0: 711c 10b1 619c d1bf 45a8 6e43 f4c1 e9bf
0.7290261127762254 -0.47032760011574853 -0.07139111015648388 0.37389016472591063 0.05221510783704437 0.5227171367717595 -0.13809223810157104 -0.44738482103178434
-0.5425358136520914 -0.19495843777987917 -0.20335510396578735 0.7969882346459212 1.9450385451393752 -0.18152754651795103 0.3597284217052521 0.010581503827016192
0.8364556673720146 0.2847179359739151 -0.583901004290578 -0.11643359953039177 0.8905105951405572 -0.8931793148962944 -0.13502737987101407 -0.5877774176780416
0.6357443622166343 -0.470877282649292 -0.1265837344128481 -0.013750716563380033 0.5351100222598222 -0.26677485154015235 -0.38996238711810305 0.9135684109376125
0.07867370167171281 0.20381053345915426 -0.1049320805104173 -0.22815704932333664 -0.09683963255728723 -0.35373110727954515 1.0569871770343438 -0.03984665558888352
-0.9306974920798595 0.323572381622769 -0.4039840029416785 -0.3871548159581121 0.19591018333306878 0.1476381708737602 1.035078056411958 1.239407286618555
0.47652371712182673 0.09468642389804756 -0.050379618010005324 0.11521648216626024 -0.1378106001465329 0.0738902647803226 0.9949794799225634 -1.0471707652342734
-0.576293996670794 0.5624651710612906 -0.8324421687021477 -0.7473391516751816 -0.25482934363811177 1.2996182389816184 -0.4748252131830846 -0.5360500892357299
0.09659984191471015 -0.6546312921154275 0.12761869887688607 0.051843901909678976 -8.699787383584253 -0.4250677090001998 -0.32691801265677395 -0.642437442826865
0.11092586921699393 0.14157134305471927 1.0453119579208738 0.018124002045401547 -0.3347980018149869 0.4182556867124708 0.6749128585164085 -0.08370804323420024
-0.7403197885795981 0.47199331397891353 0.31787995167288546 -3.8844470464909655 1.7007235296683543 0.07120160700252764 3.01144878070786 -0.38593900495148326
0.019633987843285947 -0.34715836652664855 -1.5008580262060496 -0.9398042855015619 0.5241720106899823 1.6551256762704247 -0.6260319498383742 -0.19764592966224137
-0.8953139239969885 0.1514004988926856 0.0867873023044653 1.1881259531235109 0.16385194048517432 -0.41609805410250084 0.14031375688431882 0.15729281176223117
-0.42773856370196006 -0.18632308421091295 -0.2816384538253279 0.24289717148492662 -0.21932207035800755 0.23900576683049526 -0.2975174243140179 -0.3278758051457173
0.1470368095574624 -0.21631718691050603 0.560126145455183 0.5314285094568078 -0.45237363241541845 0.7057098084939547 0.5926510281551308 -0.22841295283634477
0.17688716247039157 -0.633062230071641 -0.6007803885571097 -0.7749613120981543 0.08187599696277427 0.3274659981258026 -0.4843944721779722 0.17258342636493815
-0.663308461546371 0.8342949271226618 -1.281904229854342 -0.87766315104151 0.32201797662312315 0.33733387744716675 -0.4011243443111527 -0.22033236394571964
-0.6977517875163041 -0.6046234097250873 0.4190817047077538 0.0323598342086426 0.6781848549933424 0.26710121113947033 1.0163791233634232 0.03323141008740246
0.1382246649268404 -0.7510280488867503 0.3292242651134634 1.0954112092585426 -0.2740739424515991 -1.0843198213945229 -0.5477844490472318 -0.27165602351724444
-0.6746042988812175 -0.25235783593521743 0.32824608505114283 -0.49380965775680186 -0.18002261485383572 -0.3122281505072599 -0.0991033165175314 -0.705056676092007
-0.1689187308701203 1.2271670902399694 -0.8260589915962139 -0.33230362316907847 0.3351772048576312 -0.36061077256143104 -1.328716736068242 0.4242687762390912
-1.1977537649918928 1.4729185675627339 -0.14601611689643168 -0.15410334313297944 0.10197829706987399 -0.057184751900235885 -0.2504083765152715 -1.39295912348919
-0.4737525419302605 0.2883258358690235 0.15267803898780544 0.21741145148668142 -0.24989299782589988 -0.32446168558568556 -0.26816092937194685 0.14437648292907163
0.9101470790814826 0.23378027999692166 0.6920119862683429 0.4499037451223586 0.5307581709862423 0.10100167505721927 -0.027598570101294247 0.25797890668445417
0.8278253139678647 -0.6444610075332013 -0.48588766226790564 -1.1085916085578227 0.19361750211575904 -0.020355389411416416 0.4412537381328938 0.45485576329273153
-0.7158639367887216 -0.27727231130216295 0.41046586581691147 -0.6634237687418599 -1.2416260301481488 -0.45099129611162775 0.275604518362277 0.863971316968339
-0.5635284915129015 0.16182214978367107 -1.3380540659273716 -0.16892936027336136 0.744695603198635 -1.2851062699975828 0.8976427583981821 1.081151437746529
-1.090123555172082 -0.2843725842935279 -0.1494274240814412 -0.026871828337380825 -0.43280004900719976 0.463612464384506 1.008382601447333 0.20982696710705406
-0.1677135882453616 0.45910631840875155 0.05530870983737957 -0.6829644364466462 0.6185879389931387 1.0054757963509666 -0.23453839378251407 0.11546933929286596
-0.4232213793467478 0.16049639887648098 0.17069411331453266 0.6384369867818201 -0.30519311498374235 -0.5968471022502236 -0.6978459942317542 0.7386876229241662
-0.7487495814073352 -0.46813344363149534 -0.3978111774465299 -1.0275986622598308 -0.7063343303372746 -0.6064188709694341 0.8788863713919505 0.6112182336241935
-0.13439683986477588 -0.05981172733750918 -0.31333227063619673 0.6563127842339922 0.8941500519958898 -0.20101600878083475 -0.2751697758798804 -0.8049260441814644

decoder.0.bias f8 [45]
00000000: ea51 994c 3083 98bf 1b65 79cd d8f5 b03f
00000010: 9efe 0bda 431d d9bf d499 720b e2d9 943f
00000020: 2a1a bfb7 b60f b0bf 4a40 a708 8716 92bf
00000030: ce56 81bf b924 b93f 0bf3 6ee8 4935 67bf
00000040: af0c 4cf2 d1cf 97bf a179 df30 28ce 8f3f
00000050: c7d3 ed0c 730e eabf 5c05 c530 1276 5cbf
00000060: db69 0869 9c6f d6bf b5ef 54e7 45b2 e2bf
00000070: ba2a 3814 c598 813f bdd6 0ba3 41d5 1540
00000080: b629 9dc4 50a3 babf a67f ed54 65e9 ad3f
00000090: 4847 e9bc 7d5f 9fbf 71ec b7c7 42bd 84bf
000000a0: e45e 3d65 3782 f3bf 035c 775d 1415 943f
000000b0: 5348 bd8d f17d b93f 8f4a da6b 841e 693f
000000c0: 1591 15a1 ab8d 7cbf 5c0c f71d 0314 9fbf
000000d0: 8914 8894 71d6 92bf 472e 5130 8869 ae3f
000000e0: ddb8 d03e ab4e fdbf 79bf d7d5 ec55 0dc0
000000f0: eadd 7e4c cbcf f43f 0fac 2ba7 69f4 ccbf
00000100: 516b 8929 0a7d a33f c95e a2e7 543c ea3f
00000110: 315c 622d 2ce2 a23f eca8 8ca8 02d6 ccbf
00000120: eb21 330d 7c19 8e3f ece5 18d6 16bc 0540
00000130: 3df8 1716 43f0 f33f fbfe aebb ea8f 48bf
00000140: 2af7 6691 7161 abbf e79f 6718 e89f 91bf
00000150: 6f8e df44 cade 0d40 5e13 e76a 847f 10c0
00000160: 82fd 3a9e ffc2 a3bf
-0.023937945056177336 0.06625132576427399 -0.39241119664800717 0.02036240763541193 -0.06273977266310085 -0.01766406050029471 0.0982166378538196 -0.002833027221156197
-0.023253708280219495 0.015529932013973293 -0.8142638447303562 -0.001737134708563146 -0.3505621934615683 -0.5842618482779388 0.00859216659502714 5.45825819740065
-0.10405449676651454 0.05842129384723131 -0.030637707381465235 -0.010126611442492913 -1.2192911104847832 0.019611662106253657 0.09957799635347557 0.0030663095811374673
-0.0069710449473385965 -0.030349777892990523 -0.01839616269173353 0.059398895166478165 -1.8317062810634106 -3.6669556337801024 1.3007309902294488 -0.2262088838827769
0.03806335217514934 0.8198647045237176 0.036881809749666046 -0.22528107862428415 0.014697045471977218 2.7168404318188006 1.2461577284843905 -0.0007495781095414317
-0.053477810859006006 -0.01721155785517672 3.7337842350696557 -4.124528570512522 -0.03859709555171788

decoder.2.weight f8 [62, 45]
00000000: 894f 6634 5d87 f4bf 2205 177c bd73 febf
00000010: 8dda b9ff e636 cdbf 857a 1876 03c8 c53f
00000020: 2405 32fc c641 0040 812a 8867 1ea6 e9bf
00000030: 5c19 5cac 4226 f03f 562f 9dc8 008d d63f
00000040: 2341 b93e adaf e3bf 1317 ca40 2651 cdbf
00000050: f390 0d3a a5ce aabf 2b41 97fb 4f9b e63f
00000060: 7d9b e8a6 14e4 de3f 182b 6bfb c2a5 b53f
00000070: a90c a91a 06e9 f9bf 790f 8e9c 7777 943f
00000080: 194c a29e 8415 0540 48e6 00a6 bf89 943f
00000090: c278 01d0 a911 f2bf 5020 fbd3 59b0 d5bf
000000a0: 925b f967 c072 cebf 6019 3724 f466 06c0
000000b0: 6634 2de5 2457 e43f ce10 2a6b 37ea d2bf
000000c0: abfa 4fa6 127a 04c0 5f5e ed01 fe27 873f
000000d0: 6259 fcf8 1bca a6bf d28e 5dae 9959 d43f
000000e0: be61 d843 6c23 e73f fde8 1e2b 70b2 8f3f
000000f0: 5170 e387 e7d8 923f 75bc b5ee 2e8d debf
00000100: cf91 4ee4 1df0 f03f fc24 7980 e403 ce3f
00000110: 2fea 3d4a 82b5 03c0 e0d8 d48c db52 ef3f
00000120: 425f 26c6 66ab 01c0 2156 58c8 8358 86bf
00000130: 2047 f763 a8d6 da3f 236c 1de0 fb4e ebbf
00000140: 487f e788 c7fa d6bf 21ca f34f 0ada 94bf
00000150: 96b5 0a5f d665 c5bf 72a9 76ee 9836 b0bf
00000160: c628 43ca d5c8 03c0 1c04 504d 5fb0 a03f
00000170: 5e54 7437 a751 eebf def1 409c 577e debf
00000180: 4990 18ad 17ba f2bf cb13 0ff6 33f1 fa3f
00000190: de0b f0d4 3783 cd3f 5de3 54a5 252d fabf
000001a0: 6f53 25b4 c6d8 e1bf bf07 633d 2c96 e43f
000001b0: 3eaf 331b 04f3 debf a9a1 1d9c 760e d3bf
000001c0: 3a2e f3a3 68d4 f7bf b9a5 81ca 6ce8 bbbf
000001d0: 1777 b59e 1b4f d1bf ec6d a84a 709e f0bf
000001e0: 182f 5ead 9844 b73f 21be ad98 540d eebf
000001f0: 5260 5227 3bae cbbf e195 1fa7 f16d eabf
00000200: ea33 9e92 549c d73f 5b90 0823 7cf9 c13f
00000210: bf99 c6ff 56cd fcbf 6a1d 13bc 9370 fcbf
00000220: f36c dfdc 6836 dcbf db25 115a 8bc5 f63f
00000230: 6b00 5d5b 40a0 e53f 2252 3da0 3676 c43f
00000240: 6b6c 81ba c6fc e0bf c6c4 be24 837c e13f
00000250: f771 6d2a 4d3e a6bf bfef 3c0d 45fe d3bf
00000260: 175f b817 3d01 13c0 d949 1637 49f5 b5bf
00000270: 2759 9109 a911 c93f a190 619c 6265 f6bf
00000280: dbad 6fc4 9ea0 efbf 6daa 5a0c f738 dd3f
00000290: 34d7 940a cc82 92bf eb46 541a 1965 f0bf
000002a0: 5b78 f8d2 0d5d d33f 8d4e 58b2 6b91 dabf
000002b0: 831d 7ca6 e94d a9bf 1eab 4aac 1479 c4bf
000002c0: b885 b14f 484e 6f3f cfbe 663a 417a fe3f
000002d0: 52a6 892b c503 f23f ca00 2bff 6bd6 e6bf
000002e0: 2779 4dc0 7267 c53f 69a6 07ef 1137 cdbf
000002f0: e570 3962 ffb1 fa3f a373 160a bc03 ea3f
00000300: c0d1 c072 5d1c f83f 27e8 d856 ba3e c93f
00000310: 22ef c8cd 8f08 f53f bdd7 d7de eba5 d5bf
00000320: f585 1c1a aa9d debf 71d4 ad3c 59e6 febf
00000330: 0347 3302 1f5f b43f d7e1 e3e3 d680 843f
00000340: c336 0ed6 d5b5 f9bf 65b4 36f8 6e77 cf3f
00000350: ff6e 012f 2898 fdbf a63d 7834 9542 c1bf
00000360: 2b56 e0fa 766a e7bf c4c4 4670 aa70 00c0
00000370: a361 e615 8112 d23f 6d90 15a3 bc24 d1bf
00000380: c99c 0eb7 e81f fa3f 707e fac4 21e3 f23f
00000390: 5ce5 7d10 9678 fbbf a855 9766 3228 d23f
000003a0: 8f0e 65fa 5914 d8bf 2348 8b7e 7b68 f7bf
000003b0: d829 10fd 1c8b e03f 3c02 f19e 9892 a43f
000003c0: 72f4 146c 6111 a1bf 35cc ed4e 7b3b f33f
000003d0: fb7e 3702 baf4 05c0 2adb b0ab fe6a debf
000003e0: 2a50 3b72 8e73 edbf 64ab 3e3f b23c a73f
000003f0: d753 df9f ea11 f13f af8b b28b d7b1 b63f
00000400: 4a0a 1699 ab8b 83bf 268b 8e19 033b f5bf
00000410: 894b 4d4d 7e1b d43f a75b 76cb 4dc0 fa3f
00000420: bb61 7122 03ec d23f 4db3 2db9 45a8 b13f
00000430: 0219 6a8b 22ce f53f aec1 8a22 25bc f53f
00000440: c321 9895 041c f2bf 08e0 5279 f38b dabf
00000450: e95e 0b43 9137 c3bf 77e7 987b b1d8 f63f
00000460: 32cc 1bd8 69b3 fb3f 529d 337d bea0 f5bf
00000470: d9f0 de18 2f5b c43f 7907 f2dd 6920 e6bf
00000480: 4336 d288 901e bd3f 30ee ef97 feea dd3f
00000490: 6241 9348 8557 dcbf 489f ba2f 6255 13c0
000004a0: caf2 5b0d e1d9 da3f 1274 ee36 f00d d9bf
000004b0: 557e 1272 9853 d83f c636 e439 cba7 0440
000004c0: 0234 d261 875a c3bf fe03 5266 e09c f73f
000004d0: b78c 8ba6 5ce2 d8bf 03c4 af00 41a1 d9bf
000004e0: c4ff d8ca 446a b3bf b40e 4f3d 9b44 f1bf
000004f0: 4f7a fdc3 ec5d d23f 0475 4629 7e3b 95bf
00000500: 3f77 838b 65e6 d43f 07a7 00fb ef9d d33f
00000510: bc0a 60fa 61c3 f8bf 9ee7 1b31 20b9 ec3f
00000520: a8d8 5ac4 0769 91bf c0ab 0987 5e6c c13f
00000530: f48f 8ddf 8454 9abf f23e ea8e 10be fabf
00000540: eea6 c870 0909 e3bf 1d79 2be9 9d99 d5bf
00000550: 1cf3 f52a a9e8 aa3f 0087 5909 5148 c7bf
00000560: 2ffe 561a cb8b 99bf b655 4bb6 c362 d1bf
00000570: 1e1f 6c34 9dff e83f b022 38dc eb43 da3f
00000580: c8e2 6276 0dae a03f 70d8 7e23 143f b5bf
00000590: 0aaf 60dd 3dda 833f 70a4 c8fc aea3 d33f
000005a0: e68c c5ec 39bc e1bf 6a71 7adb a69b f5bf
000005b0: 014e 7e04 12b2 db3f cb14 6975 0d2f eabf
000005c0: 1c8b 86e3 b493 02c0 52ee a914 f231 f6bf
000005d0: 73d7 5b1d 93d2 f6bf 34fe ae1b 5f5a f83f
000005e0: 78e7 e34c 6f99 e73f 91bb 83ed 3e10 b1bf
000005f0: fa01 90eb 1968 c43f 813b 3689 1881 ffbf
00000600: 942b 3fdd fd4b d2bf 06b2 5537 a7bb aabf
00000610: 6ec5 4be6 0a2e d73f e37b efd1 8e5f e63f
00000620: dc5c 3bc3 6f51 f73f 85f6 509f c06a a8bf
00000630: 1f1c 821f 61cb f7bf 8214 f33f 1c20 d3bf
00000640: 51f2 b528 33d7 f1bf 8927 a9e2 a534 b1bf
00000650: afa1 a619 baaf 01c0 a446 ee0f a151 0140
00000660: 0c9c de20 367a fdbf d349 15e3 145a f13f
00000670: 41b0 d842 587a f8bf 33f8 494c 273a f43f
00000680: f7a1 7447 b90e f13f 522e c45b a8a2 acbf
00000690: bebd ecde 84ce b1bf 7846 fa53 7a26 e03f
000006a0: a92f 1732 681d f7bf 377c dfb1 a5bb e6bf
000006b0: 0b98 acab 57bf bcbf 3f00 78f3 cb7d b93f
000006c0: 3b12 75b6 b3fe d63f 2854 3667 d8fa c6bf
000006d0: bc2d fb63 c9e2 b4bf 28f4 3801 d325 de3f
000006e0: eb38 5bb8 77e5 c7bf 1258 8272 0c2e f2bf
000006f0: 60eb 90dd 3801 ea3f 6b6f b1de 3c20 d13f
00000700: eae9 2f15 81c4 eb3f 0dfb 7c19 61b4 f83f
00000710: 56b1 554b be8a f8bf bfe7 464f 0422 f0bf
00000720: 1f2d 43a6 3b51 f1bf 2415 2f33 bdd3 f23f
00000730: e4c5 5bdb 2710 e43f d39e 57b2 65db e4bf
00000740: 80da adb4 0db2 0140 bbc6 79ba 8e89 a23f
00000750: e5d6 10fc fa19 c0bf b097 50fd 7370 e33f
00000760: 3b9a 2ae0 b4d6 fbbf 1376 75ac 7010 f43f
00000770: 9e32 de69 58d2 c93f e6e3 9860 5ba5 b3bf
00000780: 67ce f33c 7668 f03f 0bdc c80f 5ee7 f83f
00000790: cbf9 497e 4273 ecbf 5eb7 1ad6 5410 e93f
000007a0: 69be 58c4 87c5 e73f d818 4762 26ac debf
000007b0: dca4 6ca1 7705 e5bf ba30 483a 1526 0c40
000007c0: cb6f e64c 60ab ebbf 641d ebeb c004 ea3f
000007d0: 1e3a b482 63a0 d93f 497e 8620 377d d5bf
000007e0: 0bcd db0d 9214 0340 6074 6d1f 1a83 ee3f
000007f0: 75a9 ab53 784c 683f 8153 164c b504 c03f
-1.2830478712903377 -1.9032568785917836 -0.22823798643704088 0.17016642824542685 2.0321178152813832 -0.8015281698329347 1.0093409283450319 0.3523561438676003
-0.6151949143477718 -0.22903898395105013 -0.05235782941488933 0.7064590371974523 0.4826709394423501 0.08456057203435952 -1.6193905869884395 0.01998698132548735
2.6355068581847374 0.020056719309854892 -1.129312336466271 -0.33888860417619515 -0.23787694050653535 -2.800270350390903 0.6356377101998418 -0.2955454393889
-2.55960588389947 0.011306747850240826 -0.04451072134377189 0.31796876933934215 0.7230740857221958 0.015477062526646263 0.018405549687358583 -0.47736714660181373
1.0586222570647015 0.23449379227739786 -2.463627414717187 0.9788644552816343 -2.20869211964228 -0.010911016036554479 0.41935167085931546 -0.8533915879482986
-0.35905636186179324 -0.02036300766935473 -0.1671703304358913 -0.06333309003699641 -2.4730640222306617 0.0325956136584937 -0.9474674304098121 -0.47646131762647126
-1.1704327355919466 1.683887444655954 0.23056695840213498 -1.6360222299828913 -0.5577119368050328 0.643331642051855 -0.4835825219768032 -0.29775777097395434
-1.489357605389968 -0.10901527351383934 -0.27045336245451906 -1.0386813083958897 0.09089044792761702 -0.9391272527699962 -0.21625461025246523 -0.8259208931091814
0.3689166480842788 0.14042617521875198 -1.8001317969552557 -1.7774846407572462 -0.4408208996735105 1.4232285993806417 0.6758119377555095 0.15985758613773365
-0.5308564799010019 0.5464492528609746 -0.04344407217897477 -0.3123943928983372 -4.751209612491741 -0.08577401728533775 0.1958514496533976 -1.3997522457730514
-0.9883569561620179 0.45660186964474897 -0.018077076097333847 -1.02468214306685 0.3025545654544481 -0.41512577454089056 -0.0494225517014071 -0.1599450913684785
0.0038215076761367282 1.9048473626425453 1.1259204579058815 -0.7136745437383294 0.16721948995377398 -0.22824310466176037 1.6684564434900093 0.8129558751130513
1.5069250567004104 0.1972268032130284 1.3145902670357335 -0.3382520366861817 -0.47837307500785126 -1.9312374468111353 0.07957643321722334 0.01001136668172446
-1.606893383173358 0.24583232040223205 -1.8496476970821616 -0.13484444677349677 -0.7317461872032188 -2.0550125857922428 0.2823794092051008 -0.2678672402019007
1.6327902937571699 1.1804521269295059 -1.7169399875841327 0.28370342272440974 -0.37624215557682644 -1.4630083983543123 0.516981596244757 0.04018094005778436
-0.03333572811468678 1.202021892848973 -2.744495408362011 -0.47528044478115083 -0.9203560095870718 0.04538495084792407 1.0668741459860394 0.08865115318853499
-0.009543743714634751 -1.3269072531044883 0.31417806195275283 1.6719491908786297 0.2956550442081853 0.06897388239822284 1.3628259130360338 1.358433852128751
-1.1318403094793303 -0.41479193542500115 -0.15013328336384937 1.427903635789759 1.731302112745436 -1.3517441645324948 0.15903271402738176 -0.6914567313071834
0.11374762859687686 0.46746792638416235 -0.4428418358557079 -4.833382364049449 0.41954828552824763 -0.3914757286491418 0.38010226383082585 2.5819305918474553
-0.15120022083684154 1.4757999417199694 -0.38881603492900346 -0.4004671580033234 -0.07584028198561926 -1.0792496104121883 0.28698271884596677 -0.020734759587516485
0.32656229614609694 0.3065147353359951 -1.54770086100386 0.8975983580742086 -0.01700222145037658 0.13611966699258282 -0.025713039536086016 -1.671402509939011
-0.5948531344231165 -0.33750102777948304 0.05255631112502199 -0.1818944259312545 -0.024947331888823306 -0.2716531067101998 0.7812028907655735 0.41039558893002503
0.0325779158606046 -0.08299375406827081 0.009693606680307738 0.30686545072473503 -0.554226839489641 -1.3505009244318793 0.43274355353170796 -0.8182437222646056
-2.32212236170143 -1.387193756788197 -1.4264098307444015 1.5220633584393797 0.737479829956313 -0.0666541414136488 0.1594269180495898 -1.9690175399625505
-0.28588816267136363 -0.052212930206994954 0.36218521585313723 0.699164781599276 1.4573819757695707 -0.0476894564130648 -1.4871531706610381 -0.29883486027785733
-1.1150390234244194 -0.06720959457120847 -2.210804176709835 2.1648579830733343 -1.842336777111771 1.0844925756870125 -1.529869328612236 1.2641976337468008
1.0660946646913751 -0.05592847938723068 -0.06955748026370309 0.5046970024288404 -1.4446794468558244 -0.7104061578828639 -0.11229465428604628 0.09957575506268855
0.35929577653977035 -0.17953019179972896 -0.08158549014040423 0.4710586082399595 -0.18669029714369087 -1.136242339421646 0.812649185892365 0.26759263751386325
0.8677373327075746 1.544037913859657 -1.5338728850138827 -1.0083048912770065 -1.0823322767854007 1.1766941069957477 0.6269721302361941 -0.6517818911788374
2.2119402041965373 0.03620573068918761 -0.12579285915278784 0.6074771831088039 -1.7399185902119274 1.2540137039826547 0.20173173112234094 -0.0767418967087817
1.0255033856346019 1.5564861885629877 -0.8890697924214747 0.7832435781217375 0.7428625903030027 -0.4792571983092677 -0.6569173958606842 3.518595176055979
-0.8646699430423664 0.8130802734166704 0.40041435016692783 -0.33576753784470675 2.385044201154988 0.9535036672419999 0.002966151250224753 0.12514368262477762

decoder.2.bias f8 [62]
00000000: 5738 dc86 c84e ecbf 6b57 8221 8c82 f0bf
00000010: de23 f982 5de7 f0bf 141b 926a 7496 f3bf
00000020: 05f0 5b34 1a19 f4bf 027b 92aa dd96 f0bf
00000030: 31b8 aaa5 71a4 f8bf 9db4 6e7c 9551 fcbf
00000040: 3dd3 fb15 49fd 00c0 cf3a bc26 9761 0ac0
00000050: ae0c a0ed 54db 0cc0 9daf 23f9 4bd6 0bc0
00000060: 0cd9 e11f 2397 0bc0 9bea e034 dd7b 08c0
00000070: b2c7 afce cf74 04c0 f1fa 017e 19d7 ffbf
00000080: db0f ffdd 3e1d fcbf 328c bc87 bdc3 01c0
00000090: b800 40b8 2a2b 04c0 c7e4 a43a 0dfa 05c0
000000a0: faa6 e839 6435 07c0 3ee2 5658 d5bf 02c0
000000b0: 83c5 9268 7caa 05c0 c309 c317 8293 02c0
000000c0: 8487 5339 0c70 0ac0 a9a1 8d3f 163a 0ec0
000000d0: 9450 4a0c 6aa1 fbbf 5a4c d381 0635 02c0
000000e0: 1762 70c8 12c7 03c0 ac19 2040 5d31 fcbf
000000f0: 896c 09d5 47a1 00c0 aafe 7c74 b24f 02c0
00000100: 5fe3 b7e2 3e06 01c0 d0e2 63ee eeb1 00c0
00000110: b398 83d7 44ec 00c0 e16a 10ed 77b5 03c0
00000120: 6024 2c7c 0de2 03c0 1585 1f51 d691 04c0
00000130: bad5 cdf9 a9b1 04c0 7301 fec5 58a4 03c0
00000140: e962 8534 399f 04c0 1c63 4e10 d841 05c0
00000150: cbf8 8707 7334 04c0 2f5a 7079 3b97 02c0
00000160: 48f5 9d6c b130 04c0 7cb0 7a73 2110 03c0
00000170: c870 f8e2 0a32 04c0 c3d2 b278 9928 02c0
00000180: 283c fdc5 d2e6 02c0 4546 b798 4084 04c0
00000190: 2113 675e 1de4 04c0 a047 3db0 b512 02c0
000001a0: 0531 2cb9 6523 00c0 bc15 8529 54af fbbf
000001b0: 1b1a ab9c 5345 fdbf 936c e4c8 c9a6 febf
000001c0: f664 9b75 d2d3 00c0 1dbc da82 d75d 00c0
000001d0: 6930 c663 f962 f7bf c0e6 9ceb 6a8a ffbf
000001e0: 4510 6e32 29c8 03c0 3e9f 742f c414 04c0
-0.8846171030034026 -1.0318719204855948 -1.0564856639996303 -1.2242321169775936 -1.25612850621019 -1.0368324912048483 -1.5401474448549488 -1.769917951645119
-2.1236745564914643 -3.2976515794938233 -3.607095581480812 -3.4796370948806286 -3.448797463493184 -3.060480511773972 -2.557036986102468 -1.990014545648304
-1.7571400329334128 -2.2205763439574406 -2.521077575162135 -2.7470955449649384 -2.901070072567447 -2.3436686421885318 -2.7082451028624646 -2.322025476111976
-3.304710815297712 -3.778362747678518 -1.7269077758874447 -2.2758913176162823 -2.4722037944122905 -1.7620518212221254 -2.0787502902508703 -2.288914594711817
-2.1280496322982994 -2.0868815063698563 -2.1153656804118213 -2.463607647002718 -2.4853772831889245 -2.5712095582717986 -2.586749984354097 -2.455247446836603
-2.5777458289343156 -2.6571503900453433 -2.525610026204139 -2.32384390710947 -2.523775909967899 -2.3828763028923827 -2.5244348270481147 -2.2698239736149346
-2.3627067058473763 -2.5645763331347404 -2.611384141464797 -2.2591356056882006 -2.017283865605466 -1.7303048726911205 -1.8294254417284097 -1.9157197806696658
-2.103428763203392 -2.0458212111475533 -1.4616636178425557 -1.9712933734539746 -2.472734827026246 -2.5101398189034674
