seq_to_seq/edges_only/variations/hid-10__CELoss/seq2seq_model_1.pt (torch, 195343 bytes, 12 tensors)

encoder.embedding.weight f4 [1500, 10]
1.7010039 -0.81538737 1.4823116 -0.59525955 0.11412176 2.349734 0.8735404 -0.46024728
0.34993064 2.9659111 -0.81149614 -1.1584904 -0.69296134 -1.6082395 0.022454578 -1.5294138
1.5261947 0.6183255 -0.98947495 -2.2412846 0.68433696 -0.106065966 -0.43171722 -0.0022497016
0.3415684 -1.2712183 0.7381922 0.71737856 -1.675785 0.3447091 -0.61719006 1.4949034
-2.297411 0.88850456 -1.9506328 -0.6758978 -0.61460006 -0.47443458 -2.5199769 -0.09878334
1.0677576 0.05203514 -0.30297604 -1.344031 1.0742323 -0.5639836 1.2791488 0.7073552
1.6078408 0.5323777 -1.535411 -1.2691599 -1.0705522 0.73576313 -0.85584885 0.7647927
1.6884332 2.5945673 1.0800252 1.2392924 0.96466374 -1.7246147 -1.7428442 0.8665286
0.37016985 1.119761 -0.06571525 -0.14688416 0.27294022 -0.50765365 0.20729603 0.9043939
0.21003883 -0.74530137 -1.8916309 0.49163043 0.9651344 0.4683371 -0.073549345 1.1154128
0.28996506 -0.6817666 -0.8341567 -1.25749 -0.52727383 0.5904091 -0.19465844 1.057692
0.4092622 -2.1156964 -0.49651787 -1.2322494 -0.33084372 1.9267862 -1.1080166 0.29876044
1.3596405 2.272779 0.48108992 0.962458 1.095699 1.8171978 -0.9014491 -0.26348308
-0.35616678 -0.3265959 -1.5773698 1.2659507 0.8067427 0.23269516 0.29122096 0.29282132
1.0936638 -1.0507244 2.3983097 2.5877986 -1.368896 -1.0850854 1.0427653 0.8826875
0.14899921 -0.943065 -1.0173551 1.958148 0.28350222 -0.5106571 1.1148535 0.41487828
-0.19534346 0.058844965 -0.71465343 0.29906905 0.87140644 -0.13514282 -0.37601563 -2.187636
-1.7867172 0.09962476 -0.35314807 -1.5170468 0.25947163 -0.7827149 0.99659896 0.5025162
-0.6362921 0.01384084 0.5497996 -1.5650216 -1.8825363 -0.8220937 1.3819855 0.06650533
-1.0352275 -0.89909285 0.73254657 -1.5717012 -0.7494936 -0.7309995 -0.879466 -1.3972019
0.82838774 -0.7077019 -1.4864036 1.2891011 0.08894795 0.1674755 -0.6035126 0.5061539
-1.5206133 -1.4335136 1.2259722 0.42976812 -0.17453226 -1.0559417 -0.95589834 -0.8997497
0.31850293 -0.117749944 -0.6517302 -1.9718248 0.59115875 -1.0559787 -0.5710954 0.5264549
0.69564307 0.24581128 -0.0327327 1.4622571 -0.34504285 2.435725 -0.18248841 0.8452988
-0.8910117 0.67138404 -0.98659587 1.7429235 2.0887387 1.592817 0.16662371 -0.33435676
0.57642627 -1.25153 1.0542141 -1.65076 -0.41371483 -0.98355556 -1.3271079 -1.5657396
-0.03809795 -0.5179692 -0.7439071 -0.5555561 -0.79585725 0.7755596 -0.33445284 -0.039410397
1.5579525 0.24807489 1.0517004 -0.924559 1.1776968 1.0422984 0.16141278 -0.9972537
0.31031364 -0.23290849 -0.19456069 3.2528377 -0.5124368 0.20825891 1.6835835 -0.6142028
-0.6856908 -1.8626298 -1.4571884 0.8975618 -0.08212522 0.6836809 -1.2751751 -0.12033944
-0.062210552 0.17632827 -0.12780067 -0.704423 0.39758098 0.006594438 -0.22000882 -1.3211749
-0.63071185 0.003617678 -0.451113 -0.42149797 -1.0226988 -0.20409128 1.0898417 -0.67939687
00000000: 7fba d93f 3abd 50bf 63bc bd3f ee62 18bf
00000010: abb8 e93d 0b62 1640 58a0 5f3f 88a5 ebbe
00000020: 1c2a b33e 7dd1 3d40 36be 4fbf 6a49 94bf
00000030: ea65 31bf cbda cdbf aaf2 b73c d5c3 c3bf
00000040: 595a c33f 944a 1e3f 3b4e 7dbf 3571 0fc0
00000050: b530 2f3f 1d39 d9bd 0a0a ddbe bb6f 13bb
00000060: 0ee2 ae3e 48b7 a2bf 2afa 3c3f 1fa6 373f
00000070: 1f80 d6bf b67d b03e 2b00 1ebf ff58 bf3f
00000080: c808 13c0 0975 633f 56ae f9bf a307 2dbf
00000090: 6e56 1dbf 17e9 f2be 4d47 21c0 eb4e cabd
000000a0: 48ac 883f cd22 553d ad1f 9bbe 3509 acbf
000000b0: 7280 893f 3b61 10bf 26bb a33f 3b15 353f
000000c0: bacd cd3f e849 083f 5988 c4bf d573 a2bf
000000d0: db07 89bf f95a 3c3f e918 5bbf 74c9 433f
000000e0: 941e d83f 640d 2640 443e 8a3f 22a1 9e3f
000000f0: 34f4 763f 2dc0 dcbf 8515 dfbf d1d4 5d3f
00000100: e786 bd3e 5454 8f3f b895 86bd cd68 16be
00000110: d2be 8b3e 97f5 01bf 6945 543e 5c86 673f
00000120: 6b14 573e 12cc 3ebf f620 f2bf fcb6 fb3e
00000130: 0c13 773f e1c9 ef3e 0aa1 96bd d9c5 8e3f
00000140: 4d76 943e 4288 2ebf 4b8b 55bf 6ff5 a0bf
00000150: 6bfb 06bf 0d25 173f 8b54 47be 7462 873f
00000160: d18a d13e 9267 07c0 9737 febe 59ba 9dbf
00000170: 5964 a9be eea0 f63f 7dd3 8dbf 21f7 983e
00000180: b308 ae3f 3675 1140 6b51 f63e a663 763f
00000190: dd3f 8c3f f099 e83f 5ec5 66bf 41e7 86be
000001a0: 7e5b b6be 9437 a7be 41e7 c9bf ac0a a23f
000001b0: b186 4e3f a447 6e3e ea1a 953e adec 953e
000001c0: 2dfd 8b3f 237e 86bf e87d 1940 7e9e 2540
000001d0: fc37 afbf 14e4 8abf 5579 853f cff7 613f
000001e0: 4093 183e b56c 71bf b138 82bf 98a4 fa3f
000001f0: 3427 913e 6cba 02bf 85b3 8e3f ed6a d43e
00000200: 1e08 48be 6b07 713d 87f3 36bf 941f 993e
00000210: 7e14 5f3f e162 0abe 1f85 c0be 3a02 0cc0
00000220: 26b3 e4bf 1108 cc3d d3cf b4be 972e c2bf
00000230: 77d9 843e 0160 48bf 1c21 7f3f e7a4 003f
00000240: 0ae4 22bf b1c4 623c abbf 0c3f a152 c8bf
00000250: f3f6 f0bf bc74 52bf e7e4 b03f f233 883d
00000260: 5682 84bf f32a 66bf 2c88 3b3f 812d c9bf
00000270: d0de 3fbf c922 3bbf af24 61bf 83d7 b2bf
00000280: 3811 543f f42b 35bf 7942 bebf 4401 a53f
00000290: 582a b63d b37e 2b3e cd7f 1abf 4d93 013f
000002a0: 75a3 c2bf 607d b7bf a8ec 9c3f 910a dc3e
000002b0: 96b8 32be 1929 87bf c1b5 74bf ff55 66bf
000002c0: d112 a33e e226 f1bd cad7 26bf c164 fcbf
000002d0: 2e56 173f 4f2a 87bf 4f33 12bf c0c5 063f
000002e0: aa15 323f f4b5 7b3e b912 06bd 3e2b bb3f
000002f0: 75a9 b0be ebe2 1b40 3ede 3abe 8165 583f
00000300: 5819 64bf d3df 2b3f 8c91 7cbf 1e18 df3f
00000310: e5ad 0540 6de1 cb3f 689f 2a3e cf30 abbe
00000320: ac90 133f 2332 a0bf 7df0 863f 1b4c d3bf
00000330: 6ed2 d3be 4cca 7bbf acde a9bf 286a c8bf
00000340: 990c 1cbd a199 04bf b270 3ebf ed38 0ebf
00000350: 4dbd 4bbf 138b 463f 673d abbe cc6c 21bd
00000360: fd6a c73f 5807 7e3e 1e9e 863f e6af 6cbf
00000370: c5be 963f 096a 853f 6449 253e 054c 7fbf
00000380: 6ee1 9e3e 907f 6ebe eb3a 47be 7e2e 5040
00000390: 0f2f 03bf d341 553e aa7f d73f 653c 1dbf
000003a0: 6f89 2fbf a76a eebf 2685 babf 9cc6 653f
000003b0: 4431 a8bd b605 2f3f f038 a3bf 8674 f6bd
000003c0: 7ed0 7ebd 668f 343e 2ede 02be 1155 34bf
000003d0: bc8f cb3e 2816 d83b fe49 61be 421c a9bf
000003e0: 5576 21bf 9116 6d3b 48f8 e6be 95ce d7be
000003f0: cbe7 82bf 4efd 50be ef7f 8b3f f4ec 2dbf

encoder.gru.weight_ih_l0 f4 [30, 10]
0.03933227 1.1506228 1.1208414 -0.13426144 0.37613612 0.21864922 0.9002047 0.30109778
0.46591118 -0.058610316 -0.8861424 0.22647487 -1.2302623 1.2360566 -1.100294 0.9499378
-0.4036153 0.16559532 0.80883956 -0.31208542 -0.57816255 -0.79425204 -1.3570929 -0.5883845
-1.285091 -0.33705124 0.34196046 0.17384319 -0.5751382 0.015348885 0.22871834 0.8116845
-0.37239912 0.3736978 -0.23675051 1.0911466 -0.4668961 -0.15140162 0.58962274 0.83544207
-0.15739068 -0.18504676 0.53399926 0.6555934 -0.18066728 -0.22442909 0.9829996 0.65484226
-0.14041032 0.25340924 0.36696208 -0.8820045 -0.7585744 0.15505934 0.89332473 0.46908844
-0.56234694 -1.6452445 -1.1705563 1.247098 1.081268 0.5373737 0.13403584 -0.012960486
0.49983543 0.8956285 0.97166514 -0.68763715 1.4315029 0.8611862 0.3962754 0.18194453
0.6896836 -0.87019265 -0.28408343 0.9886391 0.8045567 0.12138009 -0.1354608 0.37129888
-1.3494691 1.0619951 -0.76620275 0.757995 0.9119593 -0.44182494 1.0051109 1.5235633
0.5625238 1.6170359 0.48562118 0.71376956 -0.19777712 0.6960663 -0.2955282 -0.36104208
-0.111801066 -0.9920852 -0.18352908 -0.5509792 0.32123098 -0.4397971 -1.9163389 0.9076057
0.07091239 -1.5783559 0.9704034 0.6276907 1.4847947 -1.1229742 -0.37617025 -0.4871785
0.954505 -0.5794514 1.0673045 -0.44285673 0.13225105 -0.26758558 -0.44056472 0.0007427399
-1.4966071 -0.3308522 -0.35463378 -0.7937063 -1.3006811 -0.011330674 -1.0370591 -0.21671362
-0.85257983 0.10379401 -0.7512041 0.8263596 0.6219624 -0.20333983 -0.7395251 1.2312956
-0.16844568 -0.70471513 0.51838106 0.5222985 -0.5564443 -0.25962263 -0.10781146 0.43479055
-0.08669527 0.12883718 0.27960163 0.5350959 0.16321962 -0.20386283 -0.27288845 0.74338025
0.07030652 -0.4212748 -0.2192999 -0.12507349 -0.13108113 -0.39509648 0.36518484 0.13630466
0.9680033 0.12977937 1.4811444 0.16161965 -0.90558475 0.49502352 0.18986072 0.94250154
0.65562916 -1.6243246 0.28954548 0.7373472 -0.30156246 0.5021544 0.09273449 0.09992516
-0.3419526 -0.0011334833 0.46303892 -0.029864514 0.3733616 -0.9082205 -0.36952028 0.084543586
-0.10713987 0.2701079 -0.93466085 0.05292142 0.5353496 -0.6366609 -0.3274887 0.024501283
0.089937985 0.1186993 -0.0958783 -0.14145193 -0.15373138 0.5842791 -0.18125096 -0.34293967
-0.8344816 0.29293647 0.7647784 -0.93487996 0.83776426 0.03006504 -1.2559007 -1.0214733
-0.3700193 1.7495344 -1.2776588 0.087423384 -2.0537882 1.7998497 -2.0280652 1.3487351
0.0919477 0.34039494 1.2887794 -0.6319201 0.8345695 0.74795467 1.681238 0.63436806
1.2910511 0.72860783 -0.1879807 -0.7084532 0.5015919 -0.25536168 -0.36473277 -1.3869066
0.45009708 -0.7788134 0.37267482 -1.3700672 0.66548014 0.09694152 -0.856441 -1.0946424
0.19148408 -0.75029904 0.5007636 0.85468715 0.4065071 -0.13869587 0.9385064 0.9207709
-0.6740365 0.36316627 -0.48510754 1.2179791 1.2073394 -0.3501639 -1.4956828 -0.8140772
00000000: e01a 213d 9c47 933f bb77 8f3f d57b 09be
00000010: ea94 c03e 95e5 5f3e d173 663f 7d29 9a3e
00000020: e98b ee3e 5f11 70bd 3ada 62bf 07e9 673e
00000030: 3c79 9dbf 1a37 9e3f 6fd6 8cbf 202f 733f
00000040: aaa6 cebe d291 293e 1c10 4f3f a9c9 9fbe
00000050: 7602 14bf 1a54 4bbf 38b5 adbf 5ea0 16bf
00000060: dd7d a4bf fb91 acbe 7115 af3e f303 323e
00000070: 423c 13bf e479 7b3c 2435 6a3e 8eca 4f3f
00000080: 19ab bebe 5155 bf3e ba6e 72be b1aa 8b3f
00000090: 010d efbe 0709 1bbe 84f1 163f 88df 553f
000000a0: 062b 21be e67c 3dbe 2db4 083f f8d4 273f
000000b0: d800 39be bdd0 65be dda5 7b3f bea3 273f
000000c0: b9c7 0fbe dbbe 813e 74e2 bb3e 0ccb 61bf
000000d0: ef31 42bf e0c7 1e3e eeb0 643f 5c2c f03e
000000e0: f8f5 0fbf 5f97 d2bf cad4 95bf e8a0 9f3f
000000f0: fd66 8a3f 5391 093f b140 093e 3858 54bc
00000100: 6eea ff3e e947 653f 0cbf 783f fd08 30bf
00000110: 7d3b b73f b376 5c3f 9ce4 ca3e ab4f 3a3e
00000120: 1b8f 303f f2c4 5ebf 6273 91be 7417 7d3f
00000130: 6ef7 4d3f 2096 f83d 3cb6 0abe e31a be3e
00000140: 67bb acbf 75ef 873f dd25 44bf f60b 423f
00000150: 2a76 693f e136 e2be 79a7 803f 1f04 c33f
00000160: 8f01 103f 08fb ce3f 57a3 f83e 9ab9 363f
00000170: 1686 4abe 6731 323f 794f 97be 82da b8be
00000180: f5f7 e4bd 4cf9 7dbf 0cef 3bbe f90c 0dbf
00000190: 6378 a43e 162d e1be 984a f5bf d958 683f
000001a0: 843a 913d 9107 cabf 5b6c 783f 56b0 203f
000001b0: c10d be3f 9ebd 8fbf 6399 c0be 766f f9be
000001c0: 715a 743f ed56 14bf 6f9d 883f 1ebe e2be
000001d0: d26c 073e fa00 89be b391 e1be 6eb4 423a
000001e0: d290 bfbf 7665 a9be 8f92 b5be 5630 4bbf
000001f0: b87c a6bf 4ba4 39bc 5abe 84bf 2dea 5dbe
00000200: ac42 5abf f491 d43d e94e 40bf 4e8c 533f
00000210: ee38 1f3f 5138 50be 8451 3dbf 189b 9d3f
00000220: 067d 2cbe 3668 34bf 9fb4 043f 5bb5 053f
00000230: 2273 0ebf 42ed 84be 41cc dcbd de9c de3e
00000240: 4a8d b1bd e5ed 033e f227 8f3e 0bfc 083f
00000250: 0b23 273e 6bc1 50be 09b8 8bbe 2b4e 3e3f
00000260: ddfc 8f3d 55b1 d7be 2790 60be 4413 00be
00000270: 223a 06be 164a cabe 82f9 ba3e 7393 0b3e
00000280: 10cf 773f e2e4 043e 2496 bd3f 9f7f 253e
00000290: 67d4 67bf b973 fd3e d96a 423e c847 713f
000002a0: 50d7 273f dee9 cfbf 4e3f 943e c9c2 3c3f
000002b0: 6566 9abe 318d 003f 95eb bd3d 90a5 cc3d
000002c0: 6914 afbe 6391 94ba 7013 ed3e 6da6 f4bc
000002d0: 4029 bf3e 2481 68bf c331 bdbe 3025 ad3d
000002e0: 266c dbbd 954b 8a3e ef45 6fbf 22c4 583d
000002f0: ac0c 093f 35fc 22bf 99ac a7be eab6 c83c
00000300: 6831 b83d 9e18 f33d d85b c4bd c6d8 10be
00000310: c26b 1dbe 5193 153f da99 39be ca95 afbe
00000320: 96a0 55bf c5fb 953e 84c8 433f 4b54 6fbf
00000330: b877 563f f54a f63c 5bc1 a0bf a3bf 82bf
00000340: 2b73 bdbe bef0 df3f 538a a3bf 080b b33d
00000350: 4471 03c0 7a61 e63f d2cb 01c0 5aa3 ac3f
00000360: 134f bc3d 3f48 ae3e b9f6 a43f 84c5 21bf
00000370: 59a6 553f f579 3f3f cf32 d73f f265 223f
00000380: 2a41 a53f 0b86 3a3f 037e 40be 305d 35bf
00000390: 5468 003f c4be 82be 41be babe 2886 b1bf
000003a0: 2073 e63e 5160 47bf 3ccf be3e 5d5e afbf
000003b0: e85c 2a3f 4789 c63d b83f 5bbf 3e1d 8cbf
000003c0: 6714 443e 9913 40bf 0b32 003f c7cc 5a3f
000003d0: b321 d03e 4a06 0ebe f541 703f a4b7 6b3f
000003e0: a88d 2cbf eef0 b93e 0460 f8be bde6 9b3f
000003f0: 198a 9a3f af48 b3be 8972 bfbf 5d67 50bf

encoder.gru.weight_hh_l0 f4 [30, 10]
0.73728204 0.7359547 -0.16720463 0.28345892 0.1052721 0.66497684 -0.80298024 1.2012669
-0.43792227 -0.37985972 0.23948085 0.50990224 0.09350222 -0.7780059 -0.015865784 0.17010723
0.18188797 0.06799861 0.20787454 0.40481636 0.19244677 -0.27385208 -0.3739993 -0.13598011
-0.16649076 0.10046409 -0.8574553 -0.21762338 0.012218498 -0.060497932 0.09492621 -0.2492432
-0.53847575 -0.27188185 -0.077437915 -0.053229526 -0.039555766 -0.22889043 -0.1807427 0.10569412
-0.4126198 -0.010863736 -0.023087678 0.3207243 0.55510765 -0.029469386 -0.3069566 0.06229129
-0.09762901 0.35224938 -0.31976733 -0.21300523 -0.4608108 -0.1320043 0.22362766 -0.169066
0.1498405 -0.3197006 0.015546035 0.4243933 0.20807609 -0.038151156 0.25198808 -1.264095
0.035918053 -0.24082361 0.35539404 -0.25989974 0.3350785 0.85883504 0.71907866 0.0676287
-0.115006045 0.40589428 -0.2720875 0.5712159 -0.49236998 0.3240638 -0.08887698 0.2996924
-0.0034488195 -0.19687437 -0.05427541 -0.17563222 0.5623845 -0.08845146 0.005903811 0.16993192
0.8853394 -0.06600782 0.40825766 -0.31341672 0.021091547 -0.514769 -0.27570644 0.11828874
0.6653584 0.28316355 -0.13807625 0.32513678 -0.6387361 0.46740964 0.51911366 -0.6237123
0.2463985 0.77433896 0.32206237 0.057056535 0.30560568 0.77291363 -1.5623584 1.4170738
-0.16422164 0.82697535 -0.69163376 0.08657465 0.26881132 -0.5880936 0.5787785 0.7794624
0.110662036 0.7855898 -0.12106573 0.2715561 -0.46592027 0.613394 0.39251035 -0.10079271
0.5234871 0.733916 -0.5502641 0.5197542 0.10136053 -0.07994096 -0.23015408 0.5689516
0.6101332 -1.0340855 0.13006687 0.42802072 -0.79550564 0.023919662 0.42380688 -0.22772759
-0.052368574 0.9400955 0.39788625 -0.60085493 0.63915133 0.5120701 -0.4674945 1.186334
0.18662708 -0.5456234 -0.7081588 0.43426135 -0.32804257 -0.8405728 1.3626705 1.7852107
-1.1283623 1.0224752 -0.457006 0.05828251 -0.5598558 1.0684686 1.1506916 -1.1106743
1.1542948 0.5942114 -0.14981069 0.47750697 -0.72404206 0.28337124 0.76541555 0.24841887
0.6585238 -1.0852742 0.30197337 0.873808 -1.325898 0.43010166 -0.108635105 -0.67233807
-1.1262417 0.53762156 0.07576751 -0.8992155 1.4787194 1.2466514 -0.24380438 0.9617394
0.058053646 0.29384345 -0.05552162 0.35901994 0.6311166 -0.6375505 0.36061645 0.59534603
0.5490322 0.1751209 0.048050262 0.25891417 -0.56114805 0.24294937 0.09192186 0.66929954
-0.43517068 -0.017879333 1.454942 0.7039743 0.4470009 -0.5833829 0.37278613 -0.20955846
0.02750133 1.1331303 -1.0818607 -0.3363413 -0.29642662 0.8229547 0.76348233 0.029387832
-0.5317048 0.6707831 0.27447405 -0.3825764 -0.069747396 0.7194098 -0.26347527 0.23594907
0.4294724 0.32408127 0.16422339 -0.100941084 -0.16269779 -0.19964693 0.2525036 0.24861442
0.11301479 0.04511983 -0.16082333 0.37217638 0.79236245 -0.24061777 -0.1344758 0.4129369
-0.36103562 -0.04856763 -1.1326903 -0.26137078 -0.4983332 0.13043872 -1.0951011 1.8647263
00000000: 84be 3c3f 8767 3c3f b137 2bbe 8721 913e
00000010: e698 d73d ec3b 2a3f 1d90 4dbf 1dc3 993f
00000020: 5937 e0be f97c c2be 783a 753e f488 023f
00000030: 187e bf3d 652b 47bf f6f8 81bc 9730 2e3e
00000040: d740 3a3e db42 8b3d 10dd 543e 1744 cf3e
00000050: c410 453e 5736 8cbe d67c bfbe 5f3e 0bbe
00000060: 8e7c 2abe 1ec0 cd3d 3182 5bbf aad8 5ebe
00000070: 1830 483c aecc 77bd ac68 c23d 9c39 7fbe
00000080: 8cd9 09bf 1934 8bbe c597 9ebd 3407 5abd
00000090: 3a05 22bd 4162 6abe 9d14 39be 2976 d83d
000000a0: e742 d3be d0fd 31bc 5f22 bdbc fa35 a43e
000000b0: 891b 0e3f c869 f1bc 6a29 9dbe 2725 7f3d
000000c0: b8f1 c7bd 085a b43e 8bb8 a3be 0b1e 5abe
000000d0: 65ef ebbe 232c 07be a6fe 643e a31f 2dbe
000000e0: ca6f 193e ccaf a3be ccb4 7e3c 144a d93e
000000f0: e611 553e 6344 1cbd 9504 813e ddcd a1bf
00000100: cf1e 133d 779a 76be 35f6 b53e 9411 85be
00000110: 698f ab3e 9ddc 5b3f 8a15 383f ea80 8a3d
00000120: 4a88 ebbd 60d1 cf3e 0e4f 8bbe 353b 123f
00000130: eb17 fcbe b1eb a53e 2205 b6bd 4871 993e
00000140: 9705 62bb 6f99 49be e44f 5ebd efd8 33be
00000150: 6ef8 0f3f 0a26 b5bd c274 c13b a202 2e3e
00000160: 9aa5 623f 1c2f 87bd 2607 d13e 2878 a0be
00000170: 2ec8 ac3c e7c7 03bf 6529 8dbe 5e41 f23d
00000180: ee54 2a3f d0fa 903e dc63 0dbe 5478 a63e
00000190: 3684 23bf 5150 ef3e a2e4 043f 9cab 1fbf
000001a0: e34f 7c3e 143b 463f 5ce5 a43e 1db4 693d
000001b0: 5978 9c3e abdd 453f 5cfb c7bf ad62 b53f
000001c0: b829 28be a8b4 533f e90e 31bf 0d4e b13d
000001d0: a3a1 893e 4d8d 16bf d42a 143f d98a 473f
000001e0: c7a2 e23d 6a1c 493f 4ff1 f7bd 6709 8b3e
000001f0: 1a8d eebe 6407 1d3f 1ef7 c83e 696c cebd
00000200: 4003 063f ebe1 3b3f 1cde 0cbf 9c0e 053f
00000210: 1c96 cf3d 16b8 a3bd 83ad 6bbe d0a6 113f
00000220: b031 1c3f ea5c 84bf 4030 053e 8825 db3e
00000230: 42a6 4bbf 2bf3 c33c 37fd d83e 6c31 69be
00000240: 6e80 56bd 19aa 703f bfb7 cb3e a1d1 19bf
00000250: 6c9f 233f 0717 033f 705b efbe cbd9 973f
00000260: 2b1b 3f3e faad 0bbf e549 35bf 8157 de3e
00000270: 32f5 a7be c72f 57bf fd6b ae3f c981 e43f
00000280: 2d6e 90bf 78e0 823f b1fc e9be a4b9 6e3d
00000290: b652 0fbf 94c3 883f dd49 933f 932a 8ebf
000002a0: efbf 933f 3d1e 183f f967 19be cb7b f43e
000002b0: d25a 39bf 0916 913e 46f2 433f 8461 7e3e
000002c0: 0495 283f 44ea 8abf 419c 9a3e e2b1 5f3f
000002d0: 07b7 a9bf 4936 dc3e 157c debd 591e 2cbf
000002e0: b028 90bf 91a1 093f ff2b 9b3d fd32 66bf
000002f0: ad46 bd3f 4692 9f3f dba7 79be 8e34 763f
00000300: a9c9 6d3d a672 963e a36a 63bd 76d1 b73e
00000310: dc90 213f 8236 23bf b8a2 b83e 9968 183f
00000320: 608d 0c3f e552 333e 5ad0 443d 6690 843e
00000330: 66a7 0fbf b8c7 783e 8741 bc3d 3757 2b3f
00000340: b1ce debe ae77 92bc 8a3b ba3f a937 343f
00000350: 4ddd e43e 9558 15bf d3dd be3e 7e96 56be
00000360: 784a e13c 6a0a 913f 697a 8abf ed34 acbe
00000370: 3bc5 97be 29ad 523f 9473 433f c0be f03c
00000380: ce1d 08bf 71b8 2b3f dd87 8c3e 0ee1 c3be
00000390: b9d7 8ebd 3e2b 383f 3be6 86be a29c 713e
000003a0: cee3 db3e fbed a53e 2d2a 283e 33ba cebd
000003b0: 409a 26be 3f70 4cbe 2748 813e c794 7e3e
000003c0: 4c74 e73d 92cf 383d dfae 24be e78d be3e
000003d0: 44d8 4a3f 8164 76be 06b4 09be 776c d33e
000003e0: a9d9 b8be daee 46bd fffb 90bf 64d2 85be
000003f0: 8725 ffbe ba91 053e 462c 8cbf 5aaf ee3f

encoder.gru.bias_ih_l0 f4 [30]
0.47307792 0.09552351 0.08479792 0.25413886 -0.34294742 0.5553829 0.21510921 -0.0331466
-0.21131189 0.32686758 -0.587791 -1.2235094 -0.30141795 -0.11493174 -0.7125545 -0.94785005
-0.58767074 -0.4906536 -0.8608887 -0.5820738 -0.06816014 -0.8011065 0.6332771 -0.4257626
-0.39682108 1.2875608 -0.6933417 -0.11930967 -2.1955183 0.026615323
00000000: 4537 f23e d4a1 c33d 88aa ad3d 7d1e 823e
00000010: ce96 afbe 932d 0e3f 9745 5c3e bbc4 07bd
00000020: 2562 58be 305b a73e 7979 16bf f59b 9cbf
00000030: 7453 9abe 5561 ebbd f969 36bf 4da6 72bf
00000040: 9771 16bf f336 fbbe 3463 5cbf ca02 15bf
00000050: 8b97 8bbd 5115 4dbf 731e 223f 8efd d9be
00000060: 222c cbbe cbce a43f d77e 31bf a158 f4bd
00000070: 5f83 0cc0 6108 da3c

encoder.gru.bias_hh_l0 f4 [30]
0.59767985 0.37604493 0.23699234 0.34567815 -0.30114216 0.22906148 0.36884394 0.27075303
-0.096996695 0.5861587 -0.42637387 -0.68149173 -0.28191864 -0.04769299 -0.68404377 -1.4546876
-0.15354504 -0.47582877 -1.0860882 -0.98253405 0.08979906 1.7843618 -1.3017817 -0.7552453
0.81310093 -2.0509586 0.7848621 0.46064207 2.0514712 0.43397307
00000000: 8c01 193f f688 c03e 1fae 723e bafc b03e
00000010: 4e2f 9abe 188f 6a3e 1dd9 bc3e 24a0 8a3e
00000020: 34a6 c6bd 7f0e 163f ad4d dabe 3e76 2ebf
00000030: a457 90be ba59 43bd 7e1d 2fbf 3433 babf
00000040: e93a 1dbe d49f f3be f004 8bbf 5a87 7bbf
00000050: 92e8 b73d f865 e43f c8a0 a6bf c257 41bf
00000060: 6227 503f e842 03c0 b9ec 483f 47d9 eb3e
00000070: 4e4b 0340 b831 de3e

decoder.embedding.weight f4 [1500, 10]
1.7223128 -0.7128015 2.3899417 3.9142237 3.220662 -2.0354524 2.1860313 -1.925167
1.9106812 -4.0726767 -1.217288 0.88532543 -0.9971822 -2.132508 0.45375985 -0.4436147
-0.8187793 0.8122972 -1.2432364 0.9769184 0.14424078 -1.5442293 -2.1712735 1.0759692
-1.5876646 -1.3475077 -0.004440289 -0.49168095 -0.8280595 0.623657 0.5899538 -0.39533427
1.9956341 -0.13462883 1.0737767 0.12290255 -0.005392331 1.1206415 1.3819602 -1.1828637
0.024364462 -0.18937619 0.47303897 1.6557555 1.3104055 -0.2150095 0.19002075 -1.0597993
-0.63681704 0.8497523 1.5545473 -0.015772324 3.4389818 -2.4945276 0.88143754 -0.35286626
0.08650664 2.1061597 -0.58762646 -0.8663893 -0.7538882 0.2632967 1.4061652 0.8024856
1.2226633 0.25196907 0.35891548 0.34762964 -0.07273531 0.47356373 -1.0451902 -0.6938033
0.47970006 0.9202025 -0.27837843 -0.20639868 -0.4432354 -0.62683666 -1.2089874 -0.16387245
-1.2515005 0.9065481 -0.588037 0.47153887 -1.7582653 0.8527461 0.77923095 -0.13942975
-0.90878373 0.16099223 1.0472622 1.5980673 -0.14862713 0.23243748 -0.0015374556 -0.5586719
0.65603864 -0.74300784 -0.6124341 1.1673896 -0.11199581 0.69431883 -0.21422678 0.8632736
1.1253409 -0.80119884 -0.51776475 -1.0429039 0.15863377 -1.2871788 1.4926662 -0.03033169
0.5215725 0.560087 -0.37257096 2.12334 -1.5703564 0.07279194 0.5850919 0.7439752
0.28059664 -1.100313 1.1216773 0.36156276 0.4020239 -0.75196123 -0.46221277 1.4337689
-1.2104427 -0.30100468 0.6688275 -1.330135 0.31566736 -0.9276751 -0.19782305 0.2687428
0.89287615 0.52348274 -0.11004211 0.26577947 -0.48009637 -0.058505733 -0.16414762 -0.20931508
0.30189702 1.2479852 -0.18158819 0.06987535 -1.5820338 -1.2337716 1.1316785 0.45221394
-1.764971 2.169828 1.2713814 0.48374102 -0.7126982 1.8832747 -0.568431 -0.40456152
0.3647538 -0.1662671 -1.1399417 -1.1718878 -0.32605585 0.17641921 0.36987117 -0.4443864
0.31359234 1.3007878 0.9071778 0.4855969 0.6200751 -0.5592995 -0.29610518 0.771139
0.9990636 2.2236638 -0.42756557 0.555222 0.8272527 -0.4142557 0.42136115 0.73975515
-1.7009085 -0.5331707 0.70526624 0.3230527 0.61192995 0.45183074 -0.25496155 0.21386863
0.3349078 0.5055239 0.23089337 -0.37322575 -1.3922901 -2.2337747 0.22144888 0.9753689
-0.3265888 -0.7587375 -1.0050918 0.9372543 -1.0924321 1.5442082 1.6089213 -0.1924247
-0.9762879 0.37858528 -1.7906302 0.43890095 0.58234066 -1.0443677 -1.6952137 -0.07407976
0.31083402 0.45937404 0.6366133 -1.0323622 0.85587275 1.0679309 -1.0961163 1.0718628
0.68912655 -1.6431819 -0.069985315 -0.9835952 0.7956729 1.7011774 -0.10256192 0.5436537
-0.7716551 -1.287985 -0.53653723 -0.7090648 2.062917 0.89962846 1.581933 -0.44012025
-0.35273 0.6988934 -0.63583666 -1.3358827 0.2969056 0.6259069 -0.23864368 -0.92512864
-1.2886058 -0.30761012 -1.0203096 -1.600015 0.54979557 1.045568 -0.1417659 -0.40142006
00000000: bf74 dc3f 297a 36bf cef4 1840 a482 7a40
00000010: 541f 4e40 da44 02c0 f0e7 0b40 df6b f6bf
00000020: 3491 f43f 5e53 82c0 18d0 9bbf b0a4 623f
00000030: 5547 7fbf 037b 08c0 3653 e83e 7721 e3be
00000040: 859b 51bf b6f2 4f3f 5f22 9fbf 5317 7a3f
00000050: dbb3 133e 4ea9 c5bf 25f6 0ac0 5cb9 893f
00000060: 9838 cbbf 227b acbf d87f 91bb 9bbd fbbe
00000070: b5fb 53bf fca7 1f3f 3607 173f 4169 cabe
00000080: f070 ff3f 24dc 09be 8471 893f 55b4 fb3d
00000090: 27b2 b0bb 2e71 8f3f 12e4 b03f 1468 97bf
000000a0: fb97 c73c d5eb 41be 2a32 f23e ccef d33f
000000b0: 5ebb a73f 732b 5cbe cd94 423e 81a7 87bf
000000c0: 7106 23bf 5e89 593f 68fb c63f f634 81bc
000000d0: 4718 5c40 57a6 1fc0 e4a5 613f e3aa b4be
000000e0: 652a b13d 52cb 0640 b06e 16bf b0cb 5dbf
000000f0: d1fe 40bf d3ce 863e 39fd b33f b26f 4d3f
00000100: 3b80 9c3f 1702 813e c5c3 b73e 83fc b13e
00000110: 40f6 94bd f276 f23e cbc8 85bf 189d 31bf
00000120: 3f9b f53e 6492 6b3f 9e87 8ebe 2d5a 53be
00000130: c0ef e2be 5e78 20bf 19c0 9abf 2ece 27be
00000140: 2b31 a0bf 8913 683f 9889 16bf 8b6d f13e
00000150: d60e e1bf 924d 5a3f ae7b 473f acc6 0ebe
00000160: 0da6 68bf 26db 243e b00c 863f 788d cc3f
00000170: b631 18be 1704 6e3e 7384 c9ba 1f05 0fbf
00000180: 26f2 273f c335 3ebf 7bc8 1cbf 066d 953f
00000190: 0f5e e5bd e1be 313f 445e 5bbe 80ff 5c3f
000001a0: 2c0b 903f 5e1b 4dbf 3b8c 04bf e07d 85bf
000001b0: e470 223e 46c2 a4bf b00f bf3f 2a7a f8bc
000001c0: c685 053f dd61 0f3f 9fc1 bebe cde4 0740
000001d0: 7001 c9bf f113 953d 95c8 153f 2975 3e3f
000001e0: 5daa 8f3e 0ed7 8cbf 1f93 8f3f c11e b93e
000001f0: 14d6 cd3e 8880 40bf 27a7 ecbe bd85 b73f
00000200: c9ef 9abf 491d 9abe 4738 2b3f dd41 aabf
00000210: 279f a13e 1e7c 6dbf 2092 4abe a898 893e
00000220: 8893 643f f702 063f c25d e1bd 3f14 883e
00000230: 31cf f5be b5a3 6fbd 5016 28be b156 56be
00000240: 3f92 9a3e fbbd 9f3f 41f2 39be cf1a 8f3d
00000250: 1580 cabf 3aec 9dbf d7da 903f 9688 e73e
00000260: 92ea e1bf 76de 0a40 a0bc a23f e7ac f73e
00000270: 6473 36bf 250f f13f b284 11bf b022 cfbe
00000280: 03c1 ba3e ec41 2abe 9ce9 91bf 6b00 96bf
00000290: cbf0 a6be 3da7 343e c15f bd3e 9d86 e3be
000002a0: 2d8f a03e 3780 a63f ce3c 683f 28a0 f83e
000002b0: 3ebd 1e3f 412e 0fbf 199b 97be 5e69 453f
000002c0: a2c2 7f3f 8250 0e40 e0e9 dabe 0723 0e3f
000002d0: d5c6 533f 5319 d4be a6bc d73e 9860 3d3f
000002e0: 5fb7 d9bf e07d 08bf 548c 343f 2a67 a53e
000002f0: 71a7 1c3f 5c56 e73e 528a 82be 6100 5b3e
00000300: 0979 ab3e 046a 013f 506f 6c3e 7217 bfbe
00000310: 9036 b2bf 2af6 0ec0 7fc3 623e c7b1 793f
00000320: a636 a7be 9f3c 42bf d9a6 80bf e6ef 6f3f
00000330: d1d4 8bbf 9da8 c53f 22f1 cd3f fb0a 45be
00000340: 01ee 79bf eed5 c13e 5f33 e5bf a0b7 e03e
00000350: 4714 153f d7ad 85bf c3fc d8bf 21b7 97bd
00000360: a325 9f3e 1333 eb3e 17f9 223f 7224 84bf
00000370: 7a1a 5b3f f6b1 883f 8a4d 8cbf cd32 893f
00000380: 996a 303f c953 d2bf 7654 8fbd e5cc 7bbf
00000390: 38b1 4b3f 2ec0 d93f fc0b d2bd e42c 0b3f
000003a0: 308b 45bf b1dc a4bf 815a 09bf 4585 35bf
000003b0: d506 0440 0d4e 663f c87c ca3f 7157 e1be
000003c0: 0799 b4be aeea 323f 31c6 22bf 34fe aabf
000003d0: 0304 983e 6f3b 203f 025f 74be 3bd5 6cbf
000003e0: 09f1 a4bf 137f 9dbe 8199 82bf 4bcd ccbf
000003f0: 67bf 0c3f 2cd5 853f 152b 11be ee86 cdbe

decoder.gru.weight_ih_l0 f4 [30, 10]
0.5785082 0.22133128 -0.0047064545 0.5403045 0.15140726 -0.54246634 0.46799052 -0.46104896
0.439844 -0.04768707 -0.3680524 -0.18539819 0.11444623 -0.43692973 0.036499143 -0.117145225
0.0999153 0.2300692 -0.2735723 -0.15658143 0.23942901 0.2530311 0.7806145 0.33821848
-0.035048485 -0.49677232 -0.018164445 0.10319055 0.78349215 -0.42105365 0.24544956 -0.29743657
0.2957594 0.67334384 0.4784535 -0.8444035 0.346121 0.30373043 0.34512678 -0.39819956
-0.37929255 -0.18060105 0.46129137 0.3664692 0.050880287 -0.037790738 0.60951483 -0.028168844
0.5839115 -0.5839173 0.16893351 0.05524358 0.19584359 0.062808566 0.054808576 -0.51054084
-0.3040155 -0.09866726 0.073829636 0.37266186 0.034994897 -0.05566658 0.11393207 0.13628471
0.32509482 -0.20684324 0.06887311 -0.14760667 0.1648407 0.26326334 0.11470141 -0.1323537
0.5494247 0.5305477 0.12674232 -0.33444288 0.39705458 -0.2067191 0.18126401 -0.4807752
-0.01811484 -0.0115377745 -0.39295694 -0.39224592 0.022136034 -0.048607826 -0.33327383 0.4468903
-0.1111376 0.5744885 0.539351 0.02155487 0.12835938 0.26777947 0.30059123 -0.2815675
0.498505 -0.059283208 0.13561906 -0.6033238 -0.5556515 0.5455955 -0.44184008 -0.88843846
-0.19573537 0.7716668 -0.2333029 0.26766703 -1.0861785 0.74482447 0.23035607 -0.05905866
-0.03370472 0.21215393 -0.20250507 0.08278743 -0.23187806 -0.28759503 0.14228836 0.28161162
-0.472232 0.3647403 -0.79994434 -0.47572953 -0.3202821 0.46620035 -0.35169256 1.1940504
-0.3570994 0.71116734 0.44811243 0.5112656 -1.169983 -0.71905583 -0.5757235 0.34523776
-0.53226566 0.06987371 -0.7268996 0.6599185 -0.22926141 -0.11399165 -1.1306095 -0.3149532
0.15456472 0.7571658 -0.6528751 0.24968377 -0.22679876 0.1965127 -0.20967864 0.3147708
0.13868529 0.87267894 0.43175608 0.23213045 0.08062166 -0.5311888 0.11768325 -0.9172554
0.043193623 -0.0817407 -0.00022309484 -0.3376413 0.124152794 0.61682606 -0.8237469 0.12132057
-0.9217823 0.36765712 -0.43157333 -0.14954571 -0.54253983 -1.0352176 0.037522 0.7669582
-0.6441338 0.63197476 -0.6966996 0.6882374 0.882279 0.092410736 0.6358774 0.2996172
0.080763526 -0.4797078 0.95746034 -0.9525574 0.51790816 -0.9772503 -0.5150617 0.48936015
-0.33461624 -0.8008457 -0.8988418 -0.30248845 0.24501297 0.48072764 0.04790755 0.9622503
0.1529187 -0.62247366 0.09107538 -0.41152012 0.23522128 0.07116119 -0.23443338 -0.3984153
-0.0401967 0.36969084 0.0789942 0.29378542 -0.25382453 -0.13697904 -0.3522372 0.51230395
-0.31132206 0.08758553 0.28513825 0.23453712 0.3878598 -0.42275667 0.23529373 -0.27590021
0.1745687 0.1951566 -0.27058265 -0.6820534 -0.6748211 0.3052163 0.40002653 -0.6203204
-0.23875418 0.06716485 0.32246685 -0.027442703 -0.33399445 -0.246483 -0.02917917 0.4798246
0.13422503 0.051935658 0.40585488 -0.09075882 0.2599371 -0.10378757 -0.1912859 -0.2863106
-0.20437698 0.004084356 -0.06590274 -0.14067218 0.13953245 -0.058435936 0.011067198 -0.039106417
00000000: 1d19 143f aba4 623e 9a38 9abb 6551 0a3f
00000010: 810a 1b3e 13df 0abf 749c ef3e 9c0e ecbe
00000020: 3c33 e13e 8453 43bd 5d71 bcbe 06d9 3dbe
00000030: c962 ea3d 41b5 dfbe 2080 153d d6e9 efbd
00000040: 65a0 cc3d 4397 6b3e ab11 8cbe e256 20be
00000050: e12c 753e 4b8d 813e 5ad6 473f f92a ad3e
00000060: 008f 0fbd f158 febe 9acd 94bc 9155 d33d
00000070: f192 483f 5894 d7be 2157 7b3e 9b49 98be
00000080: c76d 973e 4360 2c3f dbf7 f43e d42a 58bf
00000090: c636 b13e 8e82 9b3e 75b4 b03e d0e0 cbbe
000000a0: a232 c2be 7bef 38be 622e ec3e daa1 bb3e
000000b0: d967 503d 76ca 1abd 2a09 1c3f 59c2 e6bc
000000c0: 397b 153f 9b7b 15bf e8fc 2c3e 1847 623d
000000d0: 398b 483e c7a1 803d f57e 603d ceb2 02bf
000000e0: eba7 9bbe 0f12 cabd fe33 973d 89cd be3e
000000f0: cf56 0f3d a402 64bd 3855 e93d 388e 0b3e
00000100: d472 a63e b7ce 53be 580d 8d3d 3426 17be
00000110: 00cc 283e 74ca 863e 93e8 ea3d ba87 07be
00000120: 19a7 0c3f f9d1 073f bdc8 013e 193c abbe
00000130: bd4a cb3e 2cae 53be 469d 393e 2b28 f6be
00000140: 9365 94bc ef08 3dbc a731 c9be 75d4 c8be
00000150: a156 b53c 0019 47bd dea2 aabe cece e43e
00000160: 1c9c e3bd ae11 133f e812 0a3f d793 b03c
00000170: a470 033e 641a 893e 18e7 993e 9e29 90be
00000180: 0c3c ff3e f3d2 72bd b9df 0a3e 6e73 1abf
00000190: 2d3f 0ebf 26ac 0b3f dd38 e2be b470 63bf
000001a0: da6e 48be f58b 453f f5e6 6ebe a70b 893e
000001b0: e607 8bbf d1ac 3e3f 76e2 6b3e 7ee7 71bd
000001c0: f60d 0abd e13e 593e 7d5d 4fbe 758c a93d
000001d0: 7171 6dbe a83f 93be 0ab4 113e 662f 903e
000001e0: 65c8 f1be 3ebf ba3e 27c9 4cbf d292 f3be
000001f0: 04fc a3be d0b1 ee3e 0c11 b4be a5d6 983f
00000200: bcd5 b6be 100f 363f fe6e e53e 4de2 023f
00000210: 01c2 95bf 0b14 38bf 9e62 13bf 01c3 b03e
00000220: 9042 08bf f319 8f3d 1816 3abf 6bf0 283f
00000230: 81c3 6abe 7474 e9bd d0b7 90bf 8c41 a1be
00000240: 3746 1e3e 9ed5 413f d322 27bf 1aad 7f3e
00000250: ef3d 68be a03a 493e ffb5 56be a329 a13e
00000260: 8403 0e3e e367 5f3f 220f dd3e 9bb3 6d3e
00000270: f81c a53d fdfb 07bf ea03 f13d 40d1 6abf
00000280: cceb 303d ab67 a7bd 91ee 69b9 52df acbe
00000290: d243 fe3d 50e8 1d3f 14e1 52bf eb76 f83d
000002a0: edf9 6bbf 8e3d bc3e 2ef7 dcbe 8322 19be
000002b0: e4e3 0abf 0382 84bf abb0 193d 5f57 443f
000002c0: f4e5 24bf 19c9 213f e85a 32bf 5430 303f
000002d0: 09dd 613f d741 bd3d dcc8 223f 6d67 993e
000002e0: 5967 a53d 439c f5be 1f1c 753f cdda 73bf
000002f0: a195 043f 132d 7abf 15db 03bf 6a8d fa3e
00000300: d252 abbe 3904 4dbf 7f1a 66bf c4df 9abe
00000310: aee4 7a3e ef21 f63e b53a 443d 0956 763f
00000320: b896 1c3e 6f5a 1fbf bb85 ba3d c4b2 d2be
00000330: d9dd 703e f5bc 913d 4e0f 70be 17fd cbbe
00000340: 4ba5 24bd 1e48 bd3e b6c7 a13d 0b6b 963e
00000350: 4af5 81be 3c44 0cbe 6f58 b4be 5a26 033f
00000360: 9b65 9fbe 0b60 b33d a4fd 913e 802a 703e
00000370: 8f95 c63e 9073 d8be d7f0 703e cb42 8dbe
00000380: 23c2 323e 22d7 473e cf89 8abe 0d9b 2ebf
00000390: 13c1 2cbf 5045 9c3e 47d0 cc3e 51cd 1ebf
000003a0: fa7b 74be ba8d 893d 601a a53e 85cf e0bc
000003b0: 5201 abbe 0a66 7cbe 2809 efbc 92ab f53e
000003c0: 4972 093e 7cba 543d 36cc cf3e c3df b9bd
000003d0: 7a16 853e 948e d4bd 73e0 43be 4e97 92be
000003e0: 3348 51be 10d6 853b 04f8 86bd 5e0c 10be
000003f0: 98e1 0e3e 855a 6fbd 3153 353c 0d2e 20bd

decoder.gru.weight_hh_l0 f4 [30, 10]
0.38823414 -0.2807625 0.20940985 -0.14653084 0.01488608 0.11899392 0.4445356 -0.52969897
-0.33507514 0.16751757 -0.79926676 -1.9759539 0.3288584 0.3352867 0.31852585 -0.05292444
0.003483851 -0.5262538 0.26506266 0.0786098 0.55112886 -0.14136764 0.6252806 -0.28128016
-0.010980882 0.9420189 -0.116082735 0.018175768 -0.25625852 0.58745944 0.7370684 -0.25484636
0.090931565 0.2267672 0.3106627 0.4140511 -0.15734182 -0.1545052 0.028022021 0.048497695
-0.4599419 -0.21345322 -0.5047476 -0.24064183 0.5326801 0.37378532 0.13548912 0.3750801
0.27228072 0.1905842 -0.0065540522 -0.17198376 0.27909315 0.56225055 0.0074495794 0.43304816
0.18893456 -0.20762978 -0.2399782 -0.27467364 2.39584 1.0828713 -2.477942 1.0112749
0.90441364 -1.5031028 0.102177285 0.25434485 -0.6864336 0.14021254 0.5099058 0.0896062
-0.62118113 -0.19113187 -0.32420865 0.21927027 0.23655987 0.35583603 -0.31606445 0.41444385
-0.63239056 -0.027775837 -0.1768624 0.38744718 -0.010069301 -0.4936006 -0.33769765 0.72101164
-0.17698975 -0.6837069 -0.4862362 -0.22877814 -0.72785985 -0.010630764 0.0041458667 -0.19972631
-0.05353343 0.09821956 -0.14749233 -0.015651667 0.39257848 -0.013056006 0.51888925 -0.14531039
-0.2573065 -0.77767324 0.043493908 -0.53423023 -0.9503961 0.24972121 1.998129 8.408499
0.33462864 -1.0285975 -0.68756735 0.23638305 -0.43925282 -0.054068577 0.018441241 -0.57714266
-0.750093 0.34263763 0.10361218 0.13116898 0.44938335 -0.8115082 -0.16871768 -0.48989308
0.02573245 -0.9374445 -1.5937986 0.5221826 -0.69446373 0.36728728 0.3668096 0.0811168
0.4563905 0.028630868 0.24271019 -0.13382377 -0.1486123 -0.26079926 -0.034368683 0.37017265
1.0794744 -0.05520064 -0.82886374 -0.20481199 -0.1257142 -0.13505352 -0.66742647 -0.64369917
-0.79953843 -1.3860141 -0.16973875 1.3568552 -0.47296426 0.44310358 -0.82603896 0.7442434
3.489326 1.9397172 -0.33068368 -1.8963852 -0.17043212 -3.941909 2.2017949 0.28250608
1.4927325 -1.6610234 -1.0282577 0.73192626 -0.17308022 1.058323 1.2482498 0.7185598
-0.319762 -0.7809304 0.27953523 -1.0009543 0.9780784 0.33989924 0.6725898 -0.39524302
0.05615991 -0.19779842 1.0015366 -1.0533714 1.2372581 0.20868771 -0.07023942 0.2517225
0.5658103 -0.54672647 -0.48775527 -0.22484411 -1.1351509 0.686124 0.81004643 2.2102787
0.27170205 1.7017504 6.706387 -2.5804715 -1.4024346 2.3644063 0.21242869 -0.9075599
-1.2052282 2.6889741 0.6111688 1.8961945 -0.25019953 0.13336034 0.11259824 -0.04920679
0.3222517 0.04352789 0.006134556 0.14011364 3.8071156 -2.441662 6.696576 -1.2341274
0.020359116 0.73097634 -2.0919757 0.6016759 0.52733684 1.2250694 3.5785127 1.2798663
1.6338965 6.108526 0.3265529 -0.5187099 -0.15579028 1.74974 -0.43117142 2.3893056
-0.38259676 0.37333843 0.25296015 0.660686 7.99853 0.64398175 0.23018673 -1.1284338
-0.57841796 0.20262858 -0.6152 -0.5790395 0.041066136 -0.1644021 -0.35138133 2.8169122
00000000: a0c6 c63e 1ac0 8fbe 896f 563e 2e0c 16be
00000010: bfe4 733c 16b3 f33d 2c9a e33e 5a9a 07bf
00000020: f88e abbe ba89 2b3e bf9c 4cbf 0fec fcbf
00000030: 2160 a83e b3aa ab3e d215 a33e 4cc7 58bd
00000040: 5251 643b 92b8 06bf 4bb6 873e 2dfe a03d
00000050: c816 0d3f aec2 10be 6412 203f f403 90be
00000060: 28e9 33bc 2728 713f c9bc edbd 59e5 943c
00000070: 5134 83be be63 163f 84b0 3c3f 397b 82be
00000080: 543a ba3d a935 683e 2e0f 9f3e 81fe d33e
00000090: 371e 21be 9c36 1ebe 708e e53c 85a5 463d
000000a0: 817d ebbe 7b93 5abe 2437 01bf d06a 76be
000000b0: b95d 083f ca60 bf3e a9bd 0a3e 800a c03e
000000c0: 6168 8b3e 8128 433e 60c3 d6bb 831c 30be
000000d0: 4ce5 8e3e a7ef 0f3f 9a1b f43b 7db8 dd3e
000000e0: 1078 413e e79c 54be d8bc 75be 06a2 8cbe
000000f0: 7155 1940 879b 8a3f 9a96 1ec0 7571 813f
00000100: a787 673f ac65 c0bf 5342 d13d 7d39 823e
00000110: 1dba 2fbf e093 0f3e 3089 023f 7583 b73d
00000120: ba05 1fbf 13b8 43be adfe a5be 6388 603e
00000130: c03c 723e 2430 b63e 33d3 a1be fc31 d43e
00000140: 59e4 21bf 278a e3bc 6b1b 35be 7a5f c63e
00000150: b6f9 24bc 38b9 fcbe b5e6 acbe 3894 383f
00000160: cd3c 35be 6a07 2fbf f4f3 f8be d144 6abe
00000170: 0655 3abf a82c 2ebc 0dda 873b 0e85 4cbe
00000180: df45 5bbd 5627 c93d 3b08 17be ed37 80bc
00000190: 0c00 c93e dce8 55bc edd5 043f 3fcc 14be
000001a0: adbd 83be 9815 47bf ab26 323d 50c3 08bf
000001b0: 294d 73bf ebb6 7f3e b1c2 ff3f 3689 0641
000001c0: 7254 ab3e 15a9 83bf 6a04 30bf 660e 723e
000001d0: bfe5 e0be 0377 5dbd 1612 973c 9fbf 13bf
000001e0: 1806 40bf 336e af3e 9f32 d43d 2951 063e
000001f0: 9315 e63e 00bf 4fbf 54c4 2cbe 44d3 fabe
00000200: dccc d23c 5dfc 6fbf 9801 ccbf c2ad 053f
00000210: 60c8 31bf 140d bc3e 78ce bb3e 9120 a63d
00000220: 04ac e93e 488b ea3c 0589 783e 1909 09be
00000230: d32d 18be 7b87 85be 2dc6 0cbd 4587 bd3e
00000240: 382c 8a3f 111a 62bd 6a30 54bf 3cba 51be
00000250: 39bb 00be 784b 0abe 76dc 2abf 78c9 24bf
00000260: 8dae 4cbf e968 b1bf ffcf 2dbe 6ead ad3f
00000270: 5f28 f2be 79de e23e 4a77 53bf bc86 3e3f
00000280: 1e51 5f40 a748 f83f 5f4f a9be c0bc f2bf
00000290: c285 2ebe 3d48 7cc0 35ea 0c40 a3a4 903e
000002a0: dc11 bf3f 6a9c d4bf f39d 83bf 855f 3b3f
000002b0: f13b 31be 2177 873f a6c6 9f3f 89f3 373f
000002c0: d8b7 a3be 0eeb 47bf 3e1f 8f3e 451f 80bf
000002d0: 5963 7a3f 4607 ae3e d82e 2c3f 4b5d cabe
000002e0: ef07 663d ab8b 4abe 5a32 803f e0d4 86bf
000002f0: 795e 9e3f 3bb2 553e afd9 8fbd c6e1 803e
00000300: f2d8 103f 44f6 0bbf 0fbb f9be 893d 66be
00000310: a04c 91bf d3a5 2f3f 345f 4f3f 3575 0d40
00000320: 881c 8b3e f5d2 d93f b99a d640 7226 25c0
00000330: fa82 b3bf 6f52 1740 e886 593e d855 68bf
00000340: eb44 9abf 2718 2c40 8f75 1c3f 80b6 f23f
00000350: 271a 80be 9d8f 083e e899 e63d 0f8d 49bd
00000360: 2dfe a43e 4d4a 323d 6304 c93b f379 0f3e
00000370: c8a7 7340 3144 1cc0 5a4a d640 e3f7 9dbf
00000380: 29c8 a63c 4421 3b3f eee2 05c0 6f07 1a3f
00000390: 8cff 063f 13cf 9c3f 5a06 6540 a9d2 a33f
000003a0: 8523 d13f 0c79 c340 f131 a73e 2cca 04bf
000003b0: 7d87 1fbe 7bf7 df3f 80c2 dcbe 62ea 1840
000003c0: b9e3 c3be 3726 bf3e fe83 813e b822 293f
000003d0: f5f3 ff40 fddb 243f 12b6 6b3e 8570 90bf
000003e0: 3313 14bf de7d 4f3e bf7d 1dbf ef3b 14bf
000003f0: f734 283d 0659 28be 41e8 b3be 4a48 3440

decoder.gru.bias_ih_l0 f4 [30]
2.269784 1.5095904 1.2966771 1.5490928 1.7939932 3.2516196 0.7853031 1.398001
3.5026078 2.190963 1.5569923 0.41984683 1.261774 1.1457156 -1.5456176 0.2575074
-0.070454314 0.30056965 -0.086411744 0.6079548 0.38008654 -1.4334291 0.024451794 -0.100759566
-0.17729604 -0.15494503 -0.8824007 0.24765274 0.13187872 -0.095802985
00000000: 2444 1140 423a c13f 84f9 a53f ac48 c63f
00000010: 92a1 e53f 891a 5040 a009 493f b2f1 b23f
00000020: ba2a 6040 bd38 0c40 864b c73f 2af6 d63e
00000030: cf81 a13f cfa6 923f ccd6 c5bf 03d8 833e
00000040: 5a4a 90bd 44e4 993e a4f8 b0bd eda2 1b3f
00000050: b49a c23e 9b7a b7bf 214f c83c 085b cebd
00000060: 188d 35be e9a9 1ebe 03e5 61bf ae98 7d3e
00000070: 370b 073e 5b34 c4bd

decoder.gru.bias_hh_l0 f4 [30]
1.9406105 1.186576 1.4187391 1.8754554 1.5286114 3.1874077 1.0096905 1.4164556
3.448154 2.1727288 1.1919353 0.10593938 0.9257525 1.1978625 -1.587332 0.17473544
0.5263569 0.26380742 0.14826484 0.580185 0.36184457 -1.5853455 0.55802363 -0.028611608
0.0019169715 -0.6176366 1.4955908 0.116194114 -0.2776672 -0.5430948
00000000: ed65 f83f b9e1 973f 3e99 b53f ec0e f03f
00000010: 8aa9 c33f 7dfe 4b40 8a3d 813f 6b4e b53f
00000020: 8eae 5c40 fd0d 0b40 5691 983f bff6 d83d
00000030: 1efe 6c3f 8f53 993f b22d cbbf d9ed 323e
00000040: 53bf 063f c411 873e bdd2 173e 0187 143f
00000050: b143 b93e 9aec cabf a3da 0e3f e462 eabc
00000060: e442 fb3a 6f1d 1ebf 856f bf3f 2ef7 ed3d
00000070: 652a 8ebe 4308 0bbf

decoder.fc.weight f4 [1500, 10]
0.7122988 -0.03093231 -0.17909633 0.1982325 0.060184438 -0.015446825 -0.1343734 -0.0015318085
0.05880122 0.0683854 -0.58357215 -0.41088936 0.79410547 0.19812763 0.5288931 0.9772705
-0.28307682 -0.69727266 -0.86103976 0.94319355 0.10394352 -0.65388846 -0.66476583 0.4315457
0.32092288 -0.57719666 -0.77712286 -0.60155165 0.87565356 0.71241415 0.6502017 0.56243986
0.56987065 -0.8045944 -0.5890356 -0.76952136 -1.0485929 -0.29533362 0.55590034 0.8602107
0.029485242 -0.12345295 0.06807451 -0.478637 0.42718208 0.6457566 0.22604223 0.43737295
0.58760804 -0.27257374 -0.22016113 0.18853898 -0.14454202 -0.45602313 0.4798463 0.8004362
0.4555198 0.4303499 0.46637017 -0.32932174 -0.38551763 0.4092303 -0.016840927 -0.7116567
0.7904733 -0.2590087 0.45510012 -0.728485 -0.8270684 -0.14740625 -0.16353573 0.18457823
-0.17661348 -0.45087916 0.4724968 0.7741724 0.4156521 0.4705956 0.4908598 -0.312059
-0.35181382 0.6650167 -0.31611007 0.5899546 -0.8405433 0.8501201 -0.76858133 0.4631112
-0.44649425 -0.11420278 -0.31665713 0.11789601 -0.16574964 -0.60025114 0.5897119 0.92853844
0.5750816 0.4845217 0.49355477 -0.2808541 0.8064885 0.048255414 -0.46934152 -0.33639103
-0.5932911 0.7484062 0.33690828 -0.61583406 0.5179704 -0.5400333 0.2526928 0.10914484
-0.07835899 0.36941856 0.15774928 -0.71546066 -0.27665597 -0.023127748 -0.43340445 0.39204648
-0.2468074 0.4396212 -0.20773101 0.736685 0.31622037 -0.39953375 0.38678885 -0.53768814
0.49973273 0.77278006 0.72518677 -0.56825054 0.28661084 0.57199425 -0.6258378 0.75233686
-0.67991126 -0.50810796 -0.4805715 0.7956254 -0.36357495 -0.31439275 0.9003783 0.028534124
0.42704302 -0.58 -0.6114393 0.76961493 -0.69536996 1.2606204 -0.12677076 -0.5643052
-0.46220413 0.37298393 -0.7972156 -0.28653118 -0.5889796 -0.38823324 -0.37635627 0.91559225
-0.34946218 0.96937263 -0.1840337 0.35342315 0.5601746 -0.5618511 -0.9125653 -0.69828045
-0.7348101 0.94398165 -0.1799503 -0.6504432 -0.77600926 0.4490235 -0.93221843 1.0659676
-0.59964347 -0.43709114 -0.56279135 1.0318983 -0.18207385 -0.4064464 -0.4491538 -0.7577238
-0.08116537 -0.54931986 -0.54553646 0.51762277 0.04546714 -0.20654494 -0.41647 0.28449735
-0.054517087 -0.6261138 0.38334495 0.7859655 0.57649803 0.69655466 0.42018676 1.1970543
-0.49516982 -0.3228781 0.7280089 0.33879772 -0.58927953 -0.24663664 -0.4818287 -0.63616234
-0.31786597 -0.30655333 -0.26321012 0.31642887 -0.24322177 0.6450195 0.246294 0.80708367
0.5169028 -0.50677425 0.38253638 0.7328532 -0.15583386 -1.0783473 -0.4882751 -0.86005116
0.52866554 0.5460948 -0.6583347 0.594415 0.67504025 -0.23639077 -0.036921073 -0.914242
-0.6462046 -1.1285834 -0.74908316 -0.62246233 -1.177938 0.86189675 -0.52332103 -0.06275767
0.35599822 -0.5620057 0.52123797 0.30326074 -0.5127348 -0.36021194 0.5523298 -0.50956035
-0.5306645 0.9976365 0.0015534229 -0.0764577 -0.5434524 0.44352484 -0.03429907 -0.59719336
00000000: 3759 363f c165 fdbc 0765 37be 76fd 4a3e
00000010: f583 763d ae14 7dbc 2e99 09be f7c6 c8ba
00000020: 8cd9 703d a50d 8c3d fc64 15bf 1760 d2be
00000030: 7f4a 4b3f f8e1 4a3e 8a65 073f 662e 7a3f
00000040: 72ef 90be 7680 32bf 1a6d 5cbf 2275 713f
00000050: 57e0 d43d 3c65 27bf 182e 2abf 8ff3 dc3e
00000060: 0150 a43e 29c3 13bf 86f1 46bf 4aff 19bf
00000070: d52a 603f c660 363f 9e73 263f 0ffc 0f3f
00000080: 0be3 113f e6f9 4dbf 09cb 16bf 5aff 44bf
00000090: 4b38 86bf f835 97be 7c4f 0e3f c536 5c3f
000000a0: 098b f13c e6d4 fcbd a66a 8b3d e90f f5be
000000b0: 9cb7 da3e 4e50 253f 9d77 673e 59ef df3e
000000c0: 7b6d 163f c98e 8bbe eb71 61be 5d10 413e
000000d0: d302 14be dd7b e9be 6aae f53e 63e9 4c3f
000000e0: e439 e93e d256 dc3e 12c8 ee3e dc9c a8be
000000f0: 9162 c5be a286 d13e fcf5 89bc 222f 36bf
00000100: 755c 4a3f ca9c 84be e202 e93e fe7d 3abf
00000110: c1ba 53bf aaf1 16be e975 27be 1302 3d3e
00000120: 2ada 34be a2d9 e6be 1aeb f13e 2a30 463f
00000130: 5ad0 d43e e8f1 f03e fa51 fb3e 32c6 9fbe
00000140: f120 b4be 893e 2a3f 2ed9 a1be 4407 173f
00000150: d92d 57bf 79a1 593f bfc1 44bf e91c ed3e
00000160: e59a e4be 26e3 e9bd e220 a2be 7773 f13d
00000170: 46ba 29be 0faa 19bf 5cf7 163f b2b4 6d3f
00000180: 8c38 133f 3a13 f83e 36b3 fc3e 1ccc 8fbe
00000190: 0876 4e3f 78a7 453d 884d f0be 723b acbe
000001a0: ede1 17bf 8c97 3f3f 3e7f ac3e 4da7 1dbf
000001b0: b599 043f 9f3f 0abf f360 813e 5487 df3d
000001c0: ae7a a0bd 6e24 bd3e 0789 213e 6e28 37bf
000001d0: daa5 8dbe 6776 bdbc 30e7 ddbe 51ba c83e
000001e0: 14bb 7cbe 0816 e13e 70b7 54be 6397 3c3f
000001f0: a3e7 a13e b08f ccbe 3009 c63e eea5 09bf
00000200: f8dc ff3e ead4 453f d7a5 393f de78 11bf
00000210: a8be 923e 376e 123f e836 20bf 2699 403f
00000220: aa0e 2ebf 5d13 02bf 780d f6be 1bae 4b3f
00000230: 7f26 babe 16f8 a0be 317f 663f 65c0 e93c
00000240: 62a5 da3e e17a 14bf 4987 1cbf 7c05 453f
00000250: c403 32bf 025c a13f 32d0 01be 4e76 10bf
00000260: 05a6 ecbe c0f7 be3e 5216 4cbf 37b4 92be
00000270: 5ec7 16bf 82c6 c6be c5b1 c0be 4164 6a3f
00000280: b5ec b2be ce28 783f 5573 3cbe e1f3 b43e
00000290: 9a67 0f3f 79d5 0fbf e19d 69bf 82c2 32bf
000002a0: 841c 3cbf c8a8 713f e444 38be 7283 26bf
000002b0: 8ba8 46bf 68e6 e53e dea5 6ebf a071 883f
000002c0: 3c82 19bf 69ca dfbe 1813 10bf 3e15 843f
000002d0: 9171 3abe be19 d0be 7df7 e5be 30fa 41bf
000002e0: 083a a6bd 3aa0 0cbf 47a8 0bbf ed82 043f
000002f0: c03b 3a3d 8480 53be 8e3b d5be a3a9 913e
00000300: 4f4d 5fbd fe48 20bf ca45 c43e 0935 493f
00000310: 6095 133f 6851 323f b822 d73e 1339 993f
00000320: e686 fdbe 4750 a5be cb5e 3a3f e576 ad3e
00000330: 06db 16bf 518e 7cbe 40b2 f6be 89db 22bf
00000340: 54bf a2be 8ff4 9cbe 7ac3 86be f702 a23e
00000350: 210f 79be ff1f 253f 7f34 7c3e 099d 4e3f
00000360: be53 043f f5bb 01bf cfdb c33e 449c 3b3f
00000370: e992 1fbe 4907 8abf 32ff f9be 502c 5cbf
00000380: a056 073f decc 0b3f 9f88 28bf 952b 183f
00000390: 70cf 2c3f 6c10 72be 8d3a 17bd c40b 6abf
000003a0: aa6d 25bf 6c75 90bf eac3 3fbf b159 1fbf
000003b0: acc6 96bf 44a5 5c3f 5ef8 05bf 1887 80bd
000003c0: 6645 b63e 9bdf 0fbf da6f 053f fe44 9b3e
000003d0: 9642 03bf b36d b8be 7c65 0d3f 8c72 02bf
000003e0: a1d9 07bf 1b65 7f3f 399c cb3a db95 9cbd
000003f0: b21f 0bbf b015 e33e 2e7d 0cbd aae1 18bf
