autoencoder_model/ae/autoencoder_model_attributes.pt (torch, 55471 bytes, 8 tensors)

encoder.0.weight f8 [40, 50]
0	0xbfb36ad2dd60a5d7	-0.07584875015950075
1	0xbfbe8060e57a1506	-0.11914640047514888
2	0xbf8375aa587052a0	-0.009501772712647238
3	0xbf98cc609dedc200	-0.02421713794632474
4	0xbf9fbaae93cf8f48	-0.030985572597173744
5	0xbfb0ad96c64526e2	-0.06514875736788953
6	0xbfb5cf15657d8ab9	-0.08519109466355247
7	0xbfb33ebb973aa466	-0.07517597620120994
8	0xbfb0b27e93df9761	-0.06522360906782644
9	0x3fbdb0c7bb91fc26	0.11597870187141321
10	0x3fb66e3846c3024e	0.08761932113248713
11	0xbfc0b9bdd59acc20	-0.13066838197627906
12	0xc069377b34fc4d14	-201.73378991391712
13	0x3fa078caddb38d54	0.03217157322230926
14	0xbfb065792ef9b680	-0.06404836079465248
15	0xbfa8a5f46b2dff6c	-0.048141134341675634
16	0xbfaae38907570f38	-0.05251720633125817
17	0xbfb5e1e0626778f8	-0.08547785189100299
18	0xc06950e139548fb6	-202.52749315753834
19	0xc0695cf3aff57c70	-202.90474698969365
20	0xc06953df7a8e8824	-202.62103011930697
21	0xc069600f4e308b7a	-203.00186833840763
22	0xc0695dc0cb883908	-202.9297845516778
23	0xc0695e0479975f9c	-202.9380462605012
24	0xbfbf115d9ba78aec	-0.12135872888715554
25	0xbfc14a32fdf049da	-0.13507687949511543
26	0xbf80de313dcc9440	-0.008236298273525233
27	0xbfaa29ceb9b33efe	-0.051100216072539326
28	0x3fbb8ad4bc43fbc4	0.10758714290930899
29	0xbf83ac5657169c80	-0.009606050999378946
30	0x3fc11ed6019c8551	0.13375353888208477
31	0xbfaf66b0e240a6fe	-0.061330344790190935
32	0x3fb59adb658ea020	0.08439418057844295
33	0xbf92fbe3e25d63ac	-0.018539009753428523
34	0xbfa921883bae87e4	-0.049083955083247394
35	0x3fc1780cc57294eb	0.13647613183017113
36	0xbfbdf5b153308968	-0.11703022271152508
37	0xbfbadef75a8a1e91	-0.10496469459951131
38	0x3f53c8f285d80c00	0.0012075775515547615
39	0xbfaffd8d0160f1e4	-0.06248131410436367
40	0xbf68d6df0cbc2180	-0.0030321461143822392
41	0xbf972ff5d51ec41c	-0.022643891461204033
42	0x3fc1822d5e1ce1d9	0.13678519339897724
43	0xbfb8e5843ba0253f	-0.0972521443910823
44	0x3fb51c3229163c34	0.08246148589226793
45	0xbfb454a36611ff65	-0.0794164776034428
46	0x3fb07c6e571bab80	0.06439866663610694
47	0x3fb6ce09572e8a92	0.08908136728727303
48	0xbfb88c5a0acba378	-0.0958915974002944
49	0xbfbeb22b69f605c4	-0.1199061521238241
50	0xbfb8a67333d32f84	-0.09628982558495919
51	0x3f82f1635c1b72a0	0.009249473808659758
52	0xbfc01fc8a221902e	-0.1259699622779648
53	0x3fb98bbd3dc1a27a	0.09978850133632902
54	0x3f77e4cd8b57a200	0.005833437831349375
55	0xbfc119a133d09242	-0.13359465627685735
56	0xc0695919baed0140	-202.78439089097992
57	0xc0695b01a3e02d7c	-202.84395021233274
58	0x3fa23fc022eefb44	0.03564262796816434
59	0x3fc0059ddad39bbf	0.1251714056481585
60	0xbfb628df4f23bbbd	-0.08656116182440506
61	0x3fb7da371005ed24	0.09317344800176791
62	0xc0695a0fbd911871	-202.81442144717178
63	0xc0695b5d1f99c4dc	-202.85511760743145
64	0x3fc1999613bc1c81	0.13749958003629462
65	0xc0695f0da6e19f30	-202.97041648928416
66	0xc069593ca07a9c32	-202.7886507410745
67	0xbfb9a75042bf5ea6	-0.10020925168589176
68	0xc0695ca7afab4347	-202.895469507692
69	0xc069617fa2ff2fe2	-203.04683065263004
70	0xc0695e3556ea7aa8	-202.9440111713095
71	0xc0695f2ef13eb840	-202.97448026895472
72	0xc0695ac1cfda7c27	-202.83615868256422
73	0xc0695f5a3814bf04	-202.97976306964858
74	0xc0695e174dd3ab0c	-202.94034472791134
75	0xc06960e7b4b4acb5	-203.0282844094087
76	0xc0695d7166c1ba22	-202.92009294354744
77	0xc0695e3b10fcd72d	-202.94471024878422
78	0x3faf23de5ff166a4	0.06082053109339583
79	0x3faf054367ba2650	0.06058703080368544
80	0x3fb29fc5e88c0f06	0.07275044372005021
81	0x3faa3b43123d1774	0.05123338315620077
82	0xbf8192a57ecd5160	-0.008580487186613694
83	0x3f64271949953900	0.0024600500006847215
84	0x3fbbbbd934c67180	0.10833509005028041
85	0x3fba06b8d0d06a6a	0.10166506860734051
86	0x3fbfb45407c04602	0.12384534062609734
87	0x3fbd21b3491aa816	0.1137954762913583
88	0x3fbad14c78451164	0.10475614486955959
89	0x3fa6f8e87e624bb0	0.044867768695574184
90	0xc0695dc8230a3289	-202.93068077079468
91	0xc069611884120960	-203.0342426636007
92	0x3fb5f660aa1f5a6c	0.08579067376499844
93	0x3f7e3f6371c29d80	0.007384670691102158
94	0x3fb3f4a168bcead0	0.077951515265265
95	0xbfb2aea6b6aedada	-0.07297746620211445
96	0x3f7ec163912a10e0	0.007508648809224833
97	0x3fb05a177ab41e30	0.06387469049160965
98	0x3fc11e48243b4953	0.13373662728424537
99	0x3fc1391bd8ecde99	0.13455532161764408
100	0xbfc01dc4f200f994	-0.12590848747818184
101	0xbfb4412b5f2c69d7	-0.07911940644809277
102	0x3fc185ad6648cb65	0.13689200872758103
103	0xbfadce4c4ed5b2b0	-0.058214554427512666
104	0xbfc0e64aaadb070c	-0.13202794401700435
105	0xbfa1c3d081f495a0	-0.03469707094545105
106	0x3faf6f6386be268c	0.061396703909008726
107	0xbfadd9d7049bbdc0	-0.058302611649078795
108	0x3f9edbef92d4da30	0.030135863625412707
109	0xbfb17b4337c2dc4f	-0.06828708754879752
110	0xbfc055dc18561de7	-0.12762023151684262
111	0x3f8200e66f341cd0	0.008790779369986984
112	0xc069592479e9bcb0	-202.78570266391534
113	0x3fc18a022a6e176d	0.13702418395785845
114	0xbfa817250a98c8d0	-0.047051579993778625
115	0xbfa4b34f9f0817f0	-0.04043053451827905
116	0x3fb0135925e1fc86	0.06279523062583978
117	0x3fbffbe32bbf98c6	0.12493724649502544
118	0xc0695a340bc53ed6	-202.81885326885703
119	0xc06958ea0a871c8d	-202.7785694731614
120	0xc0695270771f59d3	-202.57622867701738
121	0xc0695ff25498cdf1	-202.99833135456677
122	0xc0695852930d5afa	-202.76007988556358
123	0xc0695e484825cbb8	-202.9463234651755
124	0xbfb3f2c75effaa83	-0.07792326039604273
125	0xbfc0051fea8b17da	-0.1251563925963513
126	0xbf920aeb55f0c604	-0.017619778747933537
127	0x3fa80b646f9d3608	0.046961916565674555
128	0xbfb5528a85430b0b	-0.08329072717155499
129	0x3fa62ba729d25bf0	0.04330179582137095
130	0x3fbd2da91cedad52	0.11397797542820357
131	0xbfabfca6458ebbdc	-0.05466193770495639
132	0x3fb4952067c0b460	0.08040049107576541
133	0x3fbd3dec38ecea0e	0.11422611608296782
134	0xbf90e4fbf3268a54	-0.016498505321246817
135	0xbf7c77554aa742c0	-0.006949742479677112
136	0xbfc041002be6ad66	-0.12698366302116
137	0x3fa02ae4f43d7dd0	0.0315772579331185
138	0xbfa7c3bb8436b318	-0.04641519535957722
139	0x3fba1fe7e75c3be2	0.10204934500164556
140	0xbfb9a3fae5920a08	-0.10015838722942061
141	0x3f806f42daa3ebf0	0.008024713799832356
142	0xbf9fbb26e86d5790	-0.030987365661836075
143	0x3f77831d649d7aa0	0.005740275208011042
144	0x3fa0eb6060ace734	0.03304577999229111
145	0x3fc1b492e2d869a5	0.1383231742518777
146	0x3fb74f637bf8fa10	0.09105512406038252
147	0x3fae11e75dbe51c8	0.05873034495667501
148	0xbf89440ec9630590	-0.012336841126286996
149	0xbfb642264e7afd8e	-0.08694686332727583
150	0x3fb34391c12c4972	0.07524977651727285
151	0x3fa27a203e681b40	0.03608799707222099
152	0x3f96923d04bc7f00	0.022042230047303768
153	0x3fb74fafc4b096be	0.09105967094418596
154	0x3fa11b6a80f100a0	0.03341229270927326
155	0x3f714ca9be2d76e0	0.004223502214555558
156	0xc0695cfee20e6f08	-202.90611365145764
157	0xc0695d9ab38e1978	-202.92513444665724
158	0x3fba0716a2f91000	0.10167066077070785
159	0xbfc17e5019a7bf0d	-0.13666726353357497
160	0xbfb609835b006212	-0.08608265849796506
161	0xbfbc2b5049eaf9ce	-0.11003591351161576
162	0xc06958d60a26c336	-202.77612788744744
163	0xc0695e13f99dddd9	-202.93993836243934
164	0x3fb79a5a095f987c	0.09219897011607431
165	0xc0695cbb72b81ca0	-202.89788185080852
166	0xc0695f660c2808d1	-202.98120696849085
167	0xbfb8044451e4c3df	-0.09381510733943753
168	0xc0695b8726f0842b	-202.860248059996
169	0xc069639e32dcd165	-203.1130613625384
170	0xc06960ea3dd84302	-203.02859394301055
171	0xc06960596b4d96a0	-203.01091542390805
172	0xc0695a9a0e7d5553	-202.83130573729667
173	0xc0695acf94dc7dfa	-202.83783953728545
174	0xc0695d8340ec5e0c	-202.92227216878416
175	0xc0696197cc453bf0	-203.0497800209264
176	0xc0695bfae60b35f9	-202.8743772715532
177	0xc0695ceff86df494	-202.9042932651106
178	0xbfc0905ebd95610c	-0.12940582520492006
179	0xbfa1fbc4c1551556	-0.035123966789380276
180	0xbf8f0544b4df0970	-0.015146767396690491
181	0xbfbfb5b58207dbd1	-0.12386640953614793
182	0xbf96d1e3c0c7deec	-0.02228504051342288
183	0xbfa227feb17d5b98	-0.03546138683912331
184	0xbfbb1c4a013046db	-0.1059004071142015
185	0x3f91345710eceff0	0.016801224144032234
186	0x3fbe0d37f98fcb96	0.11738920061888644
187	0x3f751dc7e7d11d20	0.0051553543863243345
188	0x3fc0aa7a93749557	0.13020260047884832
189	0xbfa3690c359bcdac	-0.037910825294513145
190	0xc0695ee74fc19489	-202.96573627289425
191	0xc0695f65e690fd5f	-202.9811890441733
192	0xbfb88eb87905bf38	-0.09592774347924837
193	0x3f8ec8abda739800	0.015031187633621101
194	0xbfb8e4cb6b9b7552	-0.09724112870340676
195	0xbfc08bff255eee08	-0.1292723591303544
196	0x3fa97eaf787f0f8c	0.049794658144974496
197	0xbfb8c556780173b6	-0.096761135385761
198	0xbfb135d58f951b77	-0.06722769504004399
199	0xbf60221073499cc0	-0.001969368104528607
200	0xbfbf06a3735f9541	-0.12119504515392966
201	0x3fb316e721ae68b2	0.07456821987435339
202	0xbf6133bf0ee3a5c0	-0.002099869881125399
203	0x3fa3c15778883cac	0.03858445497837101
204	0xbfa2da1894456264	-0.03682019052456978
205	0x3fb28ef9da61746e	0.07249414044913902
206	0xc069602736e32569	-203.0047869144867
207	0xc06960c9e830376b	-203.0246468488434
208	0x3fa9e8cf8254d720	0.05060432878455701
209	0xbfbf026c942e495f	-0.12113073938079343
210	0xbfbf9e6d5710a1d5	-0.12351115584954837
211	0xbfb457e9cef15c57	-0.07946645071329904
212	0xc068deaecddfc59d	-198.95883840280013
213	0xc06956f006cdfd5c	-202.71680011970864
214	0x3fbbcd751fba05d2	0.10860378288818787
215	0xc0695b53d4a1311f	-202.8539832256583
216	0xc06958ec3970aa2d	-202.77883598332247
217	0xbfb9f2b36b18496a	-0.10135957111950736
218	0xc06954110ede1dd3	-202.62708228475694
219	0xc069557a561b268e	-202.67118363669255
220	0xc067f3d62f7679d3	-191.61989567889995
221	0xc0694d659efe1fd2	-202.4186549151769
222	0xc0694714226e67e7	-202.22120782436033
223	0xc069435afea64a61	-202.10485775450346
224	0xc0695ddea6979a37	-202.93342904672474
225	0xc0695ca592734b90	-202.89521143454158
226	0xc06959c7125e3a0e	-202.8055507507674
227	0xc069598bb4f1f085	-202.79830405477347
228	0xbfa49940d8b110fa	-0.040231729938144015
229	0xbfb0e5a12cf6abe6	-0.06600386951201606
230	0xbfaa0bd61540a6b8	-0.05087155351095646
231	0x3fbe4bf7138188b2	0.1183466360685397
232	0x3fa507fb4bae8c4c	0.041076519955162455
233	0x3fc00c984003a965	0.1253843605584947
234	0x3fbb34aab8b71b26	0.10627238282823423
235	0xbfbc7371b08e3d25	-0.11113653717460588
236	0x3fb184cda13abdd6	0.06843266664758771
237	0xbfbaea1fdb46e704	-0.10513495543900936
238	0x3f8391a44617e6e0	0.009555133236961166
239	0xbfbba6013a941afa	-0.10800178222789816
240	0xc0695cda94a9ea03	-202.9016822165141
241	0xc06958aeb967ff4b	-202.77132864295922
242	0xbfa14c1b745edd06	-0.03378377719439567
243	0xbfb676f44fb3db6c	-0.08775259919990014
244	0xbfc0f963f3891e63	-0.1326107920779008
245	0x3f97a1afca72c8b0	0.023077723247020898
246	0x3f9923eaba249b88	0.024551074610964757
247	0xbf7ee95c3b2c1560	-0.00754676845349897
248	0xbf8d310f4c134680	-0.01425373030579924
249	0xbfb932a6578d216a	-0.09842910420878118
250	0xbfa194f0b3c7095e	-0.034339448876852016
251	0x3fc1af65a1f2b6d7	0.13816519172308148
252	0x3f9951bf84a68728	0.024725906821578963
253	0xbfb89a0ae592bfd8	-0.09610050301375794
254	0xbfb74c3e659cf9db	-0.09100713711538992
255	0xbfa268182ccbd99e	-0.03595042750196174

encoder.0.bias f8 [40]
0	0xc0695e43249be9eb	-202.94569616748717
1	0xc06962b6011709fa	-203.08471731662559
2	0xc0695e0fcf24a600	-202.93942982824228
3	0xc0696507f9a98d23	-203.15722354045383
4	0xc0695b8eadd23ef4	-202.8611668688169
5	0xc0695e0a915b7467	-202.9387900148606
6	0xc0695d645e8b56be	-202.91850211348168
7	0xc0695c35e83d130f	-202.88158046654323
8	0xc0695fce1fdfa293	-202.99391168287966
9	0xc06959cb63f737d9	-202.80607794079586
10	0xc0695cfe2fc7f191	-202.90602864314545
11	0xc0695da6e721041a	-202.92662388275568
12	0xc0695b4993de6126	-202.85273164208883
13	0xbfc0bbf90f6f1ea9	-0.13073647740951813
14	0xc0695d79fe66601c	-202.92114181513978
15	0xbfbe4978215fd976	-0.11830855192952136
16	0xc069608749daf468	-203.01651470913498
17	0xc0695f16dde6fb83	-202.97154135812534
18	0xc069598ea7a5dfe0	-202.79866392514577
19	0xc06960a3d8c076d3	-203.0200008162561
20	0xbfae53472262012c	-0.05922910971367154
21	0xc0691dcf24b47b73	-200.93153605699953
22	0xc0695bb4681c42ed	-202.86577229995547
23	0xc0695c45272f06ea	-202.8834415358063
24	0xbf59e637a26ca900	-0.0015807669930816837
25	0xbfa8ac13b85139a8	-0.048187843560856536
26	0xc06961c766893246	-203.0555908851258
27	0xc069213f5ea1d673	-201.03898555382656
28	0xc0695f8a4022eda2	-202.98562628576207
29	0xbfbe23c2a8e12281	-0.11773316023858095
30	0xc06960192f186e75	-203.0030742146661
31	0xbfa23a9773a99f1a	-0.035603268498389976
32	0xbfa81f5c47445766	-0.04711426134069434
33	0xc0695d5bd782f906	-202.91746116238227
34	0xc0695ced48adffae	-202.90396532043582
35	0xc0695d462043343a	-202.91481030584129
36	0xbfb180b77b78cac9	-0.06837031139802287
37	0xc0696302839cfc7f	-203.09405689870252
38	0xc0695f8323adf5a6	-202.98475822426298
39	0xc06962148974c11d	-203.0650069504126

encoder.2.weight f8 [30, 40]
0	0xc06966582ff25e21	-203.19826505029144
1	0x406961060093267d	203.03198269596388
2	0xc0695c142170bb39	-202.8774573518547
3	0x40695a47ed8af216	202.82128026140043
4	0xc0695aba5d1a937a	-202.83524947348252
5	0xc0695b0a5a8b372d	-202.84501387777837
6	0xc069607442f3dc29	-203.0141920817271
7	0xc069615e6ae65a6b	-203.04277558318003
8	0x406959ddb594f5e7	202.8083141240488
9	0xc0695aee22541385	-202.8415691034426
10	0xc0695c2b8825243a	-202.88031394247247
11	0x4069538a5dbafc18	202.61064039726693
12	0xc0695e8d09eaf43e	-202.95471664323298
13	0xbfa904286bc140d6	-0.048859847215341354
14	0xc0695e213495f18f	-202.94155339513642
15	0x3fb5516ea8b0dda4	0.08327380770139442
16	0x4069551bd50b5183	202.65964748583437
17	0xc0695967b0d44499	-202.79390756090723
18	0xc0696508dc74d6a8	-203.15733168430347
19	0x406959e5d4232704	202.8093052565165
20	0xbfa9a80c24670476	-0.05011022514691714
21	0xc0695e578a08b494	-202.94818593693037
22	0x40695360982e1da1	202.6055413151453
23	0xc0693dd48cfd9ddf	-201.93219613585003
24	0xbfb20c80f1ef999f	-0.07050329119338138
25	0xbfb703d747254117	-0.08990235793067246
26	0xc069573f56a79a05	-202.72648174986548
27	0xc06981855dc8c2fc	-204.04753007136594
28	0x4069579632f92543	202.73708485280267
29	0xbfc3156351a612c3	-0.14909020888094035
30	0xc06946f5332393e8	-202.2174316115263
31	0xbf9837a664c2ff88	-0.023649787807471095
32	0xbfb1f869e60fb5ab	-0.07019674174053729
33	0x406954411c769bef	202.63294814267962
34	0xc0695dd1ab0a94b9	-202.9318442541751
35	0xc0696005d01a0501	-203.0007095821566
36	0xbfba282af44de15a	-0.10217541183908932
37	0x406941ed7f1342a2	202.06024125825667
38	0xc0695ab0a9f0ada7	-202.83406540877806
39	0x40695fe0368ed651	202.9961197652615
40	0x4068ffe8367c94b6	199.99709629375656
41	0x40695ece34ba7ce8	202.96267162726804
42	0x4069617c7bdc60e7	203.04644578020745
43	0x406956d6fce14300	202.71374362942151
44	0xc0696070bfda5e35	-203.0137633576393
45	0xc06959698a047415	-202.79413319463552
46	0x40695c3bb282f07e	202.88228726934534
47	0x40695ed48a444bd7	202.9634448369895
48	0x4069571729de9bef	202.72157758215278
49	0x4069572376c279e4	202.7230790899622
50	0x40695b9da8bfac5f	202.86299550472447
51	0xc06962ea2c2c468a	-203.0910855164296
52	0x4069538aac919167	202.6106779902577
53	0xbfc2c238ec9f0e30	-0.14655219606184877
54	0x40695ec1b0738ebb	202.96114370889504
55	0x3f6d8c316ee1f180	0.003606888341037784
56	0x40695c03b0644dcf	202.875450321108
57	0xc0695f4a57efd102	-202.9778251346507
58	0x40695af83fef41fc	202.84280392389326
59	0x40695f3b850177ae	202.97601557051297
60	0xbfbd04cf19bad71a	-0.1133546293084148
61	0xc0693eacc2477549	-201.95858873325986
62	0x40695d0294933267	202.90656498669998
63	0xc0695eb014321ae4	-202.95899400507108
64	0x3fc0216b68a4a4e0	0.12601988420036658
65	0xbfae15174280c9b0	-0.05875466048054834
66	0xc06950661e0c49e7	-202.5124654998792
67	0x40694ca4cb8227f5	202.3951165716277
68	0x40695c5771396216	202.88567410667082
69	0x3fa5353810c96d8c	0.04142165379445392
70	0xc0694c535e4f75ba	-202.3851768066359
71	0xbfbc2b804eba5fc5	-0.11003877565451521
72	0x3f85e0adb855ffd0	0.010682446659075057
73	0xc0695c086f40cf45	-202.87602961214193
74	0x406961a31c49d5b7	203.051160949906
75	0x4069572d4ab03d29	202.72427877828275
76	0x3fa105eaa11ca438	0.03324826447198642
77	0x40695e7b0188b0f4	202.9525153798819
78	0x4069606d6fcad7a8	203.0133589708105
79	0x40695f32e8802798	202.97496438055236
80	0xc068ae6d995f59e9	-197.45087879775318
81	0x406913a373b92ce2	200.6137026421266
82	0x406965d7948dfd49	203.18256595356277
83	0x40695431a3e8d04c	202.63105960341852
84	0xc0695a15252640ea	-202.81508119079018
85	0xc069597d5467b022	-202.79654903651777
86	0x40695cf80edb81d1	202.90528052208404
87	0xc0695eed2b97de4d	-202.96645145093717
88	0xc0695dbd828f9191	-202.92938354531046
89	0x4069601dfdaedb35	203.00366100455872
90	0xc0695f0ff6f19008	-202.97069880657386
91	0x4069583b6afd231f	202.75725316468103
92	0x40694fb857643906	202.49125260901218
93	0x3fabd80db155ee04	0.05438273229352933
94	0x40695c0353574540	202.87540595097562
95	0xbf60934284a682c0	-0.0020233439619946336
96	0xc06962f5628f6064	-203.0924542236636
97	0x40695a42c05862af	202.82064835799017
98	0xc0695f2b85a7153f	-202.97406275399587
99	0xc06955e741cf6bbb	-202.68447962295417
100	0xbfa17eec32aab714	-0.03417146795741935
101	0xc0695ac84f3bee5b	-202.83695184426583
102	0xc069538cd5ea2da2	-202.61094184625568
103	0x40695a93eafd2baa	202.83055638739944
104	0x3f9f8909e9df2770	0.03079619874896572
105	0xbfb63bf42db7d93f	-0.086852322732601
106	0x406958910939b07b	202.76770459430176
107	0xc0695b098b2721a6	-202.84491498606548
108	0xc0696402f070f620	-203.12535879195002
109	0xbfb8c70f82088946	-0.09678742336885646
110	0x406961737cd30825	203.0453476068225
111	0x3f9f6f039a30e928	0.030696922575068758
112	0xbf9c850d6125d550	-0.02785130410616904
113	0xc0695540e41690ae	-202.66417126090295
114	0x40696041281c76a0	203.007953696816
115	0x40694f90d9afee7b	202.4864319263614
116	0xbfbdd2c2cbc52de0	-0.11649720644816552
117	0x4069581b130888ba	202.75330497423948
118	0xc0695dab92136d77	-202.92719367784932
119	0xc0694cc162127931	-202.3986063347634
120	0x406960fd0b466e5b	203.03088916545934
121	0xc0695f22dd95bffd	-202.973006050568
122	0x40695b7dc1e55707	202.85910124581298
123	0xc069575d55af9d41	-202.73014339732802
124	0xc0695ad77356affd	-202.83880011492866
125	0xc06956ec7c7498ea	-202.71636793873705
126	0x4069581ddbe186b2	202.75364488647534
127	0xc0696040349cdb6e	-203.00783758770143
128	0xc0696197f03c114b	-203.04979716999
129	0xc069580f34088145	-202.75185586606145
130	0xc0695bb26955b9ed	-202.86552874320424
131	0x406946171035f385	202.19031534707406
132	0x40695965de3f5f71	202.7936850774527
133	0xbf9a6a9aa4fa92c8	-0.02579728729201028
134	0x406959de3b668e0e	202.80837793379072
135	0xbfc15709784bd3e1	-0.13546865819776513
136	0xc0695c596b8d4a1b	-202.88591554256058
137	0x40695caebce2c9fc	202.89633030218818
138	0x40695b40f2b6d779	202.85167823516147
139	0xc06960db23dc24aa	-203.02675049778674
140	0xbf835f6ed68b8e70	-0.009459367678068292
141	0x406966a0515dcb15	203.20707004851343
142	0xc0695ac4471ea3bf	-202.836459693759
143	0x406958af68ec3c87	202.7714123357766
144	0xbfc04f95cd8dc2d0	-0.1274287465744437
145	0xbfa3b45207d9fc3e	-0.03848511072009629
146	0x40695700a44f3b6c	202.71882834887526
147	0xc068fee0b20d03eb	-199.96492865125705
148	0xc069622a389fc8cb	-203.0676539536274
149	0xbfc39015204925a2	-0.15283454967929538
150	0x40694e148d4e856a	202.44000878654634
151	0x3fbe37243dad8104	0.11802889352611962
152	0xbfbb8c1ede6a9c72	-0.1076068203934584
153	0xc0693f6278450b62	-201.98077023968932
154	0x40695ec267740fe8	202.96123097103487
155	0x406958e8792ec2ba	202.77837809689464
156	0x3f901f4c44274f90	0.01574439207054429
157	0xc069575afcc1f572	-202.72985685236523
158	0x406958bf3e577a9e	202.7733451565336
159	0xc06958441bbd5990	-202.75831400854486
160	0x406901a361759a06	200.051193933192
161	0x406958950063ed95	202.768188662693
162	0x40695e553fb489cb	202.94790635358217
163	0x40695ce61127f2ec	202.90308435251734
164	0xc0695dc0c6c1b9fd	-202.92978227460108
165	0x406960e099c1ebaa	203.0274170672904
166	0x40695da610015123	202.92652130372252
167	0x406959b2a1f55980	202.80305574340673
168	0x406957e5910d0f4d	202.74677326727615
169	0x4069592b82a62c89	202.7865613217912
170	0x40695ed6611e5e11	202.96366935664312
171	0xc0695b79ccefe7d8	-202.85861822945185
172	0x40695fc6ff85fac9	202.99304176490685
173	0xbfc03713764e0eee	-0.12668078686339562
174	0x406960560db4e9c9	203.0105045827352
175	0x3fb19537ebb55588	0.06868314270589881
176	0x40695c2058e6d1f4	202.87894864160592
177	0x40695b1e0c370018	202.84741793386706
178	0x406960231ae88310	203.0042852917909
179	0x40695876e0e26af1	202.76451153013434
180	0xbfb39b07cb32d265	-0.0765843268480438
181	0xc0694f82629a480e	-202.48466615803812
182	0x4069617c6a240b50	203.0464373306263
183	0xc069593c1aa9ae0f	-202.7885869325696
184	0x3fc083bf868381c2	0.1290206343465013
185	0xbfbf1b52cfa211ac	-0.12151067322890324
186	0xc06955de6e40fceb	-202.6834021825119
187	0x406969d9b0c4c4cc	203.30782354766268
188	0x40695a71acc13aa1	202.8263763212208
189	0x3fbc85009da57710	0.11140445565021317
190	0xc06954970dc1cef2	-202.6434391770668
191	0x3f901940366dbbe0	0.015721324274121318
192	0x3fa8a67a492a0b4c	0.04814512389295675
193	0xc0695a96493a7896	-202.83084546489835
194	0x40695fee810f1fe8	202.99786427454023
195	0x40695cc77c9e92e4	202.89935141536182
196	0x3fb7654c607f9e1c	0.09138944011612476
197	0x40695d5a411b8d70	202.9172673738608
198	0xc0695a6ed467e3f2	-202.8260290173635
199	0x40695a37d1922b26	202.8193137984137
200	0xc0694adda80eab0d	-202.33955767502667
201	0x40695cb78ede971d	202.89740699267068
202	0x406963407edc67e7	203.10162299201986
203	0x4069584bfc599c48	202.75927560331388
204	0xc06938ba4805f52d	-201.7727394214975
205	0x406962b2032c75bb	203.08423002894946
206	0x4069618d516ebefc	203.04850074415288
207	0x40695a41b0c9a3a8	202.82051886923477
208	0x40695b360c56acd2	202.85034768036581
209	0x40695d0068ee585c	202.9063000350169
210	0x40695c1ae6c8c2cb	202.87828387461772
211	0xc0692f5df20d7728	-201.48021795873615
212	0x40695bc33e12858f	202.8675833093407
213	0xbfb570dd1d5e65fa	-0.08375341383943882
214	0x40695ea15022e9f1	202.95719153231724
215	0xbf9b396a1f32a230	-0.026586206583177396
216	0x40695fc6c2bfbcbb	202.9930127854221
217	0x4069601021fb2df2	203.00196932848445
218	0xc06958e2f63b3a49	-202.77770530288606
219	0x40695ececc0d3cbe	202.96274378381162
220	0x3fc05abd4ada2700	0.12776914744272716
221	0xc069529426565bc4	-202.58058468691718
222	0x406962ce079226a8	203.08765009446256
223	0x406919ce54641cff	200.80643672517178
224	0xbf9eb4799b65ca60	-0.029985332593648883
225	0x3fc045b897d579fa	0.12712771810306817
226	0xc0695cfa79ea450c	-202.9055757117825
227	0x406956f20418c9f3	202.7170429691465
228	0x406962244e8d6374	203.06693198790492
229	0x3fb47a44cd56df34	0.0799906731907612
230	0xc0694a9711a9da95	-202.3309410397966
231	0xbfc0195a6c7369f0	-0.1257737187905401
232	0x3fc35e02ca512332	0.15130648497349736
233	0x40695b8b89327173	202.86078319408588
234	0x406964a74c52a9f9	203.14542213578514
235	0x40695ed11f58c478	202.96302764260668
236	0x3fa7c814210ee340	0.046448353801173514
237	0x40695da1b5e4dbcd	202.9259900541205
238	0xc0695809117bcdcf	-202.751106969647
239	0x40695e31326757d7	202.94350547966198
240	0x40695a3fbf10b50c	202.82028153670433
241	0xc06950ab413f1647	-202.52090513536152
242	0x40695e6e081b8e36	202.9509316003984
243	0xc06956f82aded9be	-202.71779387975215
244	0xc0695bc621b5eb41	-202.8679359963517
245	0xc0694dacaf28f0f8	-202.42732961651177
246	0x406959e5d3666936	202.8093049049582
247	0x40695ba9c8d94f85	202.86447565501672
248	0xc069544d16ccc56a	-202.63441028589597
249	0x406959807da54c6f	202.79693491253735
250	0x40695f2674da83d6	202.97344439200123
251	0xc0695db32403c3fd	-202.92811775908913
252	0x40694f88f0709a2b	202.48546621315595
253	0xbf8b9133f1b6edd0	-0.01346054631618801
254	0x40695a57d5972924	202.82322196506095
255	0x3fc1609dfe4ff27c	0.13576102178184957

encoder.2.bias f8 [30]
0	0xc069b06bfd50ef24	-205.51318231399011
1	0xc06681cb70635ffa	-180.0560838642994
2	0xc067581c6ff1af13	-186.75347134784587
3	0x40696ae0207922d6	203.3398592344226
4	0xc06689fd841d03fc	-180.31219678561308
5	0x40698609601e9c75	204.18864446619742
6	0xc0676278e6969217	-187.0772583905061
7	0x4069b57708236a62	205.67078024785138
8	0x4067c85e89177fed	190.2615399798373
9	0x4066daf1451c87ea	182.84195190021939
10	0x406969d051cfd32f	203.30667963591392
11	0xc066a4a328687e23	-181.1449167290567
12	0x4068ec56410e1038	199.38552906748532
13	0xc069163481a0f0f6	-200.69390946801985
14	0x40693e44a0548ae2	201.945877232668
15	0x4069ba56ee0329dd	205.82311154001118
16	0xc066f6e81f3d32dd	-183.71583520844334
17	0xc06745d68773957b	-186.18243763518316
18	0xc066e844f69c4182	-183.2584183742402
19	0x4069a1038e012cb2	205.0316839240018
20	0x40668bcf91eb45f8	180.36908813430614
21	0xc066eb18d6e60494	-183.34678215909355
22	0xc0670bf62a2b6c44	-184.37379940491712
23	0xc069618d13c8f4e5	-203.04847134827938
24	0x4068eaee5a93017a	199.34159592353882
25	0xc069912e8acb925f	-204.5369314170848
26	0xc069b8facee4f62f	-205.7806162330539
27	0x4066f280e86a1df8	183.57823582387914
28	0xc066df1e419eb978	-182.97244339943768
29	0xc066ece4550878b9	-183.40287257818798

decoder.0.weight f8 [40, 30]
0	0x4069630c09b8f73a	203.09521947980994
1	0xc069594c55e352f1	-202.79056829833237
2	0x406962543537fe03	203.07277928291305
3	0xc06965bb6e324553	-203.17912969416156
4	0xc06958197a7d4488	-202.75311016527507
5	0xc0695c7d662ff967	-202.8903075158116
6	0x406964784384494a	203.139680631992
7	0xc06960fde8233e97	-203.03099448093118
8	0xc06963add2e11ff9	-203.1149687191935
9	0x40695fa37e6c39bb	202.98870774400515
10	0xc06966cc7cd0f0de	-203.21246186074035
11	0xc0695b4228624a3f	-202.85182589719076
12	0x40695b3343b43eef	202.85000786976113
13	0xc06958ad7f804c45	-202.7711789613551
14	0xc06967bbdd0cf5e5	-203.24168255359032
15	0xc0695fcde58cb6a6	-202.993883871871
16	0x40695eede648b190	202.96654047201127
17	0xc0695b342486bdf9	-202.85011507336438
18	0xc06959d578269927	-202.80730826891633
19	0xc069620bbf4f4fa1	-203.06393399706306
20	0xc0695f15cb27fc44	-202.97141034898425
21	0x4069625cfa904c2b	203.07384994681465
22	0xc0695e5599d522c8	-202.9479493296442
23	0x40694e0119c21b4f	202.4376343527933
24	0xc0695c18c61160fb	-202.87802413362792
25	0x40695bebb05386b1	202.8725206023569
26	0x406963d73dfe2669	203.1200246776455
27	0xc0695ed19370a742	-202.96308300020797
28	0x40695cc952e4130d	202.89957565828118
29	0x4069600646bc96e7	203.00076615175132
30	0x406961c2a506ad92	203.05501033119486
31	0xc0696409fb506839	-203.12621846870914
32	0x406963fc629cd661	203.12455874092396
33	0x40695b019be5328c	202.84394640698554
34	0xc0695fe145b859d4	-202.9962490654567
35	0xc0695c399ae1bff2	-202.8820318612266
36	0x406959f74751b8f9	202.81143537484584
37	0x40695ec1fb72d88c	202.96117947035634
38	0xc0695afa0412f951	-202.84301952081526
39	0xc0695a73b6aceae6	-202.82662519238437
40	0xc0695c3d8426af25	-202.88250930362224
41	0xc0695b7e780587f4	-202.8591880901364
42	0xc0695c21c186789e	-202.8791206003561
43	0xc0695a1f50a134dd	-202.81632262693066
44	0xc06965909bf7f54d	-203.17390249661767
45	0x40695c2961cb99c2	202.88005151525255
46	0x40695db089013639	202.92779970394784
47	0xc0696140019f03ce	-203.03906327302542
48	0xc0696357d0bc7f03	-203.10446965041783
49	0xc06963489e7ed47f	-203.1026146390104
50	0xc0695d99112f0d40	-202.92493495168492
51	0x40696222b3659823	203.06673593371042
52	0xc0695f082eea7488	-202.96974893371612
53	0x40695e25bb53d56f	202.94210592626357
54	0xc0695ba3edacb65b	-202.86376079304577
55	0x40695bdee4bb9f1d	202.87095867771941
56	0x406964f9df2976dc	203.15550191973205
57	0xc0695e075f462776	-202.9383999223898
58	0x40695a8ca28521f3	202.82966733934845
59	0x40695ec138dcd883	202.96108668455062
60	0x40695c7f41dbb63a	202.89053433334794
61	0x40695ac9b5899eea	202.83712269667677
62	0xc06964691b2a7547	-203.13783033650017
63	0xc06957cd2bd9423c	-202.74379532273622
64	0x406955a27957e4fd	202.67608325163738
65	0xc069669a8af41eb1	-203.20636508636156
66	0x4069644dd0a52102	203.13449890376802
67	0xc0695e3d64ccaabe	-202.94499435400024
68	0xc0695c38fd09f4b9	-202.88195659584542
69	0x40695b9dc1b2612d	202.86300740089192
70	0xc0695b32b34d7840	-202.84993901377493
71	0x406958f67a2bd691	202.78008755266322
72	0xc069628e845f3abe	-203.07989710425858
73	0x40694b6cc5a6129a	202.3570278400046
74	0xc069551835da261a	-202.65920536620325
75	0xc0695c72ef5237b2	-202.88903013284795
76	0x40695fae406261a1	202.9900209352027
77	0xc06964ef2738b8da	-203.15419350698977
78	0x40695633959781cc	202.6937969168779
79	0xc06965b7c7661d60	-203.17868394798552
80	0xc0695b0304f587e0	-202.84411857562282
81	0x4069649f85afabf0	203.14447292624345
82	0x40695aff61b665c9	202.84367452263385
83	0x406960387932c00b	203.0068937293257
84	0xc069618d72b9dbe3	-203.04851661968777
85	0x40696a44b264d246	203.32088584605862
86	0x40696803ff59c168	203.25048797159548
87	0xc06966f193d0d15a	-203.21698942932818
88	0x40696213ee80436e	203.06493306209035
89	0x4069564dab02b95d	202.69698095829054
90	0x40696353e985bf3e	203.10399318811864
91	0xc0695c17c1e0a80b	-202.87790006521422
92	0x406957273c6fc46b	202.72353956059973
93	0xc0695e83af411fa6	-202.9535747787424
94	0xc0695c10736482b4	-202.8770081484887
95	0xc0695c3d452fbbb8	-202.88247927973657
96	0xc0695ea9d15eb883	-202.9582297182097
97	0xc0695d5c596a5072	-202.91752310528278
98	0xc0695a6d997cdcd8	-202.82587885272255
99	0xc068b09e125acb09	-197.5192958615592
100	0xc0695d66a4202463	-202.91877943303834
101	0xc0695da2c6b61a97	-202.9261201435772
102	0x40695f783211557d	202.9834223116449
103	0x4069597822347095	202.79591474764007
104	0xc068df277bf23460	-198.97356984429916
105	0xc0695fef3df56333	-202.99795434882398
106	0xc069597bde527387	-202.7963706598641
107	0x406952cecf332f68	202.58774528500658
108	0x40695cf5a74b07e0	202.9049869981236
109	0xc06960e34f6d8b0b	-203.027747835113
110	0x40695a87a7514023	202.82905927533383
111	0xc06958867c89774f	-202.7664168057331
112	0xc0695fc0f406acfe	-202.99230386070116
113	0x40695a8ea06e6bcf	202.8299104839957
114	0x40696291e41e4c35	203.0803089706184
115	0x40695ce44bc687b1	202.9028681638279
116	0x406960a8055415ba	203.02051035330607
117	0xc0695f9d58936e7e	-202.9879572753452
118	0xc0695989f56bc642	-202.7980906586618
119	0xc0695a289650e052	-202.8174544887175
120	0x40695afbe6fcdbfc	202.84324979197106
121	0x406940500d29d67c	202.0097719018121
122	0xc0695b146c3c4ee4	-202.8462430169958
123	0xc0695b562bfea5e1	-202.8542690251916
124	0x406955f43e019d10	202.68606472315923
125	0xc0695fe35f8c9185	-202.99650552229664
126	0x40695f862aaae8cd	202.98512776737917
127	0xc0695ba62fb58f72	-202.8640364214039
128	0xc0695c95367664c1	-202.89321444629425
129	0x40695b7f5352f215	202.8592926616699
130	0xc0695e66e16a9366	-202.95005865874845
131	0x40695330b0574cf7	202.59969346094996
132	0xc0695bd910ab72ae	-202.87024720655376
133	0x40695519f299d540	202.6594174389411
134	0xc06955eefcdf0969	-202.6854233127772
135	0xc0695b39b799d6b8	-202.85079555555944
136	0x40695bb8f39e8f04	202.86632710426795
137	0xc0695c04546503ce	-202.87552852372613
138	0x406954e6aa5571d9	202.65315739334508
139	0xc0695e66b558e2c1	-202.95003764496326
140	0xc06956e806a45242	-202.71582347959526
141	0x40695f6a6bd672c9	202.98174087414216
142	0x406951c379722b2e	202.55511162088936
143	0x40695b5706e6babd	202.85437340797753
144	0xc069619de5944395	-203.05052451093493
145	0x4069696ef73cc377	203.29479562633398
146	0x40695eae9118758e	202.95880942132175
147	0xc06953a0586ac0ce	-202.61332341051315
148	0x40695fce98975b6a	202.9939692455476
149	0x406957a45e835e4e	202.73881459863554
150	0x40695ad90fb43702	202.83899674604623
151	0xc0695b5e7786bbbd	-202.85528160395725
152	0x40695c281fa40a68	202.87989790000142
153	0xc06960d45ecdd447	-203.02592411232965
154	0xc0695a8976f196bc	-202.8292803495914
155	0xc0695ce10bae8e09	-202.90247139065494
156	0xc0695f59b85d0337	-202.979702169099
157	0xc0695cb28aa9b983	-202.89679463528964
158	0xc0695cb44f29b3f8	-202.8970104040634
159	0xc0695b04a0c769ef	-202.84431494663247
160	0xc069585910c388ba	-202.76087225141765
161	0x40695e7cf5ed1a4d	202.95275398549202
162	0xc06961d15aaf8df3	-203.05680593765246
163	0x4069577c0aee6607	202.73389193117347
164	0xc0696063fd90ed6b	-203.01220587068687
165	0xc0695b9c6afde011	-202.8628439863683
166	0x4069634e70cd6d91	203.10332527277617
167	0x40695f50bea66754	202.97860653401096
168	0x40695ffca21f63f8	202.999589024839
169	0xc069638807d162fa	-203.1103552903731
170	0x406959e37de36a50	202.80901998917625
171	0x40696576d614b4c7	203.1707563785951
172	0xc069620e27385064	-203.06422768591722
173	0x4069589248347264	202.76785669559024
174	0x406957f882470e3a	202.74908555868188
175	0x40695976a6bd4759	202.79573380440232
176	0x40695b684a3db793	202.85648071340674
177	0xc0695e68c19352b6	-202.95028761648217
178	0xc0695f37a65ce52c	-202.97554319518656
179	0x406963a28a702959	203.11359140306993
180	0x406966f86c4151c0	203.21782505757983
181	0xc06961bf14cfc22b	-203.05457535341097
182	0x40695b82606768e7	202.8596651096079
183	0x406953f3b58a65c2	202.62349965124855
184	0xc069636604293b1b	-203.10620315602213
185	0xc0695e542efed4b6	-202.94777631541882
186	0x4069564af4551a23	202.6966497099066
187	0x4069569e0fd57894	202.7067946595531
188	0xc0695c2ab9b36b62	-202.88021550219406
189	0xc069597ff7149e0e	-202.79687074686848
190	0xc0695daa7a8b3729	-202.92706038656732
191	0xc069645ad1a705b4	-203.1360862981943
192	0x40694ad43b86ca77	202.3384072907099
193	0xc0695ba461c85214	-202.86381615758057
194	0xc06961ba6f05f906	-203.05400801817467
195	0x40695d98c8c3e337	202.92490041980065
196	0x40695e49c2661c27	202.94650382941583
197	0xc0695e55553a611f	-202.94791661646101
198	0xc0695c065914f6b6	-202.87577489943004
199	0xc0695ca9d72f103c	-202.89573249046396
200	0xc0695ef040a015ac	-202.96682769075903
201	0x40696000d44dd1ca	203.00010123442763
202	0xc069586d0934e3ba	-202.7633100541114
203	0x40696093a826184f	203.01802451553746
204	0xc06959fd535d8091	-202.81217354070807
205	0x40695acf3c4a6147	202.83779730346052
206	0x40696363f113d6e7	203.1059499156465
207	0xc0695ff216ca11ed	-202.99830188242723
208	0x4069609ec65b43b1	203.01938169312555
209	0x40695ef8c9899812	202.96786953805764
210	0x40695e227e6fa0f6	202.9417106800317
211	0xc06959475e9cb6c4	-202.7899621067828
212	0x4069625a74141371	203.0735416786297
213	0xc0695f6d4816780f	-202.98209003818963
214	0xc069614df274f949	-203.0407650265354
215	0xc069634cc0ba3a79	-203.10311924336182
216	0xc069593080b03717	-202.78717073838263
217	0xc069611cc73195d0	-203.03476295170412
218	0xc0695bd06bb0de48	-202.86919197601878
219	0xc0695c993ce74504	-202.89370579881518
220	0xc0696320ccc67e7e	-203.09775389450436
221	0xc0694a56b3d6d5d4	-202.32308380088818
222	0x40695e3ea4ce5a5e	202.94514694503135
223	0x40695e6990029c43	202.95038605222553
224	0xc06963eeef07c6d1	-203.1229167129409
225	0xc0695c0ac584c3a5	-202.87631488733783
226	0x40695c0f0361b2e0	202.87683266717704
227	0x406955fad74a3cb6	202.68687023639148
228	0x406958affa591b8a	202.77148167995284
229	0xc0695e35668091d1	-202.94401860343217
230	0x40695d35a4a6cabd	202.91279823853066
231	0x406952023488e6f9	202.5627691911575
232	0xc0695ce8a17fd62c	-202.9033973213967
233	0x40695922f00e2ab8	202.78551485793082
234	0x40695d3a2d313b52	202.91335162749834
235	0x4069643482bc6ce1	203.13140999605005
236	0x406963c3b5c0b37a	203.11764037739687
237	0xc0696051b8e920c8	-203.00997586758444
238	0xc06958e7f75b390c	-202.77831619088136
239	0x4069577810716d42	202.7334062781684
240	0x40696212b8164f30	203.06478504521647
241	0x40695d912c9cd80c	202.92397146829205
242	0x4069601fa4fd8098	203.0038628531663
243	0xc0695bdbdb893b15	-202.8705880813874
244	0x406964147e43a67b	203.12750161374046
245	0xc069641d2dbc4bf4	-203.12856184746454
246	0x40695a62473c95a0	202.8244968589106
247	0xc0695cc88c10fe0c	-202.8994808513529
248	0xc0696262476eea5c	-203.0744969526594
249	0x40696316872733fb	203.09649999291273
250	0xc0695ac764159588	-202.83683971610685
251	0x406961571cb7e359	203.04188381114616
252	0xc0695f75096eca6f	-202.9830367244608
253	0x4069636682be4c5d	203.10626351516376
254	0xc0695cbfeb88b700	-202.89842774107092
255	0xc0695f9d8cb7d0cb	-202.98798213864788

decoder.0.bias f8 [40]
0	0xc06963513dcfb8c0	-203.10366716929093
1	0xc06961ffbcc78007	-203.06246794667115
2	0xc0695dd77767ab14	-202.93255205390653
3	0xc0695a84a5e59b6b	-202.82869238705766
4	0xc069609f2ba00415	-203.01942998173823
5	0xc069600e54a96bac	-203.00174935426674
6	0xc0695fec95b4de3a	-202.9976299793796
7	0xc069596daed47c68	-202.79463902951397
8	0xc06962ab0e80e2e3	-203.0833809392271
9	0xc06959cc1e18a72c	-202.80616669478457
10	0xc0695dfe41aef5e7	-202.9372871796797
11	0x3f8f33865a35ba20	0.015234994533526225
12	0xc0695b835d6f1d73	-202.8597857637611
13	0xc0695ef2653116ac	-202.96708926761255
14	0xc069835d350aae87	-204.1051278313282
15	0xc0696d87b392d3c7	-203.4228151195259
16	0xc0695d22d43837c8	-202.91050158481653
17	0xc06979684f6b4d71	-203.793983182502
18	0xc0695c72637254f5	-202.88896343546335
19	0xc069654efd14dd51	-203.16589216303922
20	0xc069592a27d3a74b	-202.7863959440095
21	0xc06961e4bc0486ec	-203.059171685068
22	0xc0695cbda5e10005	-202.8981503862889
23	0xc0695c3755fc086c	-202.8817548677938
24	0xc06958d6bc088a05	-202.77621270816613
25	0x3f79cdb08486b420	0.006299676439465635
26	0xc0695c2122b878fc	-202.87904487638286
27	0xc0695ab750136da9	-202.8348770503483
28	0xc0695cd30e2c0dcd	-202.90076359371452
29	0xc06972b084a13536	-203.5840476177779
30	0xc06957329adfcad1	-202.72492736539292
31	0xc0695a83d8bac605	-202.82859455565645
32	0xc0695ce305d212f0	-202.90271273641656
33	0xc06960872f7f3945	-203.01650214050656
34	0xc0695b510cb0c24e	-202.8536437465977
35	0xbfbbfdc9460f9e8d	-0.10934122047876312
36	0xc0695b045bfe9e37	-202.84428214769443
37	0xc0696654fae69e92	-203.1978735451017
38	0xc0695b567d6b3a9a	-202.8543078512492
39	0xc069883978312089	-204.25701531977782

decoder.2.weight f8 [50, 40]
0	0xc0692d7c5d401c36	-201.42143118402026
1	0x4069641d7fc9d776	203.12860097334095
2	0xc0695b8212fb4ac5	-202.8596281917618
3	0xc0693b557cb7a54c	-201.85418544643687
4	0xc0695301f6e4cec7	-202.59398979844102
5	0x406961889c3f7f49	203.04792606736945
6	0x40695f485760287a	202.9775807264412
7	0x40695c9175a9be4f	202.89275630143172
8	0x40695e315fd8ca81	202.9435271486473
9	0x40695315a6acb374	202.59639295321142
10	0xc06958a0c4439782	-202.7696248359826
11	0xbfc251f1138317e8	-0.14312566235292867
12	0x40694b94becceef5	202.3619073870283
13	0x40695e26ea2f99ab	202.94225034043242
14	0x40697950193f251f	203.7910276635457
15	0x406960da20fff7b2	203.0266270636908
16	0x40695d4b842a5aeb	202.915468294835
17	0xc069606cfbec30cc	-203.013303719816
18	0xc069580594669a1f	-202.7506811145731
19	0xc068e0bf1d542a51	-199.02332941473517
20	0xc069403a72b238f1	-202.00713476952617
21	0x406958d220f1300b	202.7756504736611
22	0xc06954ea810dc33d	-202.65362599075334
23	0x406958c289360629	202.77374706794333
24	0x40695c2e0ce6e0cd	202.88062138646492
25	0x3fbb4ade4cca06c4	0.10661115050063602
26	0x40695ec2c144c8dd	202.96127379831788
27	0x40695241560bc776	202.57047560024847
28	0x406960aff0835155	203.02147699020375
29	0xc069632758433876	-203.09855282906545
30	0xc06956110871c269	-202.6895792219032
31	0xc0695e03ae43dc0e	-202.93794930700136
32	0x40695cafad7b2e25	202.89644502695697
33	0xc06919d747eff653	-200.80752941959017
34	0xc06959303cf81f44	-202.78713844739298
35	0x3fbf03b6a5207290	0.12115041285910366
36	0x406959beb5716cdf	202.80452987817168
37	0x40695c49c02acc67	202.8840027652652
38	0x40695e004c4720c5	202.93753637211026
39	0x40695d698d5d9530	202.9191347911633
40	0xc06963214a531c9b	-203.0978137610699
41	0x40695ac809c33a4d	202.83691871767442
42	0x40695f6e99f064a5	202.98225113822733
43	0x406958c61671cd1b	202.77418062426372
44	0x40693fe539d35a35	201.996731674955
45	0x40695a291bd314b8	202.81751815058465
46	0x40695c7ed16c306d	202.89048071985908
47	0x4069550acbc48215	202.65756786709304
48	0x40695f9a78fc74c5	202.98760651882017
49	0x40695bb2c9dd8019	202.8655747724704
50	0xc069322871039f57	-201.56743670184616
51	0x3f8e315c21864570	0.014742584012114007
52	0x4069594f1998e46b	202.79090576040048
53	0x4069620e8612517a	203.06427291467463
54	0x40690dd89975b054	200.43269036279764
55	0xc06957513c984774	-202.72866658918394
56	0xc069531f5eaf7fc5	-202.59757932927292
57	0xc069592ec96bde5d	-202.78696127956474
58	0x40693a862574edcf	201.82887528264698
59	0x40695c1f20bc9d7e	202.87879978979976
60	0x40695e7e97ea59b4	202.95295329829753
61	0x4069591b357c68bd	202.78457140253695
62	0x406957c5cf36b9fe	202.74289665879036
63	0x406955c07aa74443	202.6797459856917
64	0xc0693f8e7dbbed29	-201.98614393905999
65	0x3fa6744383640924	0.04385577181712311
66	0x40695aadff538c09	202.83373991315628
67	0x406959960a7e473f	202.79956555045825
68	0x40695cebdaee0ed5	202.90379091735545
69	0x40695adf88cabbd7	202.83978690716205
70	0xc069552c65c30c45	-202.66166961760806
71	0x40695a0dd025c9d7	202.81418616657785
72	0x40695f7c83e8f810	202.9839496183563
73	0xc068d6cdf6483425	-198.71264185049327
74	0x4069593db1d69b96	202.7887810889776
75	0x3fbb23d7602bd70c	0.10601564500742827
76	0x40695cc78826f76e	202.89935691462182
77	0x4069582cf00bdaf0	202.75548555675005
78	0x40695dbf706e3da2	202.92961904078862
79	0xc06960bfbcb3e573	-203.0234054101562
80	0x40695e8521a39268	202.95375139186513
81	0x40695f17be531332	202.97164837098677
82	0x406955ef6ec91ccc	202.6854776313761
83	0xc0695b58cf5692cf	-202.8545910540474
84	0x40695e5bc38b8d1c	202.94870164161773
85	0xc0695c8ea2ac9c3d	-202.89241155350638
86	0x40695f956546dc15	202.98698676910195
87	0xc06956946c25dca0	-202.70561797518621
88	0x40695b5f239fa70d	202.85536366636407
89	0xc0695d25368784ec	-202.91079260319327
90	0x40695c2494212df9	202.8794651649512
91	0x3fc0534812a84bc4	0.1275415507412544
92	0x40695fc5a814cc3e	202.99287799894404
93	0x40695cd1d7933e95	202.9006154895657
94	0x40698044aebb10b1	204.00838409935162
95	0xc06961076e286eb8	-203.0321570195863
96	0x40695c6bfbe7a7a5	202.888181641055
97	0x40695d4fbe07b4ad	202.91598416810066
98	0x40695dbc093ebd3a	202.92920362714523
99	0xc06957b3e5c2d1b5	-202.7407101445257
100	0xc0695bc8683a5967	-202.86821376224836
101	0x40696403b39eceb8	203.12545186059083
102	0xc0695f45fcbf724f	-202.9772933711233
103	0x406963837e44e55c	203.1098014207481
104	0x4069151d15d100bc	200.659800441941
105	0xbf83c4ca52548d40	-0.009652691495438348
106	0xc06922487a23ab98	-201.0713473030744
107	0x40695dec5182f04a	202.93509746145202
108	0x40695d9c38c26b99	202.9253200337669
109	0xc0695b386deab8c5	-202.85063834995358
110	0xc069529e45aaf83b	-202.5818203295947
111	0xc0695a521c939c1c	-202.8225233920101
112	0xc06958cede0a1ba4	-202.77525236105168
113	0x40695b4295cd06d4	202.8518780712535
114	0xc0695bfa2d985a95	-202.87428931957825
115	0x3fbbfabcae77d9f4	0.10929469356037896
116	0x40695c262da077e1	202.87966042844258
117	0x40696222e029cb6b	203.06675727999695
118	0x406965661aabb19c	203.1687138894457
119	0x406963b83f2c5528	203.11624106081695
120	0x40695d79434951cc	202.92105259247035
121	0x40695bd881eaa4b7	202.87017913655083
122	0xc069547eb440132f	-202.64046680941235
123	0xc069541932b0df13	-202.62807592911903
124	0xc069500ae8bc1cd5	-202.50133167973277
125	0x40695e4f1cc0ebca	202.9471572654714
126	0xc06957bc5f72b850	-202.74174473196263
127	0x40695a3e58787b73	202.82011054546055
128	0xc0695dd688a9c1e1	-202.9324382129262
129	0x406959143fe31c06	202.7837218700153
130	0xc0695c126df5c127	-202.87724969862867
131	0xbfb687b02ca2c9ed	-0.08800793733352182
132	0xc069577facb36d0e	-202.73433527988567
133	0xc0695993b7d2551c	-202.79928198891218
134	0x406902c329643ebc	200.08632344798195
135	0xc0695abd56c22ac7	-202.8356126587225
136	0x406959e96403b104	202.8097400734042
137	0x40695e1e98282a26	202.94123466343552
138	0xc069614af2d7ac9d	-203.04039899944192
139	0xc069494575b7750a	-202.28972898322564
140	0x4069606c2589cd0d	203.01320149339918
141	0xc0695dfd821775c9	-202.9371958215909
142	0x40693ac6b7c519a9	201.83675755020275
143	0xc0695e3eb48e3ce5	-202.94515445500215
144	0x40695d8b26a7baac	202.92323620566947
145	0xbf87aea7b40d00c0	-0.011563596899236805
146	0x406908f6b30eb0f0	200.28011467809074
147	0xc069586088248406	-202.76178366786934
148	0x406955d73659b680	202.68252103349732
149	0xc0695ce862129ab4	-202.90336707719473
150	0x40694cd0168439d5	202.40040136170742
151	0xc0695886113ebc1c	-202.76636564495936
152	0x406960b73e7cec57	203.0223686637789
153	0xc0695c2d6a4878cc	-202.88054384379063
154	0xc0695d7ffb77d166	-202.92187283899256
155	0xbfc3cb4484ae2b77	-0.15464073637516737
156	0x406961fd9dea5b74	203.0622090890207
157	0xc0694f941736be54	-202.4868274754723
158	0xc06958d8cbf6682c	-202.77646444441177
159	0x40695b036da42108	202.84416849190188
160	0xc069574d6086a2a2	-202.72819544120745
161	0xc0695ffc2f9bdcb0	-202.99953442041215
162	0x40695ac4d70abe8b	202.83652832125185
163	0x40695d54878534bf	202.91656852738194
164	0x406958dabf6d4279	202.7767026075342
165	0x40695f29681c59d3	202.97380452668457
166	0xc069559f1c50c648	-202.67567268158223
167	0x40695cefd8579b32	202.904277964693
168	0xc0695f5518b23308	-202.97913775257643
169	0x40695d8a5abc728d	202.92313896948
170	0x40695aae83277915	202.83380277356687
171	0xbfb3a83a9a90a525	-0.07678571961937004
172	0x40695228fb35217c	202.56750259759053
173	0xc0695cc03335860f	-202.89846191839067
174	0x406910866221d987	200.5164042149665
175	0xc0695c22329bf956	-202.87917452300707
176	0x40694d6b08af575f	202.41931566473338
177	0x406961c27854ffd7	203.05498901940766
178	0x40695d263b4ac6e1	202.9109169445501
179	0xc06938343bacc73c	-201.75637611146692
180	0x40695c6d3d79453f	202.88833497701305
181	0xc06956aa0554d26a	-202.70825449530395
182	0x406960cc56854c65	203.02494360003325
183	0xc0695a2196dd5878	-202.8166002581745
184	0x406959b81512de1d	202.80372098622402
185	0x3fc25095c3ab57c2	0.14308425954976484
186	0xc0692e8257e7df88	-201.4534110573552
187	0x40693bd8889635e9	201.87018231714254
188	0x40695c4801cda225	202.88378992235917
189	0x40695c62e2dde0d2	202.88707106910311
190	0xc06950cac9281444	-202.52475412204706
191	0x406959eae14b5956	202.809921881834
192	0x40695fb48849117f	202.9907876422039
193	0xc06933075fe4836e	-201.5946502173569
194	0x406960902766c9d0	203.01759691310735
195	0xbfb4eb8f18499207	-0.08171934454873774
196	0x40695a43c53098e2	202.820772738377
197	0xc0695b4862fa5b48	-202.85258625886695
198	0xc0695976d3105fbf	-202.79575494001435
199	0xc0695b66ec93d843	-202.85631398082668
200	0x406961859e1ccdda	203.04756074548533
201	0xc0695abaeb0e7ed6	-202.83531716185706
202	0x4069570d7a2168ec	202.7203951504265
203	0xc0695f901d8b84fe	-202.9863422131529
204	0x4069582bd1c47d1f	202.7553490483924
205	0xc0695fe17896f6cd	-202.99627332196397
206	0xc0695ea56936b61a	-202.9576917713719
207	0xc0695a52994f892d	-202.82258286985726
208	0x40695b4cdd17708b	202.85313276842166
209	0xc0695d883a592a90	-202.92287938514028
210	0x406953d64db9305e	202.61991010827745
211	0x3f9fec112bb90dc8	0.031173961919433585
212	0xc06948ec49df1a9a	-202.27884381842597
213	0xc0695ba6f6593570	-202.86413113998015
214	0xc06913c10ea70aaa	-200.61731655717205
215	0x406956b699c31a39	202.7097901163668
216	0x40695b49a5865fed	202.852740061236
217	0x4069588857e18ec6	202.76664346746674
218	0x4069520414a7cbe2	202.56299813053835
219	0xc069556f6b40e5e1	-202.6698509471453
220	0xc0695aa95a453e98	-202.83317292713468
221	0xc0695e7bea180c21	-202.95262627312425
222	0xc069584482cbfa9a	-202.7583631500209
223	0x40695e9b0155ac22	202.95642153485193
224	0xc0694b229023e241	-202.34796912201458
225	0x3fc43b853c1e13a6	0.15806641993927179
226	0xc0694a8a3b1b212f	-202.3293738870502
227	0xc06953f3dd9d3868	-202.62351875979516
228	0xc0696112e2a1d50c	-203.03355533225874
229	0xc06957330c7bf4ee	-202.72498153887085
230	0x4069559382a9b40c	202.6742566408651
231	0xc0695a27b9da6256	-202.8173493638339
232	0xc06958ab38179489	-202.77090077023993
233	0x4069609d4bba6da9	203.01920114909925
234	0xc0695d7d0f4c8ac3	-202.92151608419053
235	0xbf557d092da06b00	-0.0013115491515295896
236	0xc0695d4cfc0b1b17	-202.91564752740007
237	0x40695a0980a797a0	202.8136599801337
238	0x40696168cb36af39	203.04404221230087
239	0x406960990f012447	203.01868391249647
240	0xc06962329137c397	-203.06867276088153
241	0xc0696210dfa8c71f	-203.06455977405946
242	0x4069579c2913d21a	202.73781255599243
243	0xc0695ddbcdb3496d	-202.93308148400266
244	0x40695a6b7dec5a1e	202.82562156832222
245	0xc0695990ad8622ff	-202.79891086767745
246	0xc0695f9bf6e56110	-202.98778862763038
247	0xc0695d14dc393b07	-202.90879641702506
248	0x40695f8eb01ec329	202.98616796501418
249	0xc06951500b1a2a2b	-202.54102091894433
250	0xc0695e936a10c6c4	-202.9554949119248
251	0xbfaeaa511753c9c6	-0.05989316377408076
252	0xc069589af6f16ceb	-202.76891657975588
253	0xc0695d3d04b08c55	-202.91369852525773
254	0xc06911f2d9c12058	-200.56089484901418
255	0x40696b666bae0c3e	203.35625251764026

decoder.2.bias f8 [50]
0	0x3fa07d1b6fd6e07b	0.03220449199892613
1	0xbfb48a211fe95d78	-0.08023268727389687
2	0xbfc82cfbea0d0c6b	-0.18887280395765357
3	0xbfb6c87e86e5084c	-0.08899679940535171
4	0xbfacd0735f62c50c	-0.056277852433945424
5	0xbfc90d9f3ab4b510	-0.19572821012972286
6	0x3fde04724aaba3de	0.46902138988531117
7	0x3fddf4d1aa9d5841	0.46806756650528675
8	0x3fb54d398f71fd79	0.08320960762102016
9	0xbfa0efea793b3980	-0.033080413149593646
10	0xbf8eff9023dfa4d0	-0.015135885329032567
11	0x3fd179970bf0a50c	0.273046266231703
12	0xbfd0ceb5a817998a	-0.26261655249836535
13	0xbfd0893b5c687d01	-0.25837596916422007
14	0xbfb83af393ff19b8	-0.09464952815242256
15	0xbfcf257dd7785b36	-0.24333165188792244
16	0xbfc06956b633c480	-0.12821468254654533
17	0xbf92cadd881d1c8e	-0.018351994927141173
18	0x3f7a97218718daa9	0.006491785972278543
19	0x3fdbb0f43bb274e1	0.43267541723055386
20	0xbf911aac7d65db5f	-0.016703314927748788
21	0x3fc9908feea29e48	0.19972418930159308
22	0x3fd790e4883161d6	0.3682185487755566
23	0xbfd3d47206d0e7bb	-0.3098416391909457
24	0xbfccdb1687bdcfb2	-0.22543603542328366
25	0x3fd6c0ecd42decdc	0.3555252143921288
26	0xbfce4d72b3269fc1	-0.23673852679826093
27	0x3fd57d23a3ab4b7c	0.3357628916102653
28	0x3fd0d8aadd2a4a55	0.2632243308845877
29	0xbfd53090ed526c36	-0.33108924079869284
30	0xbfc0bf659872a7de	-0.13084096854919286
31	0xbfc159fc509d263e	-0.13555864273284784
32	0xbfd363825792fba6	-0.30294855644381824
33	0xbfcf74c22259b315	-0.24575068166031913
34	0x3fd8666b2f1ee46f	0.3812511406100105
35	0x3fd7b1aebaa0358c	0.3702198812978501
36	0x3fcb724ebb879cd3	0.21442588955617356
37	0x3f64d71f5bfb1fba	0.0025439846502628123
38	0x3f99616bc64fb46a	0.024785694102252988
39	0x3fd874d5c255e3a2	0.38213104227139116
40	0x3fdbc4755b40a13d	0.43386587058423115
41	0x3fdbcfc0d6f97ab2	0.4345552539215688
42	0x3fd82d2eb21f2cd6	0.37775771517472145
43	0x3fd41aa9144224eb	0.3141272256694509
44	0xbfd2173b56339cdc	-0.28266795557142443
45	0x3fc2572afa2a6170	0.14328515257944785
46	0xbfc9fd3c51564c51	-0.20304063769853767
47	0xbfd3c5a7c5e6a173	-0.3089389259935366
48	0x3fae4a43b214390c	0.05916034268203604
49	0xbfca202bde96f905	-0.20410679215087427
