autoencoder_model/ae/autoencoder_model_edges.pt (torch, 63215 bytes, 8 tensors)

encoder.0.weight f8 [40, 62]
-37.92053500186556 39.40079588358319 -0.008532843789223865 -0.021747631875368642 -0.027825865623939752 -0.05850531121864437 -0.07650386143519457 -0.06751001955387978
-0.058572530029516304 0.10415194889144228 0.07868447317690666 -0.11734367105099795 0.05895059476200956 0.02889092562634679 -0.05751712592421704 -0.043232014866741
-0.04716184352364039 -0.07676137702741762 0.06322516366858288 0.037888501187407414 -0.054232240776286356 -0.04283452986103392 -0.03028355158608413 -0.037702785128541666
-0.10898335577681532 -0.12130261869277244 -0.007396414194995524 -0.04588934870670941 0.09661610648212116 -0.008626488455140302 0.12011422374033406 -0.05507627549724242
0.07578821146046713 -0.01664852223020928 -0.04407869288697651 0.12255918438401917 -0.10509624248182096 -0.09426107837846709 0.0010844366543387163 -0.056109876453720134
-0.0027229475933146785 -0.0203348148247553 0.12283672986607064 -0.08733500383055931 0.07405260039628711 -0.07131810222934473 0.05783170985649788 0.07999742938294369
-0.0861131965645489 -0.10767890333533922 -0.08647081603146037 0.008306272684965393 -0.11312436560617656 0.08961271960655304 0.005238581817769594 -0.11997154294884073
0.12532993513563834 0.0718440856344986 0.032008024806250646 0.11240724058276735 -0.07773421806630404 0.08367222634616767 -0.09242940391626447 0.061661984240282075
0.123478268004867 -0.042339316122988455 0.12089114440480364 -0.08999056457460847 0.08500188078608578 -0.0020127320817566186 -0.0012164154396954452 0.07565138454029666
0.10247376612332731 -0.026486780449049632 -0.01533385752936238 -0.09430602280614975 0.002852781706799201 -0.019254211003736574 0.054618449282291065 0.054408759832007186
0.06533182708460755 0.046008936278114615 -0.007705504963443133 0.002209190116869736 0.09728778284289236 0.09129792676397092 0.11121639903879516 0.10219135444295055
0.0940737951922892 0.040292445739180394 -0.007862515895850436 -0.10086384107664975 0.0770422993632153 0.006631630049218379 0.07000252721331338 -0.06553569929189762
0.006742965685969049 0.0573611653880616 0.12009903667714561 0.12083424589223402 -0.11306915960626629 -0.07105132445644433 0.12293265286284549 -0.05227821315153769
-0.11856459380574097 -0.031158889533010853 0.055135867745129935 -0.052357290870912815 0.027062804441399746 -0.061323614918653 -0.11460635113154728 0.00789435291898627
0.02495700051452862 0.12305134972361764 -0.04225356617809785 -0.03630769181629728 0.05639178181197471 0.11219695945566335 0.09609187300365901 0.11929829155706823
-0.07708358143483024 -0.030508287379254137 0.0577756105692622 -0.10947606126509661 -40.73718215251437 -40.77348360346769 -0.01582302841833777 0.042173046042670914
-0.0747972810483842 0.038886160583995355 0.10235524350591413 -0.049087869154337244 0.07220177241381934 0.1025780803921344 -0.01481609515606444 -0.006241052985353587
-0.11403469574690822 0.028357214741275616 -0.04168207590594314 0.09164301715327552 -0.0899448869442738 0.0072064057284866034 -0.027827475843540908 0.005154919312258172
0.029675986481128985 0.12421787744405355 0.0817699152897523 0.05274140672040145 -0.011078810382715576 -0.07808058824088047 0.06757629419416053 0.03240797806848811
0.019794506924948246 0.0817739985119463 0.030005124617280166 0.0037928169542800205 0.0672653430401772 0.05018416470729875 0.09130294867492378 -0.12273082572060287
-0.07730450939397368 -0.09881516740022916 -0.10256705935640395 0.036783693150695934 0.08279711937127562 0.052018079075615065 -0.022810085562614574 -0.08424845344186993
0.09172419476569135 -0.06443811203271392 -0.049173595130989914 0.056024175471353105 0.0502729771624445 0.044405451560605436 0.03011507827692969 -0.08439035319742656
0.07312596569064167 0.04626061039900525 -0.11620986159976854 -0.031542253317925276 -0.013602198665059503 -0.11123531947856019 -0.02001255716046116 -0.03184526546764521
-0.09510137302252292 0.01508794468404226 -40.5774700745457 -40.67204292090843 0.11692538691837531 -0.03404492613552666 0.005875362465446565 -0.008001635798350101
-0.08614565670168695 0.013498404973788208 -0.0873251114509993 -0.11609000552660508 0.04471692307724076 -0.08689406472706632 -0.06037225236115508 -0.0017685447660787945
-0.1088363634451008 0.06696423826066097 -0.0018857388210822834 0.03464986344964413 -0.033065507199243754 0.06510165995269526 -0.09426143411087065 -0.11209618165253643
0.045444028776062906 -0.1087786151560698 -0.11091629225017101 -0.07136297940678948 0.12445119952921124 0.08257795050797975 0.09752907613441633 0.040170194284809224
0.10765441006509999 -0.09102358192111744 0.08525991293519589 0.08805417421319361 0.06902511723886487 -0.02298773093493249 -0.11225955912347885 -0.0077741119375639295
-0.03111656388306014 0.0032038650112199973 0.08372153595656204 0.09022926106993767 -0.036129160032999985 -0.05927322459320741 -0.045684003664532874 0.10627841657471443
0.03688780386377899 0.11259847973771242 0.09543541707485029 -0.09980355662727493 0.06145434880868797 -0.09441397712597398 0.008580762954652432 -0.0969884635823581
-0.004075769019890249 0.11298519572142726 -0.03033872753302351 -0.07880416041466294 -0.11908800681580611 0.020724407269357564 0.022047515852921057 -0.006777198137084106
-0.01280022768290634 -0.08839194494821521 -0.030837735434800007 0.12407600494505655 0.022204519812877938 -0.08630079934355495 -0.08172682174100862 -0.03228443694740757
00000000: feea 4717 d4f5 42c0 3d2e 8e47 4db3 4340
00000010: a0fb 21e8 aa79 81bf 3c3d aede 0245 96bf
00000020: 24d1 593b 627e 9cbf 361b a77c 68f4 adbf
00000030: a5c2 e1ce c195 b3bf 3ee0 222e 5648 b1bf
00000040: 9a6c d7f9 37fd adbf 26ac 4dbe b3a9 ba3f
00000050: 0a70 ff66 aa24 b43f 877e 8e1d 3c0a bebf
00000060: ec47 2ab9 c52e ae3f 0885 dd32 9595 9d3f
00000070: b8dd 9b7d e272 adbf 5055 fcb3 8122 a6bf
00000080: 9030 1bdf 9825 a8bf 42be ed33 a2a6 b3bf
00000090: c8a5 3d3a 862f b03f 541e fd22 1f66 a33f
000000a0: c8bf 0b09 54c4 abbf d80c c951 68ee a5bf
000000b0: ec03 adbe a602 9fbf 44be 308a c74d a3bf
000000c0: 3ba8 de4c 55e6 bbbf b561 343c b00d bfbf
000000d0: b0eb 33d1 b34b 7ebf 6830 dc07 cf7e a7bf
000000e0: 5089 9b49 d5bb b83f e06a 5aae c3aa 81bf
000000f0: 0ec9 bf46 cebf be3f f89f 1724 f532 acbf
00000100: 4221 a531 db66 b33f fc9b 056a 4f0c 91bf
00000110: becb cc80 7b91 a6bf caf8 c0e8 0960 bf3f
00000120: 0354 645c 96e7 babf 58d4 eb78 7e21 b8bf
00000130: 000b c2fd 74c4 513f 52e1 b308 6fba acbf
00000140: c092 955b 6f4e 66bf 00f6 9152 a6d2 94bf
00000150: 60b9 8559 3a72 bf3f bc8f 3f39 965b b6bf
00000160: 6ec4 e278 1cf5 b23f fe14 b034 e741 b2bf
00000170: 50c6 022d 1e9c ad3f 6cbc f626 b67a b43f
00000180: 8bae ffb2 830b b6bf 965f 4b38 d890 bbbf
00000190: bade e98e f322 b6bf f0c7 440c e102 813f
000001a0: 48c6 a8ea b7f5 bcbf 1009 04f4 dbf0 b63f
000001b0: 0019 5b19 0d75 753f 697a 6a7d 74b6 bebf
000001c0: ea05 4fb2 cf0a c03f de10 36be 5f64 b23f
000001d0: 003b 8117 5b63 a03f 8cf7 228e b8c6 bc3f
000001e0: fcf9 5fc4 63e6 b3bf 4884 bd03 8b6b b53f
000001f0: 5c56 0213 74a9 b7bf 78dc 6fdb 2892 af3f
00000200: 14fe d892 459c bf3f 8e9e 2ab4 7fad a5bf
00000210: a83a 98d7 b8f2 be3f b4e8 cb23 9f09 b7bf
00000220: 7421 13ea aec2 b53f 80a7 ef4e 017d 60bf
00000230: 80b0 0922 04ee 53bf e268 7f9e e35d b33f
00000240: c498 3282 b83b ba3f 0452 38bf 591f 9bbf
00000250: 588e e184 5b67 8fbf 98ab c483 7024 b8bf
00000260: 803c 4484 b75e 673f 3c0b 493a 60b7 93bf
00000270: 0cf2 d90a f3f6 ab3f cc53 3008 77db ab3f
00000280: 8460 b72c 96b9 b03f bcc8 46b9 7b8e a73f
00000290: 0010 13bd ce8f 7fbf 40ea aee9 0119 623f
000002a0: 7c4e 9c25 dae7 b83f e4d3 a409 4d5f b73f
000002b0: e487 a68c ad78 bc3f e633 446d 3629 ba3f
000002c0: a0f0 c261 3815 b83f 5886 7321 36a1 a43f
000002d0: 507d 1805 391a 80bf 4ced c572 36d2 b9bf
000002e0: 6a74 2c4c 0bb9 b33f e096 e3a2 c429 7b3f
000002f0: 72be 0485 afeb b13f 70df 2d95 f2c6 b0bf
00000300: 40ae 9611 839e 7b3f 74e9 cd52 715e ad3f
00000310: c837 cf7a cfbe be3f 400e 583e feee be3f
00000320: 40f3 b1b6 19f2 bcbf eebe e06a 6b30 b2bf
00000330: 980c a8ab 8378 bf3f 90ef 8ebf 35c4 aabf
00000340: 54f3 dbcc 3f5a bebf 8888 18ae 1de8 9fbf
00000350: 8494 9ab9 c43a ac3f 74d6 fe27 93ce aabf
00000360: 2030 0e10 5ab6 9b3f 2ea2 1811 cf65 afbf
00000370: 891d 0682 d756 bdbf e08a e11c ea2a 803f
00000380: 188b 10f4 538e 993f 10a6 ca12 4b80 bf3f
00000390: 82a4 bf69 42a2 a5bf e873 e3f9 eb96 a2bf
000003a0: f48b 4a35 62df ac3f 429d 929f f0b8 bc3f
000003b0: 3c4c f61b 7a99 b83f d4ce b434 558a be3f
000003c0: cc36 52e5 bfbb b3bf 3c16 3482 903d 9fbf
000003d0: 0486 cdcb c394 ad3f 6b17 d486 9f06 bcbf
000003e0: 3f1f 1afc 5b5e 44c0 6771 be82 0163 44c0
000003f0: b05e 5276 e933 90bf 704c 0d9b b497 a53f
00000400: 56ba ee23 ea25 b3bf d855 f307 e3e8 a33f
00000410: b498 6e07 f433 ba3f 9ce1 4b91 0b22 a9bf
00000420: e207 3bbb d07b b23f d417 929c 8e42 ba3f
00000430: d0a0 32a1 e657 8ebf f065 6fe7 3790 79bf
00000440: bc9f d7b8 6031 bdbf 807e ad77 ac09 9d3f
00000450: 48da b061 5a57 a5bf 7a80 94b1 ea75 b73f
00000460: 0e3a decb a006 b7bf e014 cfce 7684 7d3f
00000470: 1484 b64a ce7e 9cbf e032 c11d 531d 753f
00000480: 18e6 a6bd 6163 9e3f 1864 3329 becc bf3f
00000490: 5857 f787 dfee b43f 78b0 04f2 eb00 ab3f
000004a0: 20c5 2dc2 7cb0 86bf 2770 f2e4 16fd b3bf
000004b0: c67d 8c15 ae4c b13f 4806 de4b c797 a03f
000004c0: e84a 88df 0245 943f 4e9f 4509 24ef b43f
000004d0: 1045 c6d3 a9b9 9e3f 0038 e818 1d12 6f3f
000004e0: 2a04 8330 4d38 b13f 48cd 6324 bdb1 a93f
000004f0: 6450 964a a15f b73f 465a ae92 496b bfbf
00000500: 6e31 ae73 3aca b3bf 142f 5568 f34b b9bf
00000510: 4628 95b5 d541 babf 1c78 37ee 4fd5 a23f
00000520: 3613 e727 3132 b53f a06b dc18 1da2 aa3f
00000530: 08a4 0aee 865b 97bf 207b 4580 4e91 b5bf
00000540: a644 c5a0 3c7b b73f cbe6 cb1f 047f b0bf
00000550: 3a25 d40d 482d a9bf a4a1 de62 33af ac3f
00000560: d00c 9231 61bd a93f 280f 6fb4 4fbc a63f
00000570: 7879 43b1 7cd6 9e3f adb1 142f 9b9a b5bf
00000580: 9835 211f 62b8 b23f 7871 8381 78af a73f
00000590: 682f 0bf3 edbf bdbf 42a1 e264 4e26 a0bf
000005a0: b86a 5c33 78db 8bbf 1c0e 52fb ea79 bcbf
000005b0: e8d5 0dfa 2b7e 94bf 3094 6ecb 054e a0bf
000005c0: 0cba ef46 9058 b8bf b0c3 daa7 6de6 8e3f
000005d0: d64b 168a ea49 44c0 af67 9f80 0556 44c0
000005e0: 22f6 e278 d2ee bd3f be92 b128 566e a1bf
000005f0: c083 429a c310 783f f81d 8c60 2963 80bf
00000600: 80e7 394a a40d b6bf 50e0 483f 0da5 8b3f
00000610: 7835 cd41 f05a b6bf 1715 2119 13b8 bdbf
00000620: 1495 63f4 22e5 a63f 3a21 387e b03e b6bf
00000630: f23b f4a2 1ce9 aebf 00f2 a27b d0f9 5cbf
00000640: 3dbe 9c2d b3dc bbbf 5ec2 547d 9124 b13f
00000650: 00a1 2ea4 5ce5 5ebf fc77 a77c a0bd a13f
00000660: 54c2 1750 f6ed a0bf f281 699c 80aa b03f
00000670: 5abe c770 8421 b8bf 2841 34da 55b2 bcbf
00000680: 6089 c892 7044 a73f 2978 9952 ead8 bbbf
00000690: 33dd ce97 0265 bcbf 1881 b21e d844 b2bf
000006a0: f009 eda7 08dc bf3f 4e6f cd1c d423 b53f
000006b0: a20a 6860 aaf7 b83f 6856 740d 3091 a43f
000006c0: 6ef1 7f4a 3d8f bb3f 0517 844b 524d b7bf
000006d0: d26a b7f9 97d3 b53f b89e 85e6 b78a b63f
000006e0: cabb 244d a1ab b13f cc93 4c82 188a 97bf
000006f0: b845 19df 0abd bcbf 70bd 6f48 bfd7 7fbf
00000700: f86f f740 05dd 9fbf 8027 35ee fd3e 6a3f
00000710: a681 e74a c66e b53f 6808 70cd 4319 b73f
00000720: 7820 8c71 857f a2bf 1405 5062 0f59 aebf
00000730: d407 61cb e463 a7bf 2485 75f3 0f35 bb3f
00000740: e0b0 6e4e f5e2 a23f e083 0d04 41d3 bc3f
00000750: 3a73 379b 746e b83f d916 bdd3 b98c b9bf
00000760: f41b a9c4 f176 af3f ef95 0ab0 832b b8bf
00000770: a0a3 1e82 ca92 813f 8eee 2c67 3cd4 b8bf
00000780: f0f9 57ea c0b1 70bf a641 8e08 99ec bc3f
00000790: ecf2 398a 1d11 9fbf 0d0c c56b 822c b4bf
000007a0: 78a5 9e36 8d7c bebf 48b2 cd6d c738 953f
000007b0: 1873 2fbe 9f93 963f 0074 b745 68c2 7bbf
000007c0: 4049 3c7a 0137 8abf 774c c8c0 daa0 b6bf
000007d0: d05e b364 ed93 9fbf 0815 75ef 71c3 bf3f
000007e0: 78c4 ad19 c8bc 963f 209a cc26 cf17 b6bf
000007f0: 566a 958a 0cec b4bf 60c0 b7f1 9587 a0bf

encoder.0.bias f8 [40]
-40.23083974694831 -0.10479940020498348 -40.57227940904084 -40.636085611449325 -0.025440777567119252 -40.59794147489268 -40.56351647920051 -0.10266413456262247
-0.048012936850887325 -0.029192607086607578 -0.03514813848816821 -40.62210089986589 -0.055696602417827576 -40.366223550585154 -40.608650295452 -40.5729539944761
-40.58547526496306 -0.014635146656459028 -40.580580744687246 -40.61362129554013 -40.498282434466056 -40.565346641587404 -0.08876091643660196 -40.445355709585165
-0.0941941231722978 -0.05620622202191737 -40.60334182938699 -40.5618096401346 -0.07730597752278956 -0.114717070733187 -0.06309514890001319 -40.583003408114145
-0.09995832768687314 -40.59864113064161 -0.05958855653434407 -40.61873769878039 -40.28446416272149 -0.11117245743766978 -40.571139545284666 -14.526278404963808
00000000: 45e1 2528 8c1d 44c0 7154 852c 22d4 babf
00000010: 9700 a173 4049 44c0 c550 d940 6b51 44c0
00000020: 7cd7 8aae 250d 9abf 04cb a358 894c 44c0
00000030: 2d76 d84e 2148 44c0 d029 6b5c 3248 babf
00000040: 6a73 1ed3 2695 a8bf cc48 e3b2 aae4 9dbf
00000050: 1ed8 a4d2 effe a1bf 3bde 9500 a14f 44c0
00000060: 5e09 c4db 4384 acbf e564 ce69 e02e 44c0
00000070: 63d5 bc40 e84d 44c0 9731 768e 5649 44c0
00000080: 0fd1 7dda f04a 44c0 b8de 1722 08f9 8dbf
00000090: 3d8f 4778 504a 44c0 ac3c 8224 8b4e 44c0
000000a0: fb19 04b8 c73f 44c0 bb42 5c47 5d48 44c0
000000b0: 0519 4211 09b9 b6bf a9e0 776a 0139 44c0
000000c0: 301b 8026 1b1d b8bf 4eea d4da 0fc7 acbf
000000d0: 52c3 184e 3a4d 44c0 527a d760 e947 44c0
000000e0: b0e5 3e15 53ca b3bf 7d8a 1713 195e bdbf
000000f0: 96d2 0ff1 0027 b0bf 45a7 0ddb 9f4a 44c0
00000100: bdc2 6074 de96 b9bf b612 c745 a04c 44c0
00000110: 36cc 0f2b 6482 aebf 3488 02cc 324f 44c0
00000120: ece2 5952 6924 44c0 7f26 e954 cc75 bcbf
00000130: 9839 c219 1b49 44c0 3ad2 f35c 740d 2dc0

encoder.2.weight f8 [30, 40]
40.624390253499406 0.07393431700809702 40.70149285233621 40.73660179618347 0.12047333783392988 40.51735328376399 40.729722776169055 0.12238078128609103
-0.06166137546093646 0.043831122628205765 -0.0993863031588662 40.507281387587064 0.12695635397151678 -40.479822060401524 40.73439211440829 40.632248214450186
40.49968580430506 -0.016340374457756435 40.49599161191533 40.493555375511036 40.723480202330094 40.43807970635361 0.0829918811343284 40.675913178637515
-0.057581876350308314 -0.03199505373140679 40.52668072903559 40.57227422553318 0.023187172997242572 -0.021071699002839867 0.11120451759882077 40.54916355574278
-0.01737538882100345 40.5085287564673 0.1161486529921868 40.54890847281486 -40.48438272757194 0.04387131796067398 40.461123570178124 -14.617398884627624
-40.77945496008825 -0.09970956535377662 -40.215553822426415 40.525440522544095 0.06954562955630533 -40.584164940058756 40.207558848266586 -0.09491496818724736
-0.10358089444139004 -0.09362964718782475 -0.11170731065450241 -40.10779250383248 -0.07044364822367924 -40.440562355884666 40.73039102756527 -39.89696589170831
-40.73788582099337 0.126865031568614 -40.52882747911344 38.099381019766376 -40.80604210101525 -40.69576408272599 -0.05633062873732321 -40.788079257078635
0.10714879741975059 -0.06420022377003806 -40.62757477293823 40.65282083052689 0.12517679268387683 0.12388361327475877 -0.05797860715357499 -40.348467239819456
0.007832487801684496 -40.699231204730324 0.1571539439536887 -40.51548241608771 -40.47068599668403 0.12199072618299778 -40.3772670538986 -14.449191202215953
-40.23072740598505 0.008162474470627679 40.56512905870603 40.54597401507454 -0.1434659129894253 40.62213297468161 40.71051778743958 -0.08251959215741984
0.1108583602787997 -0.09160857584322098 -0.09474082809460392 40.652856953716835 -0.09752624955109063 40.63608824025712 40.597330908572765 40.58073416547925
39.890517401182684 -0.11710252483399436 -40.4395750876564 40.71824723465998 -40.690562429177234 -39.270514106576194 0.11156097478253302 -40.093378076934535
-0.005861041375328835 -0.05297264691684721 -40.40801611228453 40.584001534137364 0.11851899645524272 0.15791339455427894 -0.11781852256127764 40.688166008151626
-0.13872150374349113 40.27324071782309 -0.15294883675611545 38.09606439377631 -40.22427314964471 0.08396660215380447 40.53903840810672 -14.402930329215335
-40.620932227756136 -0.07238774949883617 -40.706308249019735 -39.91331944499482 0.11033201183418656 -40.61015160319629 -40.540918293727636 -0.09112768517131496
0.06454795776507158 0.044647183456565875 -0.08047894253010465 -40.625494398510234 -0.06461120760906276 40.07778110433357 40.64589755988412 -40.515074440119484
-40.593170362688426 0.06016974124077412 40.669907989059276 -40.71327605319469 -40.680135863970456 -40.61716260771803 -0.13270054438556456 -40.75205205220434
0.12158479818554951 -0.09972864012521754 -40.62282966849707 -40.50353551073865 0.09652516762892721 0.05173048165499494 0.07345693761125852 -40.61647495261831
0.06824189456532923 -40.565832470500396 -0.05244170372320897 -40.733879220353835 40.38942563414382 -0.10247089503675752 -40.574527661403735 14.50090417084173
-40.35238684162573 -0.07102101899445759 40.48839767322505 40.68110024542281 0.08615956451315651 40.737821140127195 40.673247608509854 0.03500085580904508
0.12062157416259917 0.10905939613707355 -0.15773563820594044 40.61501087799679 -0.0619730124336241 40.55182184463851 40.620618918651004 40.66122403787645
39.89327637202513 -0.1298425140802426 -40.527743681727955 40.61107511933156 -40.47250217498801 -37.83104152002466 0.08577320325926699 -39.95215543659261
0.08009679429295144 -0.06082786357925961 -40.584561306115106 40.520222691758256 0.11930577713953622 -0.07314983229736141 -0.11874792212066942 40.52158787309861
-0.045508547148150516 40.22363650128518 0.10416696726614266 38.24720049360957 40.30472990834094 0.01867931333581599 40.519856699343826 14.623848138377586
40.082672061269605 -0.01830499672100408 40.61708727032796 40.520454876787355 -0.09780637834563262 40.526647364049246 40.53874961448052 0.002247164929232326
-0.11731514542398708 -0.08592351728116877 -0.11929686623568819 40.5376777840848 0.10385117557150475 39.708867286666326 40.64988300310972 40.4687161695856
40.49895950522904 0.03367826292724904 40.72516320060487 40.60892961040979 -40.31160469734419 40.509983067106575 0.028455368431396483 40.2374600387182
-0.025663211000817393 0.12590435141176404 -40.09587040557306 40.733002943192986 -0.047532962865333026 0.1335396049508608 -0.09072287922556918 40.64101220518321
-0.04227699991841542 40.66454383296072 -0.05280937536278804 40.431383130139054 -40.39988758273508 0.08991479493153656 40.52706530407607 -14.440291470767022
-40.3231293499241 -0.09464926190173463 -40.50282042113881 -40.59912728312735 -0.12731333615172727 -40.52468581404545 -40.617901531368844 -0.04076563284233814
0.1411989512074226 -0.022949782654236917 -0.009175875849516207 -40.73432005077773 0.057484863606095615 40.61678842627678 -40.494377668595135 -40.46827694515329
00000000: 4d5c 1305 ec4f 4440 5e14 9a01 5ced b23f
00000010: b594 8d84 ca59 4440 3564 b8f7 485e 4440
00000020: 6864 0936 57d7 be3f 4d1f e5a1 3842 4440
00000030: 6e65 518e 675d 4440 5c5e 48cd 5854 bf3f
00000040: 36ec 0f6e 1492 afbf 4060 786c 0871 a63f
00000050: 0fd8 bc79 6171 b9bf 29c7 b498 ee40 4440
00000060: 3edd 2916 1b40 c03f 75a9 2ccf 6a3d 44c0
00000070: 75e9 908f 005e 4440 4c02 6e82 ed50 4440
00000080: 02e2 55b4 f53f 4440 9011 9af7 87bb 90bf
00000090: 2222 34a7 7c3f 4440 de4a 92d2 2c3f 4440
000000a0: d627 d0ff 9a5c 4440 3fea edfe 1238 4440
000000b0: 9e32 4eb7 f43e b53f 7e97 b252 8456 4440
000000c0: d0a5 8827 5f7b adbf d4ff d1da a761 a0bf
000000d0: 1652 2d46 6a43 4440 1e81 2548 4049 4440
000000e0: 38e3 d6d6 60be 973f 3879 5ac8 d193 95bf
000000f0: d01f 4136 e677 bc3f 0009 ccfd 4a46 4440
00000100: 284a f79a daca 91bf 220d 6578 1741 4440
00000110: d86d 130a ebbb bd3f 5a9e 01a2 4246 4440
00000120: 9ad5 d240 003e 44c0 fc3c bf27 4d76 a63f
00000130: 37aa de18 063b 4440 0320 e4b4 1b3c 2dc0
00000140: 5b24 1d2e c563 44c0 e8f7 4aea 9086 b9bf
00000150: b4ec 8444 971b 44c0 f728 92a2 4143 4440
00000160: f428 860c becd b13f d682 b0ea c54a 44c0
00000170: 74a6 d049 911a 4440 1bde 43ec 584c b8bf
00000180: 2ebf 1d0a 4784 babf e993 9bd0 1cf8 b7bf
00000190: 1536 fcad d998 bcbf 735b 0f25 cc0d 44c0
000001a0: c2e5 544d 9808 b2bf ca2f e758 6438 44c0
000001b0: a357 0474 7d5d 4440 e141 41c7 cff2 43c0
000001c0: a0ac e60a 735e 44c0 22ee cb04 1d3d c03f
000001d0: 5902 6c9e b043 44c0 afde 6a84 b80c 4340
000001e0: a287 3763 2c67 44c0 1085 26cc 0e59 44c0
000001f0: 523d 6140 5ed7 acbf 84e7 f5c7 df64 44c0
00000200: 183b b984 1a6e bb3f 5efa 7c05 6d6f b0bf
00000210: 3cc8 c25e 5450 44c0 5aa1 0aa2 8f53 4440
00000220: 6cd0 650b cb05 c03f a480 8623 d6b6 bf3f
00000230: 9639 2f3b 5faf adbf 4060 1393 9a2c 44c0
00000240: 20ed a2b7 7a0a 803f 6854 7a68 8059 44c0
00000250: 22f8 dbd4 9e1d c43f 4061 eb53 fb41 44c0
00000260: b738 5170 3f3c 44c0 500b 5fc3 c83a bf3f
00000270: 272d 6d49 4a30 44c0 3e56 a663 fce5 2cc0
00000280: 947f c379 881d 44c0 000a 3fc7 7cb7 803f
00000290: b194 2426 5648 4440 019b fd79 e245 4440
000002a0: beaf 304e 175d c2bf a702 a60d a24f 4440
000002b0: bf23 323f f25a 4440 956a 9805 0120 b5bf
000002c0: a8b8 e2a7 3661 bc3f fd9e 47dd a873 b7bf
000002d0: e724 4356 ef40 b8bf 0a97 10d1 9053 4440
000002e0: dcce 52f4 7af7 b8bf 24a3 e656 6b51 4440
000002f0: e19a d656 754c 4440 9d33 447f 554a 4440
00000300: 9d4c 6579 fcf1 4340 94e7 705a 6efa bdbf
00000310: 6fcf 18ff 4338 44c0 4da7 7f86 ef5b 4440
00000320: ce94 8459 6458 44c0 fb6c cc34 a0a2 43c0
00000330: 906b 3392 428f bc3f 714c 15d0 f30b 44c0
00000340: 00ce 7050 bf01 78bf be4a 2e14 3b1f abbf
00000350: 6640 39df 3934 44c0 87f7 f08f c04a 4440
00000360: c4e1 bacd 4257 be3f 2601 9b90 8136 c43f
00000370: 8683 43cd 5a29 bebf 749d e1d2 1558 4440
00000380: 2c45 ea50 a0c1 c1bf 2d7e 458d f922 4440
00000390: c314 ead5 d393 c3bf 27ca 8ad6 4b0c 4340
000003a0: 278c 89fb b41c 44c0 08f3 34d2 d57e b53f
000003b0: 9a0d e735 ff44 4440 bf17 55e2 4cce 2cc0
000003c0: 5d9f 0db5 7a4f 44c0 b681 bae8 0088 b2bf
000003d0: a737 074f 685a 44c0 dd86 cda6 e7f4 43c0
000003e0: 7c9b 87fe b73e bc3f 3faa 9e72 194e 44c0
000003f0: 25af 86cf 3c45 44c0 df2b 92db 2454 b7bf
00000400: eee3 9f07 3786 b03f 88e2 9be1 fedb a63f
00000410: 6ef7 2e9a 449a b4bf 61b7 5033 1050 44c0
00000420: 4dd0 a22f 5c8a b0bf 02ae 31bb f409 4440
00000430: 5e22 70c5 ac52 4440 cba8 91f5 ed41 44c0
00000440: 045a a601 ed4b 44c0 3002 ad7d 91ce ae3f
00000450: 5b2b 848b bf55 4440 debe 34a1 4c5b 44c0
00000460: 7f4b 26b1 0e57 44c0 443b 302f ff4e 44c0
00000470: 1411 26d9 54fc c0bf bd8d dc3d 4360 44c0
00000480: 5ccf e56b 2e20 bf3f 00f7 cfef d087 b9bf
00000490: 3396 f0e1 b84f 44c0 a37f 03da 7340 44c0
000004a0: 7408 3596 dfb5 b83f 703d d4ed 6a7c aa3f
000004b0: 1a65 b4e8 12ce b23f 3f26 b8a6 e84e 44c0
000004c0: 160b 6001 4d78 b13f 34e8 c932 6d48 44c0
000004d0: bc1a e094 a3d9 aabf 1d51 19c1 ef5d 44c0
000004e0: 966f fdb2 d831 4440 6687 f956 883b babf
000004f0: 2e30 561f 8a49 44c0 f563 f082 7600 2d40
00000500: 6029 1403 1b2d 44c0 02e8 e8f9 6e2e b2bf
00000510: d8f8 a0d0 833e 4440 bcb1 f74a 2e57 4440
00000520: fe54 d29f 8d0e b63f 6692 51ec 705e 4440
00000530: 7c54 46fa 2c56 4440 fc4f 10d6 a1eb a13f
00000540: 446c 3834 0ee1 be3f fcf0 ba0b 51eb bb3f
00000550: c60c c16f ae30 c4bf 19d7 2bad b84e 4440
00000560: 1427 463b edba afbf 6cf8 2319 a246 4440
00000570: 4671 d370 704f 4440 1401 41fd a254 4440
00000580: 9811 52e1 56f2 4340 a872 cdf3 ad9e c0bf
00000590: 9ad8 de1a 8d43 44c0 d476 a2b5 374e 4440
000005a0: 626e 86f3 7a3c 44c0 e10f 8b91 5fea 42c0
000005b0: 8a28 df8e 3bf5 b53f db6f b63a e0f9 43c0
000005c0: b6ae 0038 3981 b43f 1e56 8469 d424 afbf
000005d0: be22 a6e7 d24a 44c0 91de 3ba8 9642 4440
000005e0: acc5 09cb d28a be3f 32d0 6c89 f2b9 b2bf
000005f0: 38ea f989 4366 bebf 7079 3464 c342 4440
00000600: ea2a 6173 e54c a7bf 199b f11e a01c 4440
00000610: 2c49 bbb5 afaa ba3f d8cd 0944 a41f 4340
00000620: fd37 bf63 0127 4440 6867 8e7f ab20 933f
00000630: e524 11aa 8a42 4440 2201 f005 693f 2d40
00000640: 12b9 83ff 940a 4440 0895 1489 8bbe 92bf
00000650: 126b 36b7 fc4e 4440 366c f143 9e42 4440
00000660: 8dae 55bc d609 b9bf dd8e 4a2e 6943 4440
00000670: 9676 53bf f544 4440 8015 277c a568 623f
00000680: fce7 eb88 5d08 bebf a10e ae68 15ff b5bf
00000690: 9460 ff4a 3d8a bebf 0937 29a0 d244 4440
000006a0: 8c13 bb9a fd95 ba3f d3b7 ca29 bcda 4340
000006b0: 904a c25d 2f53 4440 ffbc 35e4 fe3b 4440
000006c0: 587e b2e7 dd3f 4440 8c9d b7fb 463e a13f
000006d0: 286e d325 d25c 4440 5623 cd67 f14d 4440
000006e0: c72f a8a9 e227 44c0 465e 0920 4741 4440
000006f0: d8e1 3b73 6723 9d3f 6633 2e17 651e 4440
00000700: e8de d5ef 7447 9abf 446a de3f a21d c03f
00000710: 974b 407b 450c 44c0 5c71 5a0a d35d 4440
00000720: 2e28 fa91 3d56 a8bf e00a fe65 d317 c13f
00000730: bed4 4557 9d39 b7bf a3cc 1cb0 0c52 4440
00000740: c690 0bb8 54a5 a5bf 92a9 b6c5 0f55 4440
00000750: 1cf2 3598 d409 abbf 26ff f98f 3737 4440
00000760: 3bf6 2c84 2f33 44c0 aa51 a8ef a704 b73f
00000770: 77ee 39e0 7643 4440 e04d 37e2 6de1 2cc0
00000780: a026 734d 5c29 44c0 895f 751c ef3a b8bf
00000790: ac46 686b 5c40 44c0 2f96 eb33 b04c 44c0
000007a0: ade3 8eab cd4b c0bf 0b00 9ee7 2843 44c0
000007b0: 52b0 ba65 174f 44c0 9098 b7a7 3bdf a4bf
000007c0: 2a2b d5a6 ce12 c23f d00f cdd7 2580 97bf
000007d0: 9093 7c35 cdca 82bf 9771 0d33 fe5d 44c0
000007e0: 000a 68f2 a76e ad3f 7db4 53ec f24e 4440
000007f0: 923e 77c4 473f 44c0 bc73 ba7f f03b 44c0

encoder.2.bias f8 [30]
-0.2065547717642352 -44.598206204052836 -41.67269996487547 0.48589250337122947 2.042789590941616 0.2776168048050129 42.03437113106419 26.03348132073013
42.49814378819416 41.703813216211465 2.38179599149884 -2.531582711976225 1.6379731842479206 13.43827294610627 2.2860830964038903 -15.67593752126729
0.7386074308855366 -42.4006475230873 -28.741374325480482 -40.99161891321087 -2.390943431495872 2.3202369339693307 -16.25200122394544 -41.21389266821008
-38.7773726344172 -2.587258258507678 -12.982673719290291 3.0496734285109577 43.44237224657299 -1.124276620417554
00000000: 7cb2 c702 6370 cabf eb55 5905 924c 46c0
00000010: 8b94 4e08 1bd6 44c0 ca76 d6de dc18 df3f
00000020: afa0 ad11 a257 0040 6f48 5d46 79c4 d13f
00000030: 72ec f145 6604 4540 1390 593b 9208 3a40
00000040: ef7f f72c c33f 4540 770f 2d8d 16da 4440
00000050: eed9 890e eb0d 0340 7a74 d86f ae40 04c0
00000060: e81d a15e 2335 fa3f fa7e c44f 65e0 2a40
00000070: ebf1 37ef e549 0240 f2f6 977b 145a 2fc0
00000080: fc8c 070d aca2 e73f 1271 046b 4833 45c0
00000090: 6108 32b5 cabd 3cc0 fa2a 595e ed7e 44c0
000000a0: e4e2 26f3 a620 03c0 eaf4 b261 d88f 0240
000000b0: cc65 f726 8340 30c0 8268 bfd5 609b 44c0
000000c0: 49d0 4cf2 8063 43c0 69c5 3475 b4b2 04c0
000000d0: 21fb 7d02 21f7 29c0 627a b72e bb65 0840
000000e0: 32d8 5da7 9fb8 4540 e19c 457b 09fd f1bf

decoder.0.weight f8 [40, 30]
40.5014417807469 40.48429043693416 40.57472476470045 -40.53065430499735 -40.834566484362256 40.557840980132916 -40.764916855621095 40.722970233101464
-40.7874438912875 -40.55298721189069 40.59100352250647 40.441388032811574 -40.491004235167885 -40.738260925542924 40.69576575913738 40.58118444216511
-40.76844136476605 40.526780356065466 -40.50126199426266 40.77085458905569 -40.59694948791132 40.411119441745605 40.728583666359704 40.46437729753694
40.52646221209261 -40.50454218368261 -40.605613968831015 -40.5293400571597 -40.51785521138374 -40.551528549495636 40.70063801377053 40.60138567681491
40.56165161272343 40.749616029999075 40.57971364366386 40.41216202944225 -40.632867044459914 -40.708446008747366 -40.67450778770113 -40.40214497971286
40.40381434227184 40.73439136671928 -40.713156212428096 40.44379441302057 -40.640419033308085 -40.74042585856684 40.61713359230538 40.71990418784606
40.66352795564186 40.655345123004494 -40.68505441582199 40.57215128939334 -40.681189388747924 40.72395222303948 40.503999770865406 40.68965892769321
-40.41908741350168 40.44151304921265 -40.6361019118415 -40.58650383475934 -40.32049016452355 40.56253828032659 40.465941506779416 40.43893465659342
40.35030598304569 40.508101430558554 40.52927604169506 -40.41337972506626 -40.529573774923726 -40.49111897562672 -40.622500137556486 -40.329614048334875
40.426025658931714 -40.37480155944293 -40.546366705381736 40.499462997030484 40.305916058485856 40.29288978256132 40.54124428462357 40.35989284613254
-40.382152618346694 -40.51626699179561 40.6315213447693 40.39205517429197 40.34019724736172 40.57895749217064 -40.49718748895842 -40.58755390947713
-40.50303189321876 -40.29897804022412 -40.744734533051464 40.66209205568551 40.51517138019056 40.65588959772058 40.58343688303268 40.62013100556846
40.64579040057883 -40.546696132425794 -40.6219701052741 -40.54987707116457 -40.68092625179104 -40.77578582709591 40.81529131979686 -40.80458177975257
-40.485138619161354 40.774489068091455 40.79633930286098 40.50267073306486 40.5021309663258 40.49748205629011 -40.81434353912582 -40.82270742302011
40.68147361492316 40.77938392405293 40.57066649818345 40.55411826779713 -40.53973793133118 -40.602586227070546 -40.58026482312425 -40.75903621251806
40.46682912183985 40.734189867612784 40.64471959007371 -40.73554460265976 -40.764107967248044 40.385976268307964 -40.71122099670352 40.58336277087618
-40.72727797381052 -40.443890333319175 40.6706662095277 40.46020280141927 -40.639058945015684 -40.70656179222841 40.534748696314544 40.842571277180234
-40.559166951023826 40.67522783278186 -40.799636973193515 40.77388878003701 40.797167892259765 -40.30632444417184 40.57153314524592 40.7341119903257
40.4021360443503 -40.56910135307884 40.459915342908864 -40.661499603687126 -40.439229348647025 -40.606006606581346 40.36948669390016 40.46330498074755
40.19216537323 -40.61237117387179 -40.42184833964296 40.39558783703168 -40.40165829475594 40.42510444570687 -40.447369974482044 -40.45273810722852
-38.382539767822614 40.45857166725755 -40.5117148326872 -40.42318095778268 40.53096185226422 40.49087444378203 -40.553817253538995 40.64685504283414
-40.62011130151668 40.55809861226396 -40.16987842857919 -40.4516825925589 40.523676507403636 40.52002516259797 40.41793816789613 -40.742853421490935
40.56308667524272 -40.5005149147428 -40.44465463538889 -40.32219814672122 40.2113444683893 40.79336058481894 40.64213665674376 40.39303274170376
-40.769271371775005 -40.57012363234869 40.58399666765923 40.767824197091066 -36.678866019025136 40.12389148951886 -39.64558290795556 40.48096600098245
-40.46584871152537 -40.84441737348071 -40.548330713445225 40.778161096074484 40.23279068685412 40.70243085450184 -40.83504872241386 40.58122239080968
40.61930700055349 -40.59966436298604 40.64015038705543 40.68866806482314 -40.32140999120103 40.597849861451515 40.64119429734528 -40.67185392843726
-40.676067594650426 -40.4926090599602 0.15389090104467612 -0.16087855799609033 0.07761519942178047 -0.019935957835440582 0.1586972816771975 -0.0063548019165159675
-0.09826294021015425 0.10337498035113474 -0.1090240684543168 -0.0804188583644987 -0.1717290650931341 -0.14692584430488334 -0.05777721639096721 -0.1030793510811872
0.05487988123145357 0.14945014562446396 0.029231379196879903 0.16526281557344785 0.06582889953442694 -0.03764972279143933 0.004855323326250716 -0.09943564189294563
0.004243072976114565 0.07036010197246217 0.10061045906187405 0.14360058955132893 -0.03522375449776327 -0.1779625730445444 -0.13529599246641902 -0.10534315751709772
39.81635292180396 39.82114788226393 39.56455602191718 -39.574145262755835 -39.59594042816862 39.6065992343685 -39.90211066547077 39.70220066904328
-39.77410010889685 -39.68341995328971 -39.67581876815247 39.80195952200678 -39.64600548872903 39.72815124499903 -39.635998943083905 39.84991588566475
00000000: f693 883e 2f40 4440 ea32 a23a fd3d 4440
00000010: 7c4b c294 9049 4440 fdb8 f27a ec43 44c0
00000020: 3856 1613 d36a 44c0 0d05 4f55 6747 4440
00000030: a086 a7cb e861 44c0 7e93 e149 8a5c 4440
00000040: e541 20f6 ca64 44c0 9f16 f348 c846 44c0
00000050: 387e e000 a64b 4440 c0e2 2e67 7f38 4440
00000060: 2d1f 0e3a d93e 44c0 8f8f 8155 7f5e 44c0
00000070: f995 36da 0e59 4440 8605 7640 644a 4440
00000080: 2a48 6149 5c62 44c0 fbbc e889 6d43 4440
00000090: fe0a 605a 2940 44c0 9cfb f85c ab62 4440
000000a0: b6f8 3fd7 684c 44c0 0986 d68f 9f34 4440
000000b0: 15b5 c53a 425d 4440 88f6 1cb7 703b 4440
000000c0: 40c2 1f1d 6343 4440 432f 99d6 9440 44c0
000000d0: a310 2fc2 844d 44c0 5afb 3c6a c143 44c0
000000e0: 697a 5e14 4942 44c0 7172 cd7c 9846 44c0
000000f0: 4abd a581 ae59 4440 f719 b334 fa4c 4440
00000100: 4732 3633 e447 4440 a2b3 066b f35f 4440
00000110: 674a 820e 344a 4440 c18d b2b9 c134 4440
00000120: f455 8dc9 0151 44c0 9d46 db5b ae5a 44c0
00000130: 6e89 6c45 5656 44c0 040f 987c 7933 44c0
00000140: 4edb 3830 b033 4440 1443 4b89 005e 4440
00000150: b1a8 e8b3 485b 44c0 1209 5d41 ce38 4440
00000160: a7e5 3940 f951 44c0 22d4 4746 c65e 44c0
00000170: 781b ca3b fe4e 4440 b186 07d2 255c 4440
00000180: 55bb ea7b ee54 4440 de72 5759 e253 4440
00000190: c9f7 f3dc af57 44c0 8127 e240 3c49 4440
000001a0: fc86 c136 3157 44c0 19e9 6877 aa5c 4440
000001b0: 7a87 8210 8340 4440 1beb 65be 4658 4440
000001c0: d593 07a8 a435 44c0 1390 e57f 8338 4440
000001d0: 2324 96c9 6b51 44c0 8ea2 c28e 124b 44c0
000001e0: bea8 5bd2 0529 44c0 1a60 1e41 0148 4440
000001f0: b8bb a6f8 a33b 4440 2a93 c502 2f38 4440
00000200: 1f63 92d3 d62c 4440 60a6 b977 0941 4440
00000210: 7dd1 3c51 bf43 4440 99fe 77a0 e934 44c0
00000220: ef0e ce12 c943 44c0 8261 91fc dc3e 44c0
00000230: c247 a215 ae4f 44c0 42f3 0acb 302a 44c0
00000240: 2d2f 4002 8836 4440 0a26 5c7f f92f 44c0
00000250: 719e 1d58 ef45 44c0 6fe7 4a67 ee3f 4440
00000260: 4d42 e541 2827 4440 7ab7 9269 7d25 4440
00000270: 76cd 227e 4745 4440 101a 02f8 102e 4440
00000280: 9ef0 8260 ea30 44c0 1be2 6a09 1542 44c0
00000290: 4a41 01b1 d550 4440 e2e7 2bdd 2e32 4440
000002a0: cdcd 5995 8b2b 4440 d352 7347 1b4a 4440
000002b0: 4487 f2d6 a33f 44c0 adeb 6cf7 344b 44c0
000002c0: 1a1c 5d59 6340 44c0 0d7e 94e9 4426 44c0
000002d0: 35d4 0f76 535f 44c0 2b0e b76e bf54 4440
000002e0: 77e0 c222 f141 4440 8dff b930 f453 4440
000002f0: e9f3 4d0f ae4a 4440 7913 ea73 604f 4440
00000300: 4647 8542 a952 4440 2acf 8c23 fa45 44c0
00000310: f89e 66b7 9c4f 44c0 6ebc 325f 6246 44c0
00000320: 1737 6797 2857 44c0 e309 32f3 4c63 44c0
00000330: bf9e 4977 5b68 4440 547f 2789 fc66 44c0
00000340: 8da9 b305 193e 44c0 fa47 3175 2263 4440
00000350: 5727 3f72 ee65 4440 c095 bb83 5740 4440
00000360: cf56 d7d3 4540 4440 720e f57d ad3f 4440
00000370: 8d20 ba68 3c68 44c0 1f06 127a 4e69 44c0
00000380: 4897 0487 3a57 4440 f16a 38da c263 4440
00000390: 754f 8d99 0b49 4440 0527 ef58 ed46 4440
000003a0: 33bd ed21 1645 44c0 de24 a58b 214d 44c0
000003b0: 402b 231e 464a 44c0 559f 3e19 2861 44c0
000003c0: b08f 810e c13b 4440 ca39 ffee f95d 4440
000003d0: 833a e92b 8652 4440 2496 5653 265e 44c0
000003e0: c1f8 344a ce61 44c0 19b5 9cab 6731 4440
000003f0: fa88 244a 095b 44c0 fe4e 9ba1 ab4a 4440
00000400: 054f d471 175d 44c0 e64e 0066 d138 44c0
00000410: 153a ee63 d855 4440 cacf e6ec e73a 4440
00000420: 8187 faae cc51 44c0 b21c e79d 705a 44c0
00000430: f31f 31a5 7244 4440 df04 2860 d96b 4440
00000440: 60d3 5bc8 9247 44c0 d292 99dd 6d56 4440
00000450: f044 1c81 5a66 44c0 0a80 9cc9 0e63 4440
00000460: a656 f598 0966 4440 7bd7 aea3 3527 44c0
00000470: a4b4 83ff 2749 4440 7206 b761 f75d 4440
00000480: 8083 a331 7933 4440 9fca 2950 d848 44c0
00000490: 715c 8681 de3a 4440 9b13 de04 ac54 44c0
000004a0: f1f0 d3aa 3838 44c0 a236 de9f 914d 44c0
000004b0: de4d 0957 4b2f 4440 3c31 de93 4d3b 4440
000004c0: 26b9 fcdf 9818 4440 7065 ba2d 624e 44c0
000004d0: b851 5b20 ff35 44c0 8b5f 4b9f a232 4440
000004e0: 6b12 fc89 6933 44c0 fdd8 8dd2 6936 4440
000004f0: 6ece 586b 4339 44c0 8719 8252 f339 44c0
00000500: d91b 2810 f730 43c0 27df f479 b23a 4440
00000510: 83a2 23df 7f41 44c0 b8fb 2acb 2a36 44c0
00000520: ff72 d78e f643 4440 363e 49f9 d43e 4440
00000530: 8cf4 d77b e346 44c0 d71c 6325 cc52 4440
00000540: 73f2 9fce 5f4f 44c0 f0ce 7bc6 6f47 4440
00000550: 9185 8b93 be15 44c0 439b 35bc d039 44c0
00000560: b67d f0d4 0743 4440 493a 3d2f 9042 4440
00000570: 996e 75ff 7e35 4440 3c83 27d2 155f 44c0
00000580: 8d7d 6339 1348 4440 83fd 6adf 1040 44c0
00000590: 4b81 6e71 ea38 44c0 ee7f f3c9 3d29 44c0
000005a0: 16f6 e555 0d1b 4440 ccdd f2d6 8c65 4440
000005b0: 7c23 b288 3152 4440 fcef 99e5 4e32 4440
000005c0: e8c2 fb7b 7762 44c0 a3ce a9cf f948 44c0
000005d0: e148 1e67 c04a 4440 b3ca 3310 4862 4440
000005e0: 120a eb14 e556 42c0 3dde 23ad db0f 4440
000005f0: 4a43 f275 a2d2 43c0 905a 3e4b 903d 4440
00000600: 4e71 3aee a03b 44c0 0ea3 55de 156c 44c0
00000610: ded1 68b3 2f46 44c0 6854 65c8 9a63 4440
00000620: 096d d115 cc1d 4440 b4e4 1541 e959 4440
00000630: c4aa 64e0 e26a 44c0 811d cc7e 654a 4440
00000640: d2c7 a873 454f 4440 05cd 45cd c14c 44c0
00000650: 6076 a872 f051 4440 851b 7046 2658 4440
00000660: 7568 6cf6 2329 44c0 1b6d 2158 864c 4440
00000670: 66bd 9ca7 1252 4440 e029 3d4f ff55 44c0
00000680: 5974 0862 8956 44c0 061f 4dd0 0d3f 44c0
00000690: 0ac6 9171 b2b2 c33f b944 9c28 ab97 c4bf
000006a0: 9466 30f7 96de b33f 08ad ab7b 176a 94bf
000006b0: ca42 6249 3150 c43f a0c2 7626 7e07 7abf
000006c0: c085 9c92 c227 b9bf 2c30 d55f c876 ba3f
000006d0: c9f7 7c58 00e9 bbbf d13c a88e 5496 b4bf
000006e0: 5380 2ccf 37fb c5bf 4103 1d50 77ce c2bf
000006f0: 0ecc b4ad f994 adbf b35e c989 6863 babf
00000700: ece5 313e 3719 ac3f 1275 ebaf 2e21 c33f
00000710: 8098 aba6 d4ee 9d3f d600 11fa 5427 c53f
00000720: f0cc a1aa 29da b03f 1476 2f10 d346 a3bf
00000730: 0032 5dee 2ce3 733f 00aa fc3d 9d74 b9bf
00000740: 60d7 ab3a 2f61 713f 2c3a eaa0 1e03 b23f
00000750: 6869 4e67 9bc1 b93f 6496 e70d 8161 c23f
00000760: 906f 3813 d908 a2bf c7b4 9143 7ac7 c6bf
00000770: 3129 760b 6151 c1bf 0cb0 64e8 c4f7 babf
00000780: 2f92 a640 7ee8 4340 6ac0 b15f 1be9 4340
00000790: 7372 295f 43c8 4340 4658 8b97 7dc9 43c0
000007a0: 9aac a4c6 47cc 43c0 18b2 300b a5cd 4340
000007b0: eec8 be5c 78f3 43c0 9662 26b6 e1d9 4340
000007c0: 61c5 5db6 15e3 43c0 1568 164e 7ad7 43c0
000007d0: 729e b93a 81d6 43c0 12de 0f9c a6e6 4340
000007e0: 5890 cf4e b0d2 43c0 01e8 5b0f 34dd 4340
000007f0: 006b d269 68d1 43c0 f7a3 320b caec 4340

decoder.0.bias f8 [40]
-40.67399074694232 -40.44703642796663 -40.577624762539614 -40.80930013526784 -40.49772631474729 -39.84284960165489 -40.57027390845898 -0.13601464917555475
-39.87249042444314 -40.20499985000426 -40.56299431483727 -41.33579669173791 -40.573153996768234 -40.51220131682425 -40.65506568780437 -0.0066812871394919815
-40.59060000299388 -34.89015276052375 -42.044710104912724 -40.526943175146776 -40.53934947731619 -41.190875355840625 -40.57740151569921 -40.49230373212927
-40.53619694357043 -40.58593288267208 -40.668727982610925 -40.581216003914214 -40.5597432337386 -40.55385398918071 -40.45050093399897 -40.66522908723947
-0.09455365230511398 -0.045376582105509655 -40.572660285481895 -0.0791867318003643 -40.56123266494688 -40.72493829329115 -40.599040077643195 -41.79677427522731
00000000: 42f6 2b54 4556 44c0 611e 5b7d 3839 44c0
00000010: d43b b49b ef49 44c0 d7cf 9625 9767 44c0
00000020: 5f19 f27e b53f 44c0 f646 e97e e2eb 43c0
00000030: f54b 45bc fe48 44c0 a932 fe92 ed68 c1bf
00000040: 3a87 27c4 adef 43c0 03ba 616f 3d1a 44c0
00000050: ae07 9d32 1048 44c0 468f d062 fbaa 44c0
00000060: 7bd8 331c 5d49 44c0 395d 10d0 8f41 44c0
00000070: feec 4431 d953 44c0 601b 265c d65d 7bbf
00000080: 28f0 e8c7 984b 44c0 6272 9186 f071 41c0
00000090: 5033 8b0f b905 45c0 8b0d bcdf 7243 44c0
000000a0: 0818 5767 0945 44c0 5379 899a 6e98 44c0
000000b0: 624b f94a e849 44c0 d498 06cf 033f 44c0
000000c0: d26c f819 a244 44c0 225d 44d9 ff4a 44c0
000000d0: f39d e7e0 9855 44c0 975c 3849 654a 44c0
000000e0: 4488 91aa a547 44c0 2825 01b0 e446 44c0
000000f0: e82b bd03 aa39 44c0 4e05 0b3a 2655 44c0
00000100: 6c29 5e0c ab34 b8bf 007b 4b70 993b a7bf
00000110: 6fee a6ee 4c49 44c0 8114 5ce7 9445 b4bf
00000120: 67b2 d278 d647 44c0 dba6 2ac7 ca5c 44c0
00000130: 443c 6358 ad4c 44c0 9c32 0fb3 fce5 44c0
