seq_to_seq/edges_only/variations/hid-20__CELoss/seq2seq_model_1.pt (torch, 756303 bytes, 12 tensors)

encoder.embedding.weight f4 [3000, 20]
0	0x3edd63db	0.43240246
1	0xbfde33f1	-1.7359601
2	0x3f2ef816	0.683473
3	0xc003629a	-2.0528932
4	0xbedc1e52	-0.42991883
5	0x3fc97a92	1.574053
6	0x3e049931	0.12949063
7	0xbfc104f7	-1.507964
8	0xbe9024d0	-0.28153086
9	0x400ecc0f	2.2312047
10	0xbfcdea6f	-1.6087168
11	0xbe102453	-0.14076357
12	0xbfbb4dcd	-1.4633118
13	0xbed6c47f	-0.4194679
14	0xbdfdf3e2	-0.124000326
15	0xc00ac4b2	-2.1682553
16	0x3f3bea30	0.73404217
17	0x3d144b4b	0.036204617
18	0xbf856df7	-1.0424184
19	0xc089df11	-4.30848
20	0xbcbea90b	-0.023273965
21	0x3f1bc4fc	0.6084745
22	0xbf29340f	-0.6609506
23	0xbf873cdb	-1.0565447
24	0xbe5bbdd2	-0.2145913
25	0xbfdd608f	-1.7295092
26	0xbca1d686	-0.019755613
27	0x3eb19623	0.34684858
28	0xbfb29bde	-1.3953817
29	0x3f3d3f70	0.7392492
30	0xbf03d9ae	-0.5150403
31	0x3faae952	1.3352454
32	0xbfac1f49	-1.3447047
33	0x3f5a98a1	0.85389143
34	0xbfc6de03	-1.5536503
35	0xbf2a8da5	-0.6662238
36	0xbe91cffa	-0.28478986
37	0xbefeecbc	-0.4978999
38	0xbffe2016	-1.9853542
39	0x3f1e06c3	0.6172907
40	0x3f8b4037	1.0878972
41	0x3e17c40f	0.14820884
42	0xbf0b8a90	-0.54508305
43	0xbfb8af8f	-1.4428576
44	0x3ffcb87d	1.9743801
45	0xbf8a9837	-1.0827702
46	0x3fbeec3c	1.4915843
47	0x3dcfec7f	0.1015253
48	0x3fd8b464	1.6930051
49	0xbe7244b4	-0.2365902
50	0xbfc6b982	-1.5525362
51	0xbfdad282	-1.7095492
52	0xbfe7a88a	-1.8098309
53	0x3f24f481	0.64435583
54	0xbfc25dbd	-1.5184857
55	0x3ef50a28	0.4785931
56	0x3fd28974	1.6448197
57	0x3fd0dca4	1.6317334
58	0x3ec37e0b	0.381821
59	0x3f49e6da	0.78867877
60	0xbe1edec1	-0.15514661
61	0xbfec89a0	-1.84795
62	0xc0033fd8	-2.0507717
63	0x3f1d5864	0.61463
64	0x3f2adb47	0.6674084
65	0x3f14450b	0.5791785
66	0x3e4b4dd1	0.19853903
67	0xbce0d205	-0.027443895
68	0x3ebb9d8e	0.36643642
69	0xbf798cbb	-0.9748036
70	0x3e293706	0.16524896
71	0x3f0d1ad3	0.55119056
72	0xbe0d30de	-0.13788173
73	0xbe581db4	-0.21105081
74	0xc00c5789	-2.1928427
75	0x3f6cd45f	0.9251155
76	0x3f6864e7	0.90778965
77	0xbccfa1a1	-0.025345625
78	0xbf859404	-1.0435796
79	0x3f640dab	0.89083356
80	0x3df7fc1f	0.12108635
81	0xbf349071	-0.705329
82	0xbebd84ee	-0.3701548
83	0xbf73f9a9	-0.95302826
84	0x3ed94079	0.42432
85	0x3ec4db77	0.38448688
86	0xbe3fd726	-0.18734416
87	0x3e5e6ef3	0.21722011
88	0x3f675edd	0.90379125
89	0xbf9d4b53	-1.2288612
90	0xbe9588ba	-0.29205877
91	0xbf47c928	-0.78041315
92	0x3d4ba371	0.049716417
93	0x40337e6a	2.8045907
94	0xbfda6f2f	-1.706518
95	0x3dd28a90	0.10280335
96	0x3f6e591e	0.9310473
97	0x3fe03f8f	1.7519397
98	0xbe332b9e	-0.17497107
99	0xbe26b4d7	-0.16279922
100	0x3f92ebf1	1.1478254
101	0x3fbe6712	1.4875205
102	0xbf64cc51	-0.8937426
103	0xbe24be89	-0.16088308
104	0xbf64542c	-0.89190936
105	0x3dd34270	0.10315406
106	0xbfe2a91c	-1.7707858
107	0x3f9bdfdf	1.2177695
108	0x3ebdd285	0.37074676
109	0xbc5dbf0d	-0.01353432
110	0x3de5121a	0.11185093
111	0x3f689d69	0.9086519
112	0x3f3da897	0.7408537
113	0xbed9dc78	-0.42551017
114	0x402a93c7	2.6652696
115	0x401f0901	2.4849246
116	0xbf841ea0	-1.0321846
117	0xbf83348e	-1.0250413
118	0x3fb6dba3	1.4285778
119	0x3f9e5b9d	1.2371708
120	0xbe297545	-0.16548641
121	0xbf9d77ba	-1.2302163
122	0xbf068240	-0.52542496
123	0x3fc87386	1.5660255
124	0x3eb82f42	0.35973555
125	0xbf3fac1d	-0.74872
126	0x3f9358ed	1.1511513
127	0x3ee8888b	0.45416674
128	0xbf05b89a	-0.52234805
129	0xbf5964f0	-0.84919643
130	0xbfa6f353	-1.3043007
131	0x3f3c30df	0.7351207
132	0x3fcd977d	1.6061856
133	0x3e0282aa	0.12745157
134	0xbf122098	-0.57080984
135	0xbfbc8acf	-1.4729861
136	0xc0125349	-2.2863333
137	0x3ec6fa2b	0.38862738
138	0xbf7d83ec	-0.9902942
139	0xbf7e92e8	-0.9944291
140	0x3f5ec291	0.87015635
141	0xbf5a417e	-0.85256183
142	0x3f7ad398	0.97979116
143	0x3f445006	0.76684606
144	0xbec2d363	-0.380519
145	0x3ead3176	0.33826798
146	0x3f01717b	0.5056378
147	0xc0038190	-2.0547829
148	0xbfb6e2aa	-1.4287922
149	0xbf0ac2fe	-0.54203784
150	0x3f98ba07	1.1931771
151	0x3ebf5390	0.3736844
152	0xbfe80be4	-1.8128629
153	0xbe44517f	-0.19171713
154	0x3f604d1c	0.8761766
155	0xbfffab92	-1.9974234
156	0xbedce907	-0.43146536
157	0xbe958d07	-0.29209158
158	0xbe964008	-0.29345727
159	0xc01c668d	-2.4437592
160	0xbf0f8e7b	-0.5607678
161	0xbf85ce70	-1.0453625
162	0xbf31d554	-0.6946614
163	0x3f1304f0	0.5742941
164	0x3e973c07	0.29537985
165	0xbdc5069a	-0.096204
166	0x3d9b14af	0.075723045
167	0x3f57233b	0.8403813
168	0xbff163b0	-1.8858547
169	0xbfdbcdef	-1.7172221
170	0x3fcdf0d5	1.6089121
171	0x3f7a5f32	0.97801507
172	0xbdaba770	-0.083815455
173	0x3da8cae4	0.08241823
174	0xbf58b086	-0.84644353
175	0x3ddf4da4	0.10903481
176	0x3cc1cd32	0.023657415
177	0xbf7c9cc3	-0.986767
178	0xbf71db5d	-0.94475347
179	0xbed87f76	-0.42284745
180	0x3edd3748	0.4320624
181	0xbf095f95	-0.5366147
182	0xbf596842	-0.8492471
183	0x3f2bd59f	0.67122835
184	0x3eeb80b5	0.45996633
185	0x3e73766e	0.23775646
186	0xbed09c20	-0.40744114
187	0x3f5af72a	0.8553339
188	0xbe62efb0	-0.22161746
189	0x4007e16e	2.1231341
190	0xbf9cd8a4	-1.2253613
191	0x3fadd313	1.358004
192	0xbf70dc8d	-0.94086534
193	0x3f4235f1	0.7586356
194	0xbf0d9544	-0.55305886
195	0x3febfa98	1.843585
196	0x3fcc9743	1.5983661
197	0x3f048b0c	0.5177467
198	0x3effdeee	0.4997477
199	0xbf2861f4	-0.65774465
200	0x3f522b32	0.8209716
201	0xbf8742e4	-1.0567288
202	0x3ff4e4d6	1.9132335
203	0xbf538746	-0.82628286
204	0x3d392154	0.0451978
205	0xbf658bc7	-0.8966641
206	0xbf7a9382	-0.9788133
207	0xc006e6be	-2.1078334
208	0x3ee667e9	0.45001152
209	0xbf9a934d	-1.2076203
210	0xbf7ed7b6	-0.995479
211	0xbf104922	-0.5636159
212	0xbf567fd5	-0.83788806
213	0x3f5437e9	0.8289781
214	0x3bc5b5ae	0.006033621
215	0x3ed40040	0.4140644
216	0x3eee945c	0.46597564
217	0xbecf8da3	-0.40537748
218	0x3f56e27a	0.83939326
219	0xbf37e95b	-0.7184045
220	0x3f8f4f76	1.1196125
221	0x3fd5bc77	1.669814
222	0xbdfa92c6	-0.12235026
223	0xbee3d331	-0.44497064
224	0x3f621b43	0.8832285
225	0x3ddfde8e	0.10931121
226	0xbe59f5ad	-0.21285124
227	0x405464e3	3.3186576
228	0x3e588fa5	0.21148546
229	0xbe58fd9a	-0.21190491
230	0x3f80609d	1.0029484
231	0x3e915a3d	0.2838916
232	0x3e6049f8	0.21903217
233	0xc01416d5	-2.3138936
234	0xbfb280ba	-1.3945534
235	0x3f372ee0	0.715559
236	0xbddf091d	-0.1089041
237	0x3d7d93b4	0.06190844
238	0xbf7ec2da	-0.9951607
239	0x3e8ee777	0.2791097
240	0xbe9ce58c	-0.3064388
241	0x3e7a6b64	0.24455029
242	0xbcb3e07d	-0.02195763
243	0xbda632f9	-0.08115191
244	0x3e30ef3d	0.17278762
245	0x3f4846d7	0.78233093
246	0xbeaea6b4	-0.3411156
247	0xbfab0985	-1.336228
248	0xbe44b20a	-0.19208542
249	0xbcd9c3b0	-0.026582569
250	0xbf54bd4e	-0.83101356
251	0x3e5085d2	0.20363548
252	0xbf87e8f6	-1.0617969
253	0xbcc040db	-0.023468425
254	0x3f3797a3	0.71715754
255	0xbf2ec54c	-0.682698

encoder.gru.weight_ih_l0 f4 [60, 20]
0	0x3da60010	0.08105481
1	0xbdefce17	-0.117092304
2	0x3f713852	0.9422656
3	0x3f0c7ffd	0.54882795
4	0xbe1138c3	-0.14181809
5	0x3e0bb727	0.13644086
6	0xbee4deb9	-0.44701174
7	0x3e1917c5	0.14950474
8	0x3f696c2c	0.9118068
9	0xbf590b70	-0.8478308
10	0x3e83e309	0.25759152
11	0x3ed36404	0.41287243
12	0x3df42f1c	0.11923048
13	0x3da5ce27	0.08095961
14	0x3f28671e	0.65782344
15	0xbefbc285	-0.49171844
16	0xbe5c7c27	-0.21531735
17	0xbf6e41f7	-0.93069404
18	0xbf9e6c86	-1.2376869
19	0xbe692e19	-0.22771491
20	0xbf549bcd	-0.83050233
21	0xbeebf5f1	-0.46086076
22	0x3f382bd0	0.7194185
23	0x3f0a5560	0.5403652
24	0xbefe7c5e	-0.4970426
25	0xbf53bd58	-0.8271079
26	0xbe9ebdbd	-0.31004134
27	0x3ee5c57a	0.44877225
28	0x3edac26e	0.42726463
29	0x3ed6db77	0.41964313
30	0xbdf86576	-0.12128727
31	0xbf3194cd	-0.69367677
32	0x3dacdb48	0.08440262
33	0xbf3a396e	-0.7274388
34	0x3ea654cf	0.3248658
35	0x3dfd38b2	0.123643294
36	0xbf423bc2	-0.75872433
37	0x3eb43cee	0.35202736
38	0x3efe95b4	0.4972359
39	0xbc5ebb25	-0.013594423
40	0x3e872673	0.26396522
41	0xbebd838f	-0.37014434
42	0xbede3d9c	-0.4340638
43	0x3e680985	0.22659881
44	0x3ef1f2f5	0.47255674
45	0x3e62605d	0.22107072
46	0xbeb70aea	-0.35750514
47	0x3f2086a5	0.6270545
48	0xbe8b311e	-0.2718591
49	0xbe82c369	-0.2553971
50	0x3ec4dad3	0.384482
51	0x3e810404	0.25198376
52	0xbe3b9e67	-0.18322144
53	0x3e82fa36	0.2558152
54	0x3eb32f83	0.34997186
55	0xbf041203	-0.51589984
56	0xbe73680c	-0.2377016
57	0xbe4176bb	-0.18892948
58	0xbd50f39b	-0.05101357
59	0xbe8ce9f8	-0.27522254
60	0xbe5f3c61	-0.21800376
61	0xbed18816	-0.40924138
62	0x3d071f12	0.032988615
63	0x3d0f03e6	0.034915827
64	0xbc6a603b	-0.01430517
65	0x3ee94c92	0.4556623
66	0x3d39de02	0.04537774
67	0xbe922412	-0.28543144
68	0xbeba8ce6	-0.36435622
69	0x3dc5c5b0	0.096568465
70	0xbdb11799	-0.08647079
71	0xbd81b0ad	-0.06332526
72	0x3b94ba7e	0.004538833
73	0x3dbab866	0.091172025
74	0x3e0a8f9d	0.13531347
75	0xbeb0daba	-0.34541875
76	0xbedca96f	-0.43098018
77	0x3ed907d2	0.4238878
78	0x3c7bd007	0.015369422
79	0xbeff822d	-0.49904004
80	0x3efd9141	0.49524882
81	0x3f00021b	0.5000321
82	0x3ee0cb12	0.4390493
83	0xbda8bbc1	-0.08238936
84	0x3d375b54	0.04476483
85	0x3edb2611	0.4280248
86	0xbe99074c	-0.2988838
87	0xbf3b2957	-0.73109955
88	0x3ed251c5	0.4107801
89	0xbe9f1434	-0.310701
90	0xbc942c0d	-0.018087411
91	0xbecc5ce7	-0.3991463
92	0xbdc21a9a	-0.0947773
93	0xbd6f92a7	-0.058489468
94	0x3f23d3e1	0.63995177
95	0xbdab7376	-0.08371632
96	0x3eb63e9e	0.35594648
97	0x3f3544c5	0.7080806
98	0x3e3f4ccc	0.1868164
99	0x3eb3cf55	0.3511912
100	0xbd18f461	-0.037342433
101	0x3e1924f3	0.14955501
102	0x3e1f1038	0.1553353
103	0x3e96a6d5	0.29424158
104	0x3ecedb28	0.40401578
105	0x3e3afe31	0.18261029
106	0xbe232007	-0.15930186
107	0x3e1e162c	0.15438145
108	0x3e81bed5	0.25340906
109	0xbe825459	-0.25454977
110	0xbe5bb9ff	-0.2145767
111	0xbe3345d1	-0.17507102
112	0xbd9cb624	-0.07651928
113	0xbda748ce	-0.08168183
114	0x3e651012	0.22369412
115	0x3e3ed51b	0.18635981
116	0xbf09a63f	-0.53769296
117	0x3d28795e	0.04113137
118	0xbd12f26d	-0.035875726
119	0x3e8133d6	0.2523486
120	0x3ed3cd5f	0.41367623
121	0x3df942f0	0.121709704
122	0xbf15cadf	-0.5851268
123	0x3f5f53ce	0.8723725
124	0xbeac84ba	-0.33695012
125	0x3da6f190	0.08151543
126	0xbee242ca	-0.4419158
127	0xbe5504c4	-0.20802599
128	0xbf272ee8	-0.6530595
129	0xbdb1bc7b	-0.08678528
130	0x3e9f1da6	0.31077307
131	0x3f2a85e5	0.66610557
132	0xbe76947e	-0.24080083
133	0xbf1af055	-0.6052297
134	0xbf2aeb41	-0.6676522
135	0x3ed75095	0.42053667
136	0xbe8d34f6	-0.27579468
137	0x3e4a0603	0.19728856
138	0x3e11c820	0.14236498
139	0xbd700f2b	-0.058608215
140	0x3ef35641	0.47526744
141	0x3eab3bc8	0.33444047
142	0x3e2123f0	0.15736365
143	0x3e492d4b	0.19646184
144	0x3f08189b	0.53162545
145	0x3e1a94fd	0.15095897
146	0x3eab9f0f	0.3351979
147	0x3dd8d62f	0.10587727
148	0x3e44f092	0.19232395
149	0x3cd7719a	0.026299287
150	0xbd8b5246	-0.06802802
151	0xbe45cbf4	-0.19316083
152	0xbdddb334	-0.10825196
153	0x3dce0e79	0.10061354
154	0x3ec13d26	0.37741965
155	0xbeeb3370	-0.4593768
156	0xbe55e8c5	-0.20889576
157	0x3e9b257a	0.3030203
158	0xb9f4db78	-0.00046702824
159	0xbf0a197f	-0.53945154
160	0x3ddefe9a	0.10888405
161	0x3e0c31cc	0.13690871
162	0xbe58e8be	-0.21182534
163	0xbe43512e	-0.19073936
164	0xbeb476c6	-0.35246867
165	0xbd784e97	-0.060621824
166	0xbf15afc9	-0.5847135
167	0xbee09fe2	-0.4387198
168	0x3e305651	0.17220427
169	0x3e6d2adb	0.2316088
170	0xbc4eb139	-0.012615495
171	0x3ed4514f	0.41468284
172	0x3e7e5856	0.24838385
173	0xbeace1a5	-0.33765903
174	0xbe989f4f	-0.29809043
175	0xbf2e6ccb	-0.68134755
176	0x3e8597c7	0.2609236
177	0xbe93c8ab	-0.28864035
178	0xbe43d9f6	-0.19126114
179	0xbf132dd1	-0.57491785
180	0x3e5f450e	0.21803686
181	0x3d2b51bd	0.041826
182	0xbed67697	-0.41887352
183	0x3f39d464	0.7258971
184	0x3e49157e	0.19637105
185	0x3e2335ee	0.15938541
186	0xbdccd292	-0.100011006
187	0x3e7ac21c	0.2448811
188	0xbd677888	-0.056511432
189	0x3e56a9e5	0.20963247
190	0x3efb7c50	0.4911828
191	0xbe31db16	-0.17368731
192	0x3e2b0bf2	0.16703776
193	0x3e98be56	0.29832715
194	0xbda0a3d9	-0.078437515
195	0x3f294c59	0.6613212
196	0xbe441c8a	-0.19151512
197	0xbdf9cf70	-0.12197769
198	0x3ef01518	0.46891093
199	0x3d2a1f78	0.041533917
200	0xbf343f70	-0.704093
201	0xbf6bf6d3	-0.921735
202	0xbe0b2b21	-0.13590671
203	0xbe5ac34d	-0.21363564
204	0xbede5ebb	-0.4343165
205	0xbecb755d	-0.3973798
206	0x3eb03cbf	0.34421346
207	0x3e0835e2	0.13301805
208	0x3dca5278	0.09879011
209	0xbf196598	-0.59920645
210	0xbe9cac02	-0.30599982
211	0x3da3e381	0.08002377
212	0xbe56f526	-0.20991954
213	0x3d84fd69	0.06493647
214	0x3cfe36aa	0.031031925
215	0x3d8242ce	0.06360398
216	0xbeed52bf	-0.46352193
217	0xbf117c37	-0.5683016
218	0xbed0dea8	-0.40794873
219	0x3e6cefe7	0.2313839
220	0xbea48540	-0.32132912
221	0xbf39a2e8	-0.725142
222	0x3f20328f	0.62577146
223	0xbd3d2f87	-0.046187904
224	0xbf406493	-0.75153464
225	0xbec6c0cc	-0.38818967
226	0x3eaf0456	0.34182996
227	0xbf102cec	-0.56318545
228	0xbf8517da	-1.0397904
229	0xbbce54ab	-0.0062967143
230	0x3ece1b09	0.40255
231	0x3d601de8	0.05471602
232	0x3d3466ae	0.044043235
233	0x3e826d40	0.25473976
234	0xbf021a41	-0.5082131
235	0xbfa0ace2	-1.255276
236	0xbf1c953f	-0.6116523
237	0x3f09e1ce	0.53860176
238	0x3d160ba8	0.03663221
239	0xbea4f9ff	-0.32221982
240	0x3e7c5d92	0.24645069
241	0x3fb3a553	1.4034828
242	0x3ec3135d	0.3810071
243	0x3da3618b	0.07977589
244	0x3ec43a48	0.38325715
245	0xbee41452	-0.44546753
246	0xbe5299e3	-0.20566516
247	0x3f9202d3	1.1407112
248	0x3d01a190	0.03164822
249	0xbd04504b	-0.032303136
250	0xbf168aee	-0.5880574
251	0x3def3bb0	0.11681306
252	0xbe5ae0a1	-0.21374752
253	0x3dd05174	0.10171786
254	0x3ed5107b	0.41614136
255	0xbd162136	-0.036652766

encoder.gru.weight_hh_l0 f4 [60, 20]
0	0x3eb590e2	0.354621
1	0x3e57fc83	0.2109242
2	0x3d1b9f58	0.03799376
3	0xbd066854	-0.03281434
4	0x3ef67c55	0.48141733
5	0x3f0baa1d	0.5455645
6	0x3e9ba6c6	0.30400676
7	0x3ed0b257	0.40761063
8	0x3f0313e9	0.51202255
9	0x3e2aaedc	0.16668266
10	0xbd254c02	-0.04035569
11	0x3e8f5d99	0.28001097
12	0x3d1340ef	0.035950597
13	0xbd4a7a11	-0.049432818
14	0x3dd9de46	0.106380984
15	0xbe244cec	-0.16044968
16	0x3e5acbd1	0.21366812
17	0xbe482fcd	-0.19549485
18	0x3dc7e430	0.0976032
19	0x3e0bdf5f	0.13659428
20	0x3e4cb65a	0.19991437
21	0x3e9bc4fa	0.3042372
22	0xbe1e84a6	-0.15480289
23	0x3e42d9a0	0.1902833
24	0xbeccbdba	-0.399885
25	0x3c98260f	0.018572835
26	0xbed22e9d	-0.41051188
27	0x3d4bc24e	0.04974585
28	0xbd158110	-0.036500037
29	0xbdf00536	-0.11719744
30	0xbeb869aa	-0.36018115
31	0xbdb7bfce	-0.08972131
32	0x3db5e73f	0.08881997
33	0xbdc249b3	-0.09486713
34	0xbd28ca07	-0.041208293
35	0xbb6f087d	-0.0036473565
36	0xbe487cef	-0.19578908
37	0xbe0f1767	-0.13973771
38	0xbe81eff7	-0.2537839
39	0xbe9ef5f4	-0.31047022
40	0xbe6c96ba	-0.23104373
41	0xbd70198e	-0.05861812
42	0xbecc8599	-0.39945677
43	0xbd8d4acf	-0.06899034
44	0xbf01acee	-0.50654495
45	0xbdeffdc0	-0.11718321
46	0xbf0d17f2	-0.5511466
47	0xbe956029	-0.29174927
48	0xbeea1e4e	-0.45726246
49	0xbdfb936d	-0.122839786
50	0xbe50950b	-0.20369355
51	0x3d4a8c41	0.049450163
52	0x3eb414eb	0.3517221
53	0xbed23e08	-0.4106295
54	0xbeb355a8	-0.35026288
55	0x3e346248	0.17615616
56	0xbe5c32c4	-0.2150374
57	0xbe1e0d61	-0.15434791
58	0x3d19395a	0.03740821
59	0xbe7d29d4	-0.24722987
60	0xbc953b01	-0.018216612
61	0xbd156cd7	-0.03648075
62	0x3d1bc7ff	0.038032528
63	0xbea5a86b	-0.32355055
64	0xbd6d49c0	-0.05793166
65	0x3e26aca4	0.16276795
66	0xbe9303ed	-0.28713933
67	0xbe84f8a4	-0.25970948
68	0xbeae81f0	-0.3408351
69	0xbe9cac1d	-0.30600062
70	0xbcaf8336	-0.021424871
71	0x3de85426	0.11344175
72	0xbd53d396	-0.051715456
73	0xbdf021e7	-0.11725216
74	0x3d296edc	0.04136549
75	0x3e60a129	0.21936478
76	0xbdabbb73	-0.083853625
77	0xbe46659c	-0.19374698
78	0xbd7a16c0	-0.061056852
79	0xbdfe9b69	-0.12431986
80	0x3f1133f0	0.56719875
81	0xbcb7e63a	-0.022448648
82	0x3d86f441	0.065895565
83	0xbebcc7b4	-0.3687111
84	0xbca16e3c	-0.019705884
85	0x3db47acc	0.08812484
86	0xbee8c676	-0.45463914
87	0xbea7cba7	-0.32772562
88	0xbe8bddd8	-0.2731769
89	0x3d18d436	0.037311755
90	0xbd888be5	-0.06667308
91	0xbd8c2fb4	-0.06845036
92	0x3d5529ff	0.052042004
93	0xbe8d5330	-0.2760253
94	0xbcd83c46	-0.026395928
95	0x3e55e5ac	0.20888394
96	0x3e4dd10f	0.20099281
97	0xbb819287	-0.003954235
98	0xbe1ace13	-0.15117674
99	0x3d0d81a4	0.034547463
100	0x3e84490c	0.2583698
101	0x3eb650d2	0.35608536
102	0x3dec4ce8	0.11538106
103	0xbb1c5530	-0.0023854487
104	0x3d768320	0.060183644
105	0xbdc6e5e0	-0.09711814
106	0xbdb9e89c	-0.0907757
107	0xbe1e5e45	-0.15465648
108	0xbe3a0613	-0.1816638
109	0x3d7c8eac	0.0616595
110	0xbe663760	-0.22482061
111	0xbd7fd6e0	-0.06246078
112	0x3bc10204	0.005890133
113	0xbe879ae3	-0.26485357
114	0x3dcd5894	0.100266606
115	0xbde8be02	-0.11364366
116	0xbdc64b90	-0.09682381
117	0xbee6f5b2	-0.45109326
118	0xbe25ebec	-0.16203278
119	0x3e028ac2	0.12748244
120	0x3ed85bc1	0.42257503
121	0x3e9143b2	0.2837196
122	0xbe83d726	-0.25750083
123	0xbce9319f	-0.028466044
124	0xbe7eeb90	-0.24894547
125	0xbd4066a1	-0.046972875
126	0xbf2f453e	-0.6846503
127	0x3b2c33e2	0.0026276042
128	0xbe653c1d	-0.22386213
129	0xbdfda116	-0.1238424
130	0xbd47d7e8	-0.04878989
131	0xbe4b20f9	-0.19836797
132	0x3df29647	0.118450694
133	0xbe9f0973	-0.31061897
134	0xbcb4381c	-0.021999411
135	0x3e060385	0.1308728
136	0x3bb1931d	0.0054191486
137	0xbdcc332d	-0.099706985
138	0xbdd6bd7d	-0.10485361
139	0xbe455c4e	-0.19273493
140	0x3ec677ef	0.38763377
141	0x3d92e9e1	0.07173515
142	0xbe4c00ef	-0.19922231
143	0x3d1d018c	0.038331553
144	0xbc48abde	-0.012248008
145	0xbc467dc9	-0.01211495
146	0xbeb05aab	-0.34444174
147	0xbebbb5fb	-0.36662278
148	0xbdc8ceec	-0.09805092
149	0x3da5e131	0.080995925
150	0x3d8f4ce8	0.069970906
151	0xbd374976	-0.044747792
152	0xbd8807a2	-0.06642081
153	0x3d561899	0.052269552
154	0x3db3632b	0.08759149
155	0x3e83c7bc	0.25738323
156	0x3e759661	0.23983146
157	0x3e7847df	0.24246167
158	0xbd7fa212	-0.06241042
159	0xbe63ee15	-0.2225879
160	0xbd08c4cd	-0.03339081
161	0xbcf943a7	-0.030427767
162	0xbe9e234b	-0.308863
163	0x3d02be3b	0.0319197
164	0xbed9cac8	-0.42537522
165	0xbda3dadb	-0.08000728
166	0xbe5786c7	-0.21047507
167	0xbe271841	-0.16317846
168	0xbeb8251f	-0.3596582
169	0xbe536cb9	-0.20646943
170	0xbe3ce46e	-0.18446514
171	0x3dd29b5c	0.10283539
172	0x3bc7c436	0.006096388
173	0xbdee08ec	-0.116227955
174	0x3e1a81ff	0.15088652
175	0x3e9e7b5e	0.30953497
176	0x3d882c7f	0.06649112
177	0x3d7b5a5f	0.06136548
178	0xbd4f1bfc	-0.050563797
179	0xbdddf814	-0.10838333
180	0xbd8515c9	-0.06498296
181	0x3e24c9a2	0.16092542
182	0xbe0ea4fc	-0.13930124
183	0x3db041fe	0.08606337
184	0x3e4e162b	0.20125644
185	0x3e86601e	0.26245207
186	0xbe66fb2d	-0.22556753
187	0x3ea5c8c0	0.32379723
188	0x3edcaf45	0.4310247
189	0x3e34af1e	0.17644927
190	0x3e17663a	0.1478509
191	0x3e047fc9	0.12939371
192	0x3de8cd76	0.113673136
193	0xbc5619f0	-0.013067707
194	0x3ddede75	0.10882274
195	0x3d30b7a7	0.043143895
196	0x3ce960eb	0.028488597
197	0xbe9520f2	-0.29126698
198	0x3e206eee	0.15667316
199	0xbd9309aa	-0.07179578
200	0xbd6a8568	-0.057256132
201	0x3d28e985	0.041238327
202	0x3dbd2bec	0.09236893
203	0xbeb3eb66	-0.35140532
204	0x3d37c66c	0.044866964
205	0xbed03380	-0.4066429
206	0xbe962bf8	-0.2933042
207	0xbeba35ed	-0.36369267
208	0xbf1f573a	-0.6224247
209	0xbe5b0b62	-0.21391061
210	0x3d519282	0.05116511
211	0xbe8ad0d7	-0.27112457
212	0xbe4b33f3	-0.19844036
213	0xbe4171f2	-0.18891123
214	0xbefcdc48	-0.4938681
215	0x3ec14d91	0.3775449
216	0x3de3be63	0.11120298
217	0x3e4994f4	0.19685727
218	0xbea67e92	-0.3251844
219	0xbd291fae	-0.041289978
220	0xbbe43f2a	-0.0069655376
221	0x3e9854b8	0.29752135
222	0xbcd443d9	-0.025911259
223	0x3df090ad	0.11746345
224	0x3eb52fd3	0.3538805
225	0x3ebf100e	0.37316936
226	0x3dd49082	0.10379125
227	0x3f4c1fc1	0.7973595
228	0x3e898a40	0.2686329
229	0xbdca40bf	-0.098756306
230	0xbb975661	-0.0046184515
231	0x3c91e300	0.017808437
232	0xbd9d1e34	-0.076717764
233	0xbd9d2333	-0.07672729
234	0x3e808175	0.25098768
235	0xbea1ed0a	-0.3162616
236	0x3ea370ab	0.31921896
237	0xbd71cc0e	-0.059032492
238	0x3e0e12b3	0.1387432
239	0x3cd86998	0.026417539
240	0x3eab61c8	0.3347304
241	0x3e4885cd	0.19582291
242	0x3dabf3dc	0.08396122
243	0x3d59443c	0.05304359
244	0x3c48a346	0.012245959
245	0x3e4d8ef8	0.2007407
246	0x3dc31618	0.095256984
247	0xbd1027b5	-0.035194118
248	0xbe464aae	-0.19364426
249	0xbe8a6925	-0.27033344
250	0xbe0af40b	-0.13569658
251	0x3e8b9af6	0.27266663
252	0xbec6e51d	-0.38846675
253	0x3e2eedbf	0.1708288
254	0xbd4373bd	-0.0477178
255	0x3d4ffb2a	0.050776638

encoder.gru.bias_ih_l0 f4 [60]
0	0x3e4c889d	0.19973989
1	0xbd3081e0	-0.04309261
2	0x3e8b8c80	0.2725563
3	0x3ef502f2	0.4785381
4	0x3ddadffa	0.106872514
5	0x3ebaf837	0.36517498
6	0x3ed7df84	0.42162716
7	0x3e87afff	0.26501462
8	0x3d59f1e1	0.05320919
9	0x3db354c1	0.087564
10	0x3ebfc59c	0.3745545
11	0xbdb73e3e	-0.08947419
12	0x3e12a59a	0.14320984
13	0x3ec1cd9d	0.37852183
14	0x3ee54175	0.44776502
15	0x3dbcb100	0.092134476
16	0x3e602c1b	0.21891825
17	0xbdfaa719	-0.122389026
18	0x3ed1c92f	0.40973803
19	0xbddb707a	-0.107148126
20	0xbf19680a	-0.59924376
21	0xbeeabcfe	-0.45847315
22	0xbed4e283	-0.41579065
23	0xbf327b8b	-0.6971976
24	0x3e06395b	0.13107817
25	0xbea11dae	-0.31467956
26	0xbf1a610f	-0.6030435
27	0xbf14832b	-0.58012646
28	0xbe27dd87	-0.163931
29	0xbec047d9	-0.37554815
30	0xbf06da91	-0.52677256
31	0xbd5702dd	-0.052492965
32	0xbe51db61	-0.20493843
33	0x3dbb7d2f	0.09154736
34	0xbe9f8e35	-0.31163183
35	0xbf319552	-0.6936847
36	0xbe61598f	-0.2200682
37	0xbf318911	-0.6934977
38	0xbeede71c	-0.46465385
39	0xbe88f22b	-0.2674726
40	0xbfdb7d0b	-1.7147535
41	0xbfa8ca82	-1.31868
42	0x3e821c15	0.2541205
43	0x3e32485c	0.17410415
44	0xbf0a0ef8	-0.5392909
45	0xbe06e438	-0.13172996
46	0x3f2d2e37	0.67648643
47	0x3eb04230	0.34425497
48	0x3f08b70a	0.53404295
49	0xbed10cfc	-0.4083022
50	0xbe833720	-0.25627995
51	0xc0053b43	-2.081742
52	0x3fa8b288	1.3179483
53	0xbf5938f1	-0.8485251
54	0x3e5ea881	0.21743967
55	0x3de078c8	0.10960537
56	0xbe8d8d7c	-0.27647007
57	0x3fa0ebc5	1.2571951
58	0x3dbe5d7c	0.092951745
59	0x3d4ed4ec	0.050496027

encoder.gru.bias_hh_l0 f4 [60]
0	0xbc68875b	-0.0141924275
1	0x3e47032d	0.19434805
2	0x3cfc6c35	0.030813316
3	0x3e096018	0.13415563
4	0x3e719e25	0.23595484
5	0x3d4dcac5	0.050242204
6	0x3ed2cdc0	0.411726
7	0x3ec2e843	0.38067827
8	0xbddefd48	-0.10888153
9	0xbab84092	-0.0014057329
10	0x3e986d8e	0.29771084
11	0xbe74f542	-0.23921683
12	0xbd810c23	-0.06301143
13	0x3e9da8a8	0.30792737
14	0x3e4f6875	0.20254691
15	0x3e0517df	0.12997387
16	0x3e8c370f	0.27385756
17	0x3e40e711	0.18838145
18	0x3e3005d3	0.17189722
19	0x3dabb822	0.0838473
20	0xbeea1866	-0.4572174
21	0xbf2085ea	-0.62704337
22	0xbf148369	-0.58013016
23	0xbf0b5d59	-0.5443931
24	0x3e41bf0c	0.18920535
25	0xbe58d7f9	-0.21176137
26	0xbf37830f	-0.71684355
27	0xbec1a29f	-0.37819383
28	0xbe83ecd9	-0.25766638
29	0xbdddcbca	-0.10829885
30	0xbf18ae38	-0.59640837
31	0xbea7612c	-0.32691324
32	0xbe575bd6	-0.21031126
33	0x3d38c7f7	0.045112576
34	0xbf0b34ee	-0.5437764
35	0xbf165aa1	-0.5873204
36	0xbe63a2e7	-0.22230111
37	0xbf34ec8f	-0.7067346
38	0xbf11244c	-0.5669601
39	0xbe9b70d7	-0.30359527
40	0x3f07d001	0.53051764
41	0x3f08f00d	0.5349129
42	0xbeb7ea61	-0.35921004
43	0xbf076fd8	-0.52905035
44	0x3ee9f0dd	0.45691577
45	0xbdae44b4	-0.08509198
46	0xbf02ab45	-0.51042587
47	0xbf1729a2	-0.590479
48	0xbe3ad5f9	-0.18245687
49	0x3f176732	0.5914184
50	0x3e39040a	0.18067947
51	0x3f32552b	0.69661206
52	0xbf5369c3	-0.82583255
53	0x3c5af6c9	0.013364502
54	0xbf285298	-0.6575103
55	0x3e9c7a03	0.30561838
56	0x3e805b50	0.25069666
57	0xbefc0997	-0.49226066
58	0xbf033b8f	-0.51262754
59	0x3e136783	0.14394955

decoder.embedding.weight f4 [3000, 20]
0	0x3d5accb0	0.05341786
1	0xbf3baacb	-0.73307484
2	0xbfa9c765	-1.3263975
3	0x3fc2a985	1.5207983
4	0x3f37e16e	0.71828353
5	0x3f8f2cc9	1.1185542
6	0x3edd8dff	0.43272397
7	0xc0281b23	-2.6266563
8	0x4018c0d7	2.38677
9	0x40291cbb	2.6423786
10	0x3fd86a0d	1.6907364
11	0xc0106ae0	-2.2565231
12	0x3eb3abae	0.3509192
13	0xbfe945c3	-1.8224415
14	0xbf35e4fa	-0.71052516
15	0x4024cc72	2.5749784
16	0x40073da6	2.1131377
17	0x3fe8f9d6	1.8201244
18	0x3fe8588c	1.8152022
19	0xbfaa1e34	-1.3290467
20	0x3d1d8a89	0.038462196
21	0x3f1db3ee	0.61602676
22	0x3e549496	0.20759806
23	0xbf9b1d08	-1.2118235
24	0x3e5e1078	0.2168597
25	0x3ef5056c	0.478557
26	0x3c21a4f0	0.009865984
27	0x3fc80d0d	1.5628983
28	0x3de8410b	0.11340531
29	0x3c5fcce1	0.013659687
30	0x3ef086f6	0.46977967
31	0xbfcd36f1	-1.6032392
32	0x3d159903	0.036522876
33	0x3ef00633	0.4687973
34	0x3fe04305	1.7520453
35	0x3f0083e4	0.5020125
36	0x3fbf4056	1.4941509
37	0x3f27a727	0.6548943
38	0xbf4dd62e	-0.8040494
39	0x3f100a3c	0.56265616
40	0xbfb7ab66	-1.4349182
41	0x3fa2ed79	1.2728721
42	0xbf8f8ac1	-1.1214219
43	0x3e6efb7f	0.23338126
44	0x3e2a273c	0.16616529
45	0xbe06a9b6	-0.13150677
46	0x3fb0cd6e	1.3812692
47	0xbf6963bd	-0.91167814
48	0x3d6930cb	0.0569313
49	0xbf6970ca	-0.9118773
50	0x3e46706d	0.19378825
51	0x3f2e546c	0.6809757
52	0x3fc4314b	1.5327543
53	0x3f8971e8	1.0737886
54	0xbf09f08a	-0.5388266
55	0x3eb5060c	0.35356176
56	0x3f4172ad	0.75565606
57	0x3f4f275f	0.8091945
58	0x3f92e438	1.1475897
59	0xbea7158c	-0.32633626
60	0x3f1b470f	0.606553
61	0xbe91edfd	-0.28501883
62	0xbf87bdbb	-1.0604776
63	0x3f40189c	0.7503755
64	0xbf6ec958	-0.93275976
65	0x3f8e0a0d	1.1096817
66	0xbf957f3c	-1.1679454
67	0x3ed0d82e	0.40789932
68	0x3dcd300f	0.10018932
69	0x3fafc412	1.3731711
70	0x3f2be0c3	0.67139834
71	0x3e836b98	0.25668025
72	0x3f60786c	0.8768375
73	0x3e6a4707	0.22878657
74	0xbf15f86f	-0.58582205
75	0xbe71ab1a	-0.23600426
76	0x3e87e24c	0.26539838
77	0xbf3223f1	-0.6958609
78	0x3f766373	0.962455
79	0xbf55f6fa	-0.8357998
80	0x3ee397af	0.44451663
81	0xbe212d62	-0.15739968
82	0x3e7da5fb	0.24770348
83	0xbfb502ea	-1.4141514
84	0x3e8cf40a	0.27529937
85	0x3ba688c6	0.0050822226
86	0x3f5684be	0.837963
87	0x3eb785d5	0.35844293
88	0x3f8cfb32	1.1014159
89	0xbe197789	-0.14987005
90	0x3f4acb59	0.79216534
91	0xbefe3e8f	-0.49657103
92	0xbf79e37f	-0.97612756
93	0xbfe07275	-1.753493
94	0x3faedd52	1.3661292
95	0xbffa996f	-1.9578074
96	0xc008c6c9	-2.137133
97	0x3edd5353	0.43227634
98	0x3fb13e0e	1.3847063
99	0x3ee1e8ec	0.44123018
100	0xbf9b362c	-1.2125907
101	0x3e754c21	0.23954822
102	0x3e74f16d	0.23920222
103	0xbe455279	-0.19269742
104	0x3d793ba7	0.060847905
105	0x3e9da27e	0.30788034
106	0x3d6bf9a8	0.057611138
107	0xbf430685	-0.76181823
108	0x40181d6f	2.3767965
109	0x3f8a792f	1.0818232
110	0x3f36b5e4	0.71371293
111	0x3ea69ddb	0.3254231
112	0xbe61bcb8	-0.22044647
113	0x4005a1ed	2.0880082
114	0xbeb60c37	-0.35556194
115	0x3f5b60b7	0.8569445
116	0xbec590e8	-0.38587117
117	0x3fe1bbbd	1.7635418
118	0x3f86871e	1.0509984
119	0xbf8a76fa	-1.0817559
120	0xbfda1667	-1.7038087
121	0x3f0492ac	0.51786304
122	0x3fce8170	1.6133251
123	0xbefad98f	-0.4899411
124	0xbf0a6c23	-0.54071254
125	0x3fa54a3f	1.2913283
126	0xbfbe4485	-1.486466
127	0xbfc22c69	-1.5169803
128	0x3f04554e	0.51692665
129	0x3e1e2396	0.15443262
130	0x400c4497	2.1916864
131	0xbf462448	-0.7739911
132	0xbcd3d0a3	-0.025856322
133	0x3daa26be	0.08308171
134	0xbf94e0dc	-1.1631122
135	0xbf0eb831	-0.55749804
136	0x3ef3d234	0.4762131
137	0x3fab0493	1.3360771
138	0xbda11125	-0.07864598
139	0x3fbccf69	1.4750797
140	0x3f4bc3b4	0.79595494
141	0xbf55bb3b	-0.83488816
142	0xbf212d36	-0.6295961
143	0xbf66d924	-0.9017508
144	0x3dbc62df	0.09198546
145	0x3eb6c38f	0.35696074
146	0x3efa6c7c	0.48910892
147	0x3fa5829c	1.2930484
148	0xbdce6b58	-0.10079068
149	0xbe5684fe	-0.2094917
150	0x3fb6996c	1.4265571
151	0x3f480212	0.7812816
152	0xbf4bbb64	-0.7958281
153	0x3e5ee278	0.21766078
154	0x3ed527b5	0.41631857
155	0x3f228122	0.6347829
156	0x3e2990ab	0.16559093
157	0xbfd0ffa6	-1.6328018
158	0x3f06ef10	0.5270853
159	0x3f15fb5c	0.5858667
160	0xc0111814	-2.2670946
161	0x3f9cf532	1.2262328
162	0xbed6dd5b	-0.41965756
163	0xbe526e20	-0.20549822
164	0xc0129f18	-2.2909603
165	0xbf1258de	-0.5716685
166	0xbe175b98	-0.14781034
167	0x3cc42e42	0.023947839
168	0x3fe304fc	1.7735896
169	0x3f264258	0.6494498
170	0xbf7fb1f2	-0.998809
171	0x3f3c765a	0.7361809
172	0x3f43213c	0.76222587
173	0xbf5c3eb4	-0.8603318
174	0x3ecd2eda	0.40074807
175	0xbf82ea91	-1.0227834
176	0x3ef77784	0.4833337
177	0x3e610ad5	0.21976788
178	0x3f8e8654	1.1134744
179	0xbf4181db	-0.7558877
180	0xbf1d1698	-0.613626
181	0xbef1b0e5	-0.47205272
182	0xbe3484f5	-0.17628844
183	0x3e8d9fd9	0.27661017
184	0x3ff9ab8e	1.9505479
185	0xbec9afa0	-0.39391804
186	0xbfa4f073	-1.2885879
187	0x3baa76fb	0.005202172
188	0xc0052c69	-2.0808356
189	0x3f764376	0.9619669
190	0x3fdaa809	1.708253
191	0xbfcaaf14	-1.583468
192	0x3e4228fa	0.18960944
193	0xbf026078	-0.5092845
194	0x3e27e8ae	0.16397354
195	0xbfaf3163	-1.3686947
196	0xbf0891ac	-0.5334728
197	0x400718fb	2.1108997
198	0x3fdccf9f	1.7250861
199	0xbf9bccb3	-1.2171844
200	0x3f3b33b2	0.73125756
201	0x3fb7477c	1.431869
202	0x3f86ba19	1.0525542
203	0x3e5dc92a	0.21658769
204	0xbeff3b03	-0.4984971
205	0xbe2cd627	-0.16878568
206	0x3f832bf0	1.0247784
207	0x3ec8bed2	0.39208084
208	0xbf9d2b75	-1.2278887
209	0x4000d94c	2.0132627
210	0x3f842e3e	1.0326612
211	0x3e4e3d07	0.20140468
212	0x3f220b9f	0.6329898
213	0x3fab156f	1.3365916
214	0xbf01e7db	-0.5074441
215	0x400b4bb0	2.1764946
216	0xbf5be201	-0.8589173
217	0xbf6a31ea	-0.9148241
218	0x3e8bd760	0.27312756
219	0xbf9dd287	-1.2329873
220	0x3fc8c77c	1.5685878
221	0xbf0c1358	-0.54717016
222	0x3fd2daac	1.6472983
223	0x3eae4c76	0.3404271
224	0xbe50ebe8	-0.20402491
225	0xbfe84113	-1.8144859
226	0x3ef2148a	0.47281295
227	0xc0212de3	-2.5184257
228	0x3e3ba78a	0.1832563
229	0x3dba33b9	0.090918966
230	0x3cb1cf12	0.021705184
231	0x40025aab	2.036784
232	0xbf2b6215	-0.66946536
233	0x3f738096	0.9511808
234	0xbfa0b952	-1.2556555
235	0xbd4bc1e9	-0.049745474
236	0xbcd8439d	-0.026399428
237	0x3f9f9c23	1.2469524
238	0x3f9779bf	1.1834029
239	0x3e95abac	0.29232538
240	0x3fc6d25f	1.553295
241	0x3f5d9a6a	0.8656374
242	0x3f176415	0.5913709
243	0xbf3d4765	-0.73937064
244	0xbf1350e1	-0.57545286
245	0x3f83bf2d	1.0292717
246	0xbf157ca8	-0.58393335
247	0xbf3ddccf	-0.7416505
248	0x3f517585	0.81819946
249	0xbf5c0921	-0.8595143
250	0xbf88d5a8	-1.0690203
251	0x3fe090c7	1.7544183
252	0x3f64aa23	0.8932211
253	0xbd20d72f	-0.039267715
254	0x3fffbb5e	1.9979055
255	0x3f3b4f5e	0.7316798

decoder.gru.weight_ih_l0 f4 [60, 20]
0	0x3c60a2ed	0.0137107195
1	0xbe81263e	-0.2522449
2	0x3d0fe417	0.035129633
3	0xbd133fb4	-0.035949424
4	0xbe076f28	-0.13225996
5	0xbda23a2c	-0.07921252
6	0xbe321ddc	-0.17394203
7	0xbdf075f9	-0.117412515
8	0x3b15f57e	0.002288192
9	0x3bba6a89	0.0056889695
10	0x3c81e630	0.015856832
11	0x3e0db5b2	0.13838843
12	0xbd04c39c	-0.03241311
13	0x3d96027d	0.07324693
14	0x3d896baf	0.06709992
15	0xbe49956d	-0.19685908
16	0xbe51ff71	-0.205076
17	0xbdb1beaa	-0.086789444
18	0x3c823948	0.015896454
19	0xbd3be763	-0.045874964
20	0x3e37cb14	0.17948562
21	0xbe89d28c	-0.26918447
22	0xbe549ad3	-0.20762186
23	0x3d3f6719	0.04672918
24	0xbc273100	-0.010204554
25	0x3d60a334	0.054843143
26	0xbe8490cc	-0.2589172
27	0xbe0d1d07	-0.13780604
28	0x3ccdca48	0.02512087
29	0xbe69b63a	-0.2282342
30	0x3d30d250	0.04316932
31	0xbe3e0e31	-0.18560101
32	0x3e1e7d21	0.1547742
33	0xbe395d36	-0.18101963
34	0x3da14479	0.07874388
35	0x3d332948	0.04374054
36	0xbdf2a4ba	-0.11847825
37	0x3d2eb76f	0.042655405
38	0x3df03d2d	0.11730418
39	0x3dc6c843	0.09706166
40	0xbdff3e94	-0.12463108
41	0xbee18a89	-0.44051006
42	0xbe449aa8	-0.19199622
43	0x3e48e9af	0.19620393
44	0x3d8a5da0	0.06756139
45	0x3e333bac	0.17503232
46	0x3c4c7e26	0.012481248
47	0xbeef4a8a	-0.46736556
48	0x3ed97a9c	0.42476356
49	0x3efc5db4	0.4929024
50	0x3eb7510d	0.35804024
51	0xbe179673	-0.14803486
52	0xbe420606	-0.1894761
53	0xbeb9c6ba	-0.3628443
54	0xbe40cd1f	-0.18828247
55	0x3e3244a4	0.17408997
56	0x3dde2b52	0.108481064
57	0x3e08ade3	0.13347583
58	0x3e40b4a6	0.18818912
59	0xbd890a57	-0.06691425
60	0x3e197894	0.14987403
61	0xbda7fb4d	-0.08202229
62	0xbe9bdb4b	-0.30440745
63	0x3dd0b58a	0.10190876
64	0xbdf0e7d2	-0.11762966
65	0x3e319bb4	0.17344552
66	0x3e909add	0.2824315
67	0xbf2382e2	-0.63871586
68	0x3e28fa2a	0.1650168
69	0x3ea5247e	0.32254404
70	0x3e919cd1	0.28439954
71	0xbf1cfe02	-0.61325085
72	0xbe586d4f	-0.21135448
73	0xbe6c1605	-0.23055275
74	0xbe7a37d8	-0.24435365
75	0x3ea98b7a	0.33114225
76	0x3eefa9f6	0.46809357
77	0x3f01b223	0.5066244
78	0x3ea1a3e7	0.3157036
79	0xbe895251	-0.26820615
80	0x3e2ba663	0.1676269
81	0xbed1be3c	-0.4096545
82	0xbe48d1f2	-0.19611338
83	0x3eab9d9d	0.33518687
84	0xbe0db973	-0.13840275
85	0x3e7edda7	0.24889241
86	0x3df43d0f	0.119257085
87	0xbedf8f4a	-0.43664008
88	0xbbf7bc62	-0.007560299
89	0x3e71b300	0.2360344
90	0x3eced909	0.4039996
91	0xbdf502ca	-0.119634226
92	0xbd81284e	-0.06306516
93	0xbde15cf1	-0.11004055
94	0xbe8d0342	-0.27541548
95	0x3ea59258	0.32338214
96	0x3ecb19ef	0.39668223
97	0x3e1be66a	0.15224615
98	0x3e6307ce	0.22170946
99	0x3c87eb63	0.016591733
100	0x3db845b1	0.089976676
101	0xbe12bd21	-0.1432996
102	0xbdf49c72	-0.11943902
103	0x3d05841c	0.032596692
104	0xbb5d3747	-0.0033754872
105	0x3ddd4c2d	0.10805545
106	0x3e2eb2e1	0.17060424
107	0xbe874f9e	-0.2642793
108	0x3e9bad31	0.30405572
109	0x3e107962	0.14108804
110	0x3d5889e5	0.05286588
111	0xbf2200bd	-0.63282377
112	0xbe73eed2	-0.23821571
113	0xbcd3fd9b	-0.025877764
114	0xbea09932	-0.3136688
115	0x3eb5864a	0.35454017
116	0x3ea02007	0.31274435
117	0xbd4f4710	-0.05060488
118	0x3ea38864	0.31939995
119	0xbe88d0a1	-0.2672167
120	0xbe3f0193	-0.18652944
121	0xbd826f23	-0.06368854
122	0x3dc0982f	0.09404027
123	0xbde333f0	-0.11093891
124	0x3d9c5749	0.07633836
125	0x3df0dc92	0.117608204
126	0x3da2e346	0.07953505
127	0xbda105d7	-0.07862442
128	0xbe27562a	-0.16341463
129	0xbd091d48	-0.03347519
130	0x3ec49126	0.3839199
131	0xbda83bbe	-0.0821452
132	0x3de14855	0.11000124
133	0x3cf46081	0.029831173
134	0x3d19e155	0.03756841
135	0xbe1c9887	-0.1529256
136	0x3e2a2dab	0.16618983
137	0xbdf43e5a	-0.11925955
138	0x3e9ecf5c	0.31017578
139	0xbdbd79b1	-0.092517264
140	0xbe903483	-0.28165063
141	0xbe9729fe	-0.29524225
142	0xbeaabfde	-0.33349508
143	0x3e8f0df1	0.27940324
144	0x3e2a2ed8	0.16619432
145	0x3ba455a2	0.005015091
146	0x3dc7a58a	0.09748371
147	0xbe84945e	-0.25894445
148	0x3e92cf34	0.28673708
149	0x3ecedbeb	0.4040216
150	0x3ec6e0de	0.38843435
151	0xbe936abf	-0.28792378
152	0xbe5b470e	-0.21413824
153	0xbdd099b6	-0.10185568
154	0xbe851c58	-0.25998187
155	0x3e2d528a	0.16926017
156	0x3e890809	0.26763943
157	0x3e8168f2	0.2527538
158	0x3e10176d	0.14071436
159	0xbeb8d6f5	-0.361015
160	0xbd7112b7	-0.05885574
161	0xbec1b909	-0.37836483
162	0x3d32f192	0.04368741
163	0x3ec4d9d1	0.3844743
164	0xbd2328a3	-0.039833676
165	0x3e26eb06	0.16300592
166	0xbd1da130	-0.0384838
167	0xbee8690e	-0.4539265
168	0x3e15ff8e	0.14648268
169	0x3e1386e1	0.14406921
170	0x3e0f38af	0.13986467
171	0xbe9fcf0e	-0.31212658
172	0x3c2be31b	0.010491158
173	0xbe8ff62a	-0.28117496
174	0xbec4dff2	-0.38452107
175	0x3e14318c	0.14472026
176	0x3ecb11a4	0.39661896
177	0x3dde12e9	0.108434506
178	0x3e28c802	0.16482547
179	0xbe37e2e5	-0.17957647
180	0xbe32b7de	-0.17452952
181	0xbe8018a4	-0.250188
182	0xbe487397	-0.19575344
183	0x3eb2050a	0.3476947
184	0xbe3e4e75	-0.18584616
185	0x3dfdcbc4	0.12392381
186	0x3e56d15f	0.20978306
187	0xbede753d	-0.4344882
188	0x3e464f78	0.19366252
189	0x3ed299b8	0.41132903
190	0x3e3975e5	0.1811138
191	0xbef19013	-0.47180232
192	0xbdfbf72b	-0.12303003
193	0xbe90e535	-0.2829987
194	0xbeb43667	-0.35197756
195	0x3eb27212	0.34852654
196	0x3ef170cd	0.47156373
197	0x3f01ed5e	0.5075282
198	0x3ec3390d	0.38129464
199	0x3d3e9e5b	0.04653774
200	0x3cb76102	0.022385124
201	0x3e1a144e	0.15046808
202	0xbd3318d5	-0.043724854
203	0xbb2e80a2	-0.0026626964
204	0xbe0b0689	-0.13576712
205	0xbe72c7ee	-0.2370908
206	0xbe78c61f	-0.24294327
207	0xbd60540d	-0.054767657
208	0xbe81f2c5	-0.2538053
209	0xbe1976d6	-0.14986739
210	0xbd99ee3d	-0.075161435
211	0xbe321d25	-0.1739393
212	0x3dcfc0fc	0.10144231
213	0x3d2e3b8f	0.04253727
214	0xbdf012d3	-0.117223404
215	0xbec8aa47	-0.3919241
216	0x3df076e6	0.11741428
217	0xbe5fccac	-0.2185542
218	0x3dac5be5	0.08415965
219	0x3e88f660	0.2675047
220	0xbe2a8520	-0.16652346
221	0xbe7a989f	-0.24472283
222	0x3d4560cc	0.048188016
223	0x3eb6f855	0.35736337
224	0x3cbc4e28	0.022986487
225	0x3e94a4dc	0.29032028
226	0xbdb318a2	-0.08744933
227	0xbeb0da4b	-0.34541544
228	0x3e4c5710	0.19955087
229	0xbd9bc59a	-0.07606049
230	0x3ec165b0	0.37772894
231	0xbe12c982	-0.14334682
232	0xbd751632	-0.05983562
233	0xbe8abd76	-0.27097672
234	0xbe9ad9e8	-0.30244374
235	0x3eac936d	0.33706227
236	0x3e831288	0.25600076
237	0x3e515030	0.20440745
238	0xbcafb48c	-0.021448396
239	0x3a93b56c	0.0011269278
240	0x3e4012d8	0.18757188
241	0xbd83af31	-0.064298995
242	0x3e1ca3ac	0.15296811
243	0x3c910bcc	0.01770582
244	0xbcf7aa97	-0.03023271
245	0x3c1bdfd6	0.009513816
246	0xbd82ea6d	-0.063923694
247	0x3e47522f	0.19464944
248	0xbc1147e6	-0.00886724
249	0xbdf7a4cd	-0.1209198
250	0xbdbe6791	-0.092970975
251	0xbdb1dca3	-0.08684661
252	0xbe7597e3	-0.23983721
253	0x3d7c3a49	0.061579023
254	0xbe114862	-0.14187768
255	0x3e3ea4ff	0.18617629

decoder.gru.weight_hh_l0 f4 [60, 20]
0	0x3f14021d	0.57815725
1	0xbe805efc	-0.25072467
2	0x3dcafab9	0.09911103
3	0x3d4fc37e	0.050723545
4	0x3e66b927	0.22531568
5	0x3e61111f	0.21979187
6	0xbcb2b3c8	-0.021814242
7	0xbdc891dd	-0.09793446
8	0xbc994797	-0.018710895
9	0xbe27f494	-0.16401893
10	0xbdb9b817	-0.090683155
11	0xbdbe592d	-0.09294353
12	0xbe165ba1	-0.14683391
13	0xbc8434c0	-0.016138434
14	0xbe3cbcb8	-0.18431365
15	0xbe005d61	-0.12535621
16	0x3c66d4cb	0.01408882
17	0xbcd58cfc	-0.026068203
18	0xbc8c0be1	-0.017095508
19	0xbdca1846	-0.09867911
20	0x3e148325	0.14503153
21	0x3e72baab	0.2370402
22	0xbe8292ca	-0.25502616
23	0x3e06c5cd	0.13161393
24	0xbe81d674	-0.25358927
25	0x3e36e490	0.17860627
26	0x3e755c88	0.23961079
27	0x3eadce7d	0.339466
28	0x3cead040	0.028663754
29	0x3d8f10a5	0.069855966
30	0xbee92e39	-0.45543078
31	0x3de14c55	0.11000887
32	0x3c3b73bb	0.0114411665
33	0x3d623ef3	0.055235814
34	0xbcc5f233	-0.024163341
35	0xbe3b63fe	-0.18299863
36	0xbddb447c	-0.10706422
37	0x3de63482	0.11240484
38	0x3dbab36d	0.09116254
39	0x3e05df99	0.13073577
40	0x3ecb74e2	0.39737612
41	0x3e2b0593	0.16701345
42	0x3d747373	0.059680413
43	0xbd8240c3	-0.063600086
44	0x3e20b2df	0.15693234
45	0xbe151e34	-0.14562303
46	0xbebb5117	-0.36585304
47	0xbe3e7975	-0.1860102
48	0xbe08d874	-0.1336382
49	0xbda19529	-0.07889778
50	0xbe25ef52	-0.16204575
51	0xbca97e87	-0.020690216
52	0xbe61bddc	-0.22045082
53	0xbe9b67e2	-0.30352694
54	0x3db87e26	0.09008436
55	0xbd4ffd76	-0.05077883
56	0x3e19f54a	0.15034977
57	0x3d4c8c4b	0.04993848
58	0xbd885d13	-0.066583775
59	0xbd072666	-0.032995604
60	0x3e06d8ef	0.13168691
61	0xbd4996c3	-0.049216043
62	0xbde4300f	-0.11141979
63	0x3e1b2795	0.15151818
64	0x3b898425	0.004196661
65	0xbe9f2d3e	-0.31089205
66	0xbd2b2910	-0.041787207
67	0xbccb4a41	-0.02481568
68	0x3e158a7f	0.14603613
69	0x3e0d9be4	0.13828999
70	0xbdbb6d81	-0.091517456
71	0xbec6445e	-0.38724035
72	0x3e3eede4	0.18645436
73	0xbd59e3e9	-0.053195868
74	0xbda8f3cd	-0.08249626
75	0x3d0d2798	0.034461588
76	0x3e395bac	0.18101376
77	0xbe3db90a	-0.18527618
78	0x3e01361b	0.12618296
79	0x3cbcfbaa	0.023069222
80	0x3e9936bb	0.2992457
81	0xbd703c33	-0.05865116
82	0xbe1aff8a	-0.15136543
83	0x3cf0aba2	0.029378716
84	0x3df9f861	0.12205578
85	0x3dbc2f1c	0.09188673
86	0xbe1242d3	-0.14283304
87	0xbd8cad2f	-0.0686897
88	0xbd4a47fc	-0.049385056
89	0x3e92e249	0.28688267
90	0xbf1de513	-0.61677665
91	0xbde3c8d0	-0.11122286
92	0xbeb7ae04	-0.3587495
93	0xbe0c498b	-0.1369993
94	0x3ddaab0a	0.10677154
95	0xbe5cdfff	-0.21569823
96	0x3d8eecc5	0.06978754
97	0x3d5f1957	0.054467525
98	0x3d387558	0.045033783
99	0x3bbc5560	0.005747482
100	0x3e43bdc7	0.19115363
101	0x3e8df71e	0.27727598
102	0xbeb813ad	-0.3595251
103	0x3e2e61a5	0.17029436
104	0xbb6220cf	-0.0034504419
105	0xbdd4f385	-0.1039801
106	0xbe209c7f	-0.15684699
107	0x3e514dae	0.20439789
108	0xbd9689fc	-0.07350537
109	0x3e1415d4	0.14461452
110	0xbe137a1c	-0.1440205
111	0xbdac3400	-0.08408356
112	0xbe2d5074	-0.16925222
113	0xbe31d1c5	-0.17365177
114	0xbebd6f80	-0.3699913
115	0xbe9c3940	-0.30512428
116	0x3e51412d	0.20435019
117	0xbeac2fcc	-0.33630216
118	0xbcf941e4	-0.030426927
119	0x3cc9a1a5	0.024613211
120	0x3ee68425	0.45022693
121	0x3c8b6df1	0.017020198
122	0xbe47d5ac	-0.19515103
123	0x3d290b4f	0.04127055
124	0xbf1cc9fb	-0.612457
125	0x3eac719c	0.33680427
126	0x3ec25d8e	0.37962002
127	0x3eb07a71	0.34468415
128	0xbd4769bb	-0.048684817
129	0xbd9f7d1c	-0.077875346
130	0xbedd747f	-0.43252942
131	0x3d82ba94	0.06383243
132	0xbe00c587	-0.1257535
133	0x3e0f8dd8	0.14018953
134	0x3deb12d2	0.11478199
135	0xbf327905	-0.6971591
136	0xbc494067	-0.012283421
137	0xbec42df1	-0.383163
138	0xbe6d9d33	-0.23204498
139	0xbeca2772	-0.3948322
140	0x3f39ab71	0.72527224
141	0xbe1ab2d7	-0.15107284
142	0xbf2296dd	-0.6351145
143	0x3e1db446	0.154008
144	0xbd36c3e8	-0.044620425
145	0x3eed2cd5	0.46323267
146	0xbe03e9d2	-0.12882164
147	0xbd8ad62a	-0.0677913
148	0xbe1f1c51	-0.15538146
149	0x3ed762ec	0.4206766
150	0xbd5b77dc	-0.053581104
151	0x3d802277	0.06256574
152	0xbdca491d	-0.098772265
153	0x3dafe203	0.0858803
154	0x3cc1feae	0.023681011
155	0xbdfb378b	-0.12266453
156	0xbdb29cee	-0.08721338
157	0xbc5dec30	-0.013545081
158	0x3d55f6e9	0.052237425
159	0xbd834570	-0.064097285
160	0x3d346377	0.04404017
161	0x3cbb18a6	0.022838902
162	0xbdb8c6f3	-0.090223216
163	0xbe478bd0	-0.19486928
164	0xbe128708	-0.14309323
165	0xbcc7c92f	-0.024387924
166	0xbd38b604	-0.04509546
167	0x3d73223b	0.059358817
168	0x3dec7cfe	0.11547278
169	0x3dee79e3	0.11644342
170	0x3d2b01e4	0.04174985
171	0x3e385d33	0.18004303
172	0x3e3ade03	0.18248753
173	0xbe2a1e9e	-0.16613242
174	0xbeb90342	-0.36135298
175	0xbd88f6ee	-0.06687723
176	0xbd282dcc	-0.0410593
177	0x3e017509	0.12642302
178	0x3cb5478a	0.022128839
179	0x3dfb7219	0.12277622
180	0x3e25e66f	0.16201185
181	0x3d694e8e	0.05695968
182	0xbe465ba9	-0.19370903
183	0xbe390d32	-0.1807144
184	0xbcdbe078	-0.026840433
185	0x3d9eec9b	0.07759973
186	0x3d2f40ce	0.042786412
187	0xbe4be600	-0.19911957
188	0xbea33f31	-0.3188415
189	0xbe609de5	-0.21935232
190	0xbe70d5e6	-0.23519096
191	0xbe024ad6	-0.1272386
192	0xbd818e5d	-0.06325982
193	0xbe9bdf28	-0.30443692
194	0xbd0a932c	-0.03383176
195	0xbe8cb9df	-0.27485558
196	0xbda4b1ad	-0.080417015
197	0xbe22cf4b	-0.15899388
198	0x3dc45190	0.09585869
199	0x3e37bb52	0.17942551
200	0xbda1d0a9	-0.07901127
201	0x3d9cd70f	0.07658207
202	0x3e8b846a	0.2724946
203	0x3e84f3bc	0.25967205
204	0x3dac9ff3	0.084289454
205	0xbe8809e2	-0.2657004
206	0xbe940b40	-0.28914833
207	0xbe4278c2	-0.18991378
208	0x3e7ceb39	0.24699105
209	0xbe2bc7ad	-0.16775389
210	0xbf0680d7	-0.52540344
211	0xbeb17b8a	-0.34664565
212	0xbe775e55	-0.24157079
213	0x3deec74c	0.116591066
214	0x3e273ca2	0.16331723
215	0xbe2f21b5	-0.17102702
216	0xbe701b5f	-0.23447941
217	0x3e8de992	0.27717263
218	0xbe3df4aa	-0.18550363
219	0x3e2ec084	0.17065626
220	0x3df4894d	0.119402505
221	0xbcdc54bb	-0.026895871
222	0xbdd9c8f1	-0.1063403
223	0xbe36b5bf	-0.17842768
224	0x3df10ec8	0.117703974
225	0x3e78b2cb	0.24286954
226	0xbe88a6a6	-0.26689643
227	0xbda0912e	-0.07840191
228	0xbd805a8c	-0.062672704
229	0x3e1ad6cf	0.15121005
230	0xbe9666b7	-0.2937524
231	0xbb157e9a	-0.0022811056
232	0xbe994a7f	-0.29939649
233	0x3ddee6ad	0.10883842
234	0x3f00b8f6	0.5028223
235	0x3e7c91ce	0.24664995
236	0x3e20edf8	0.15715778
237	0x3e357cce	0.1772339
238	0x3d2d669a	0.042334177
239	0xbe6a04a6	-0.22853336
240	0x3e5b6596	0.2142547
241	0xbe8f2fdf	-0.2796621
242	0xbd310d79	-0.04322574
243	0xbdb92d75	-0.09041873
244	0xbe827230	-0.25477743
245	0x3e25788a	0.16159263
246	0x3ddd8b11	0.108175404
247	0x3d8c2da8	0.06844646
248	0x3e1bd383	0.15217404
249	0x3df37ca5	0.118890084
250	0xbf03b81c	-0.51452804
251	0x3c52947f	0.012852787
252	0x3e8ecc2d	0.2789015
253	0x3e9dd0c3	0.30823335
254	0x3ee02de5	0.43785015
255	0xbe22e185	-0.15906341

decoder.gru.bias_ih_l0 f4 [60]
0	0x3fc2f9de	1.5232503
1	0x3f6d9454	0.92804456
2	0x3f7f40a8	0.9970803
3	0x3f3b89d9	0.73257214
4	0x3f7b3ac7	0.9813656
5	0x3f86f3ea	1.0543187
6	0x3f5c9f2f	0.86180395
7	0x3f251f5e	0.6450099
8	0x3f9e1837	1.235114
9	0x3f4e8d27	0.8068413
10	0x3f2fa9c3	0.6861841
11	0x3f763bab	0.96184796
12	0x3f48e24a	0.7847029
13	0x3e6594f5	0.22420104
14	0x3fa32f1f	1.2748755
15	0x3f95e27b	1.1709741
16	0x3f83c322	1.0293925
17	0x3f5c4e4d	0.8605698
18	0x3f898b24	1.0745587
19	0x3f71f065	0.9450744
20	0x3eacb48f	0.33731505
21	0x3f31f5c7	0.6951565
22	0x3e723078	0.23651302
23	0x3f86c1a1	1.0527841
24	0x3e5011fc	0.2031936
25	0x3e2dafe4	0.16961628
26	0x3e884dab	0.26621756
27	0x3ee8d9ec	0.4547876
28	0x3d0ec027	0.03485122
29	0x3f2bb553	0.67073554
30	0x3ee612aa	0.44936115
31	0x3eb2aa96	0.34895772
32	0x3f46b1c1	0.7761498
33	0x3fba4dd1	1.4554998
34	0x3e5f7a20	0.2182393
35	0x3ebf3b6d	0.37350026
36	0x3f2bfa14	0.67178464
37	0x3f65d515	0.8977826
38	0x3e3f8780	0.18704033
39	0x3ee4fa70	0.4472232
40	0x3dff4fac	0.12466368
41	0xbeb63b87	-0.3559229
42	0xbe9e8bf2	-0.30966145
43	0xbece132f	-0.4024901
44	0xbe969a0c	-0.29414403
45	0x3f24c1c3	0.64358157
46	0x3e858f6b	0.26085982
47	0xbd915260	-0.0709579
48	0xbe1ca5c9	-0.15297617
49	0x3d970bf4	0.07375327
50	0xbe282c03	-0.16423039
51	0x3df33a67	0.11876374
52	0x3e2338cd	0.15939637
53	0xbe5d4441	-0.21608068
54	0x3e150e44	0.14556223
55	0xbe4a133f	-0.19733904
56	0xbeac21f0	-0.33619642
57	0x3e0bba72	0.13645342
58	0x3cd05402	0.025430683
59	0xbbe09a91	-0.0068543633

decoder.gru.bias_hh_l0 f4 [60]
0	0x3fca7691	1.5817434
1	0x3f90f6a3	1.1325268
2	0x3f97c492	1.1856863
3	0x3f3cfe05	0.73825103
4	0x3f56ec2f	0.8395414
5	0x3f78371b	0.96959084
6	0x3f44856c	0.76766086
7	0x3f436ce6	0.7633804
8	0x3f5d970e	0.86558616
9	0x3f7ff93b	0.9998967
10	0x3f07c8cf	0.53040785
11	0x3f21598d	0.6302727
12	0x3f820d3a	1.0160286
13	0x3e815425	0.2525951
14	0x3fa664ab	1.2999471
15	0x3f83aa9b	1.028644
16	0x3f3a1725	0.72691566
17	0x3f6f8d59	0.93575054
18	0x3f7ccb39	0.98747593
19	0x3f841ea6	1.0321853
20	0x3f4318a1	0.76209456
21	0x3ef77d03	0.48337564
22	0xbd9dbf6d	-0.07702527
23	0x3f7e58d0	0.9935427
24	0x3bd90389	0.006622736
25	0x3e5055d4	0.20345241
26	0x3edd6d47	0.43247434
27	0x3eac1e2f	0.33616778
28	0x3e3186b7	0.17336546
29	0x3f757d19	0.9589401
30	0x3e9ed626	0.31022757
31	0x3ed21e3e	0.41038698
32	0x3ed81b61	0.42208388
33	0x3fa3f074	1.2807755
34	0x3e82c5ac	0.25541437
35	0x3e8e17b3	0.27752456
36	0x3f0b580f	0.5443124
37	0x3f434fc1	0.7629357
38	0xbdc237a3	-0.09483268
39	0x3f5875be	0.8455466
40	0x3e5c0f83	0.21490292
41	0xbd2641ac	-0.040589973
42	0xbecbcc69	-0.3980439
43	0xbc9483c6	-0.01812924
44	0xbc1e6cdf	-0.009669512
45	0x3e3847b8	0.17996109
46	0x3f2fe7c6	0.68713033
47	0x3dc64021	0.096802
48	0x3d0857fc	0.033287033
49	0xbc775e1c	-0.015098121
50	0xbe972717	-0.2952201
51	0x3da8b62b	0.08237871
52	0x3e119d4f	0.14220165
53	0xbed955a0	-0.4244814
54	0x3e54ff67	0.20800553
55	0xbe8728eb	-0.26398405
56	0xbf23d146	-0.639912
57	0x3d3df6a1	0.04637778
58	0x3d2c1952	0.042016335
59	0xbda776d3	-0.08176961
