Experiments/MY/all_attributes/models/autoencoder_model_op.pt (torch, 4367 bytes, 12 tensors)

encoder.0.weight f8 [4, 1]
00000000: 38b1 c853 136b eb3f 511f 0b4e be41 f3bf
00000010: c61c b3ce d827 22c0 464f 8677 63d8 d33f
0.8568207394032816 -1.2035506294796117 -9.07782598434859 0.31008230850533314

encoder.0.bias f8 [4]
00000000: 9742 c299 7c5b e4bf f111 cd2d 9505 e93f
00000010: 0c71 4af3 78b5 e0bf 9838 270d bf27 c2bf
-0.6361678126432534 0.7819314856101852 -0.5221524001858895 -0.14183796064611864

encoder.2.weight f8 [2, 4]
00000000: 2da1 2434 0218 f73f c8a4 7164 2404 f4bf
00000010: cf88 ae95 02e6 da3f e098 e017 5875 903f
00000020: be92 e131 35d7 d63f 02b3 d23f 3dde e8bf
00000030: f9f8 e9fe d400 e3bf e4f2 74ac ea3f 60bf
1.443361476596759 -1.2510112689581536 0.4202887021766743 0.016072632272106868 0.3568852412338791 -0.7771288153213336 -0.5938515642917813 -0.001983602854720311

encoder.2.bias f8 [2]
00000000: 4c90 0251 9a9a e7bf 097a 443d 2aa9 c7bf
-0.7376224119402734 -0.18485000602318305

decoder.0.weight f8 [4, 2]
00000000: e4e5 aa05 770c 0940 072e e70b cf55 d6bf
00000010: 50a8 750f 73e7 1bc0 3cbc 1c55 6da9 e0bf
00000020: f40a 634c bdc6 e0bf 396b 6174 be8f ff3f
00000030: ea66 95c8 48cb 0d40 9d41 8f00 1a20 1f40
3.1310863917139944 -0.34898735201269954 -6.976024858051531 -0.5206820165966586 -0.5242601863795628 1.9725937410464225 3.7242599173158526 7.7813491904675205

decoder.0.bias f8 [4]
00000000: b65d feba 862e df3f 7e05 7039 2ca8 f6bf
00000010: 1404 8d07 15c8 d73f f309 5f64 2e22 f63f
0.4872147394284768 -1.4160578006415956 0.3715870450724321 1.383345024180582

decoder.2.weight f8 [1, 4]
00000000: 4915 50cf 64dd 0140 222a 5bae d02b 02c0
00000010: 573c d7cd bc0f 06c0 7e9b 5580 eab6 03c0
2.233102435714191 -2.2713941213198874 -2.7576843339261745 -2.4643144632458975

decoder.2.bias f8 [1]
00000000: 6f5f db9b aaa5 bb3f
0.10799661927319247

mu.weight f8 [2, 2]
00000000: e11e d967 3379 d5bf 7e15 3839 a19b d73f
00000010: 51f1 a452 d79f d7bf ec38 c890 17d9 b3bf
-0.3355225099698896 0.36887388789940434 -0.3691309268067658 -0.07753131184310619

mu.bias f8 [2]
00000000: ed3b dae3 a12b d6bf 8340 d28e d8bd d3bf
-0.34641310931414077 -0.30846227595703385

gamma.weight f8 [2, 2]
00000000: c58c 33e2 b0bf 913f 6366 621b ec79 5e3f
00000010: 632b 2dba ba33 703f abef 0fa6 2d73 85bf
0.017332805448756945 0.0018601232273226735 0.003955583003356053 -0.010473591451947891

gamma.bias f8 [2]
00000000: 4d20 7d58 8700 6f3f e6f3 ea41 b106 4c3f
0.003784431788435716 0.0008552899851889089
