seq_to_seq/edges_only/variations/hid-20__NLLLoss/seq2seq_best_sum_1.pt (torch, 754903 bytes, 12 tensors)

encoder.embedding.weight f4 [3000, 20]
000000 e8 dc 07 3f 7d b9 e4 bf da 28 f7 3e 43 5c 17 c0
       0.5307145 -1.7869107 0.48273355 -2.3650062
000010 96 0e 5b be a2 e1 d3 3f 88 97 af 3d 43 93 d6 bf
       -0.21392283 1.6553233 0.08573824 -1.6763691
000020 81 4f 20 be c8 a1 09 40 9f 80 c5 bf 4e a7 db bc
       -0.15655328 2.1504993 -1.5429877 -0.026813176
000030 ca d1 aa bf 3f a6 d0 be 18 f8 b6 bd 82 be 0c c0
       -1.3345273 -0.40751836 -0.08934039 -2.1991277
000040 5b 42 85 3f e5 63 65 be 39 28 57 bf d1 1f 88 c0
       1.0410875 -0.22401388 -0.8404575 -4.253884
000050 b4 16 51 bc e9 bf 1c 3f 31 3e 2e bf 1b 38 86 bf
       -0.0127617605 0.6123033 -0.68063647 -1.0485872
000060 f1 21 68 be ef e9 dd bf fc 71 dd bc 85 fd b6 3e
       -0.22669198 -1.7337016 -0.027031891 0.35740295
000070 09 7f b3 bf 1d 02 3b 3f 05 ee 01 bf c1 dd aa 3f
       -1.4023143 0.730501 -0.50753814 1.3348924
000080 f8 93 ac bf 35 4b 57 3f 85 56 c7 bf 83 5e 2a bf
       -1.3482656 0.8409913 -1.5573279 -0.66550463
000090 83 49 92 be 84 58 00 bf 49 31 fe bf c0 06 20 3f
       -0.2857171 -0.50135064 -1.9858791 0.625103
0000a0 e4 94 89 3f 84 05 1b 3e 5d 44 03 bf 7d f1 b9 bf
       1.0748563 0.15138823 -0.5127619 -1.4526821
0000b0 cc 32 fe 3f 2d 2e 8a bf fd db bc 3f 1d 61 b1 3d
       1.9859252 -1.0795342 1.4754635 0.08661101
0000c0 a8 a2 d7 3f dc 9e 7f be b9 ce c6 bf a5 1a da bf
       1.6846514 -0.24962944 -1.5531837 -1.7039381
0000d0 ad 88 e8 bf 92 a8 27 3f ba 5b c2 bf 46 8f ed 3e
       -1.816671 0.6549159 -1.5184243 0.4639837
0000e0 e9 d3 d1 3f 35 0c d3 3f 9f 91 c2 3e 67 c7 47 3f
       1.6392795 1.64881 0.38001725 0.7803864
0000f0 8a 2f 27 be 52 60 ec bf f3 9b 03 c0 92 22 1c 3f
       -0.16326728 -1.8466895 -2.0563934 0.6099025
000100 7c 76 29 3f 07 fc 13 3f 4d 92 41 3e 15 21 ea bc
       0.6619642 0.5780644 0.18903466 -0.028580228
000110 df db bc 3e 84 8a 79 bf 1f 26 29 3e 3e d9 0b 3f
       0.36886498 -0.97476983 0.16518448 0.5462836
000120 72 84 0f be 5f 8d 5c be 2d a0 0c c0 a7 91 6b 3f
       -0.14015368 -0.21538304 -2.1972764 0.9201912
000130 3f 28 6c 3f 72 4f e3 bc c9 32 84 bf 6d c9 65 3f
       0.9224891 -0.027747843 -1.0327998 0.89760476
000140 93 bd 01 3e 62 0f 35 bf 0a 33 bb be c5 32 73 bf
       0.12669973 -0.707266 -0.36562377 -0.94999343
000150 e1 8c db 3e 45 ec c7 3e 96 9e 3f be 40 f1 5d 3e
       0.4288092 0.39047447 -0.1871284 0.21674061
000160 33 74 67 3f 38 c5 9c bf 77 f1 8f be 8f 9a 47 bf
       0.9041168 -1.2247686 -0.2811391 -0.7797021
000170 f4 6d 82 3d a2 54 33 40 9b d3 d9 bf 17 07 d1 3d
       0.06368628 2.8020406 -1.7017702 0.102064304
000180 ab 3b 6f 3f 44 bf e2 3f ac 6c 33 be 16 00 25 be
       0.9345042 1.771462 -0.17521924 -0.16113314
000190 c9 be 96 3f 64 b3 ba 3f ca f7 5d bf bf 7f 41 be
       1.1776973 1.4585996 -0.8670622 -0.18896388
0001a0 c0 48 66 bf f7 3f d4 3d 97 bd e5 bf 57 bc 9c 3f
       -0.8995476 0.10363763 -1.7948483 1.2244977
0001b0 54 61 bc 3e 9d ca 38 3c 81 fa 00 3e 44 c7 6b 3f
       0.36793005 0.0112787755 0.1259556 0.9210093
0001c0 aa 0e 40 3f 03 19 e2 be 0b 2b 2b 40 7b 7c 1f 40
       0.75022376 -0.44159707 2.6745021 2.4919727
0001d0 dd 87 81 bf ad b6 85 bf be ba b8 3f db c6 9f 3f
       -1.0119587 -1.0446373 1.4431989 1.2482561
0001e0 f3 b1 27 be 2c b6 9e bf 21 3e 07 bf 4d 9a c9 3f
       -0.16376476 -1.2399344 -0.52829176 1.5750214
0001f0 8b 84 b5 3e 33 81 40 bf 1c 32 94 3f 3b 36 e3 3e
       0.35452685 -0.7519714 1.1577792 0.44377312
000200 84 36 06 bf f9 7a 5a bf 64 de a5 bf 29 93 3a 3f
       -0.52426934 -0.8534389 -1.2958493 0.728808
000210 05 52 ce 3f 7a ac f9 3d 10 84 12 bf c8 f8 bb bf
       1.611878 0.121911004 -0.5723276 -1.4685297
000220 1d 9f 12 c0 e4 52 c7 3e 75 0a 7f bf bd 6f 7e bf
       -2.2909615 0.38930428 -0.9962533 -0.9938925
000230 f0 16 5f 3f 92 20 5c bf ad f2 79 3f c9 26 44 3f
       0.87144375 -0.859872 0.9763592 0.7662168
000240 85 55 c3 be 88 4d aa 3e c6 1f 03 3f 1d 71 03 c0
       -0.38151184 0.33262277 0.5122036 -2.053779
000250 16 79 b8 bf 9c 89 09 bf 8b 40 99 3f 3a 57 c0 3e
       -1.4411952 -0.537256 1.1972822 0.3756655
000260 33 98 e8 bf cc db 35 be 22 88 5f 3f f8 d1 ff bf
       -1.8171448 -0.17759627 0.873171 -1.9985952
000270 bc 71 d7 be aa 18 96 be be 72 98 be e7 b8 1c c0
       -0.4207896 -0.29315692 -0.2977504 -2.4487855
000280 78 6a 0e bf 1e b6 85 bf db 39 33 bf 2d 35 0f 3f
       -0.5563121 -1.0446203 -0.70010155 0.55940515
000290 f7 17 95 3e 39 77 d1 bd 98 1e 83 3d 22 b4 56 3f
       0.29119846 -0.10227818 0.0640232 0.8386861
0002a0 e6 e0 f1 bf 4a a0 db bf 18 4d cd 3f 47 f9 78 3f
       -1.8896759 -1.7158291 1.6039152 0.9725537
0002b0 6e 1c 9f bd 12 35 a3 3d 29 44 57 bf c5 f6 b0 3d
       -0.077690944 0.07969107 -0.8408838 0.086408176
0002c0 b7 27 60 3c 09 3a 7c bf d5 07 71 bf 03 3b da be
       0.013681344 -0.98526055 -0.94152576 -0.42623147
0002d0 dc 86 df 3e a6 e0 08 bf fe ea 58 bf a4 b2 2d 3f
       0.43657577 -0.53467786 -0.8473357 0.6785071
0002e0 1a 25 ee 3e 23 9b 7f 3e 59 51 d0 be 4e 6b 5e 3f
       0.4651268 0.24961524 -0.40687063 0.86882484
0002f0 8e 90 65 be 48 6d 07 40 c2 b9 9e bf 63 ef ac 3f
       -0.22418424 2.116045 -1.2400439 1.3510555
000300 64 aa 75 bf d3 e0 42 3f ef f9 0d bf 50 ed ea 3f
       -0.9596312 0.76124305 -0.55459493 1.8353672
000310 89 79 cc 3f 15 42 05 3f 10 bc 01 3f 86 b7 26 bf
       1.597459 0.5205396 0.50677586 -0.65123785
000320 8e 41 5a 3f 9f e6 85 bf 32 5f f4 3f ad be 54 bf
       0.8525628 -1.0461005 1.9091551 -0.8310345
000330 3a 0f 49 3d 80 5f 61 bf 92 3f 79 bf ac e3 07 c0
       0.049086787 -0.88036346 -0.97362626 -2.123271
000340 75 be e5 3e cd ca 99 bf 7b 7c 80 bf f5 44 11 bf
       0.4487187 -1.2015015 -1.0037988 -0.56745845
000350 fb a3 58 bf e7 a7 55 3f 14 69 43 3c 3d 5f cc 3e
       -0.84625214 0.83459324 0.011926908 0.3991641
000360 13 39 ef 3e b3 be cd be 42 aa 54 3f 3b eb 39 bf
       0.46723232 -0.40184554 0.8307229 -0.7262456
000370 c3 11 8d 3f 86 1d d7 3f 76 68 b4 bd 4d 63 d8 be
       1.1021045 1.6805885 -0.08808987 -0.4226326
000380 8e 4e 5f 3f 24 fb 85 3d b7 85 61 be 38 cd 53 40
       0.8722924 0.06542042 -0.22023664 3.3094006
000390 a1 56 7b 3e 6b 49 62 be bd fe 7d 3f c3 39 96 3e
       0.24544765 -0.22098319 0.99216825 0.29340944
0003a0 a1 0c 59 3e b3 5a 15 c0 2b d6 ad bf 40 db 37 3f
       0.21196224 -2.3336608 -1.3580984 0.71818924
0003b0 84 51 22 be 7c 5c 88 3d 9c e6 81 bf eb a5 8f 3e
       -0.15851408 0.06658265 -1.0148501 0.28056273
0003c0 c6 72 93 be 8d 01 7d 3e 3b b4 ae bc 5f f8 ae bd
       -0.28798503 0.24707623 -0.021326175 -0.08543467
0003d0 43 30 30 3e eb 3f 4c 3f 93 c3 b1 be 94 22 ab bf
       0.1720591 0.7978503 -0.34719524 -1.3369927
0003e0 d5 54 47 be bc b9 7f bc 4a 87 53 bf 1d 1e 55 3e
       -0.19465955 -0.015608247 -0.8262831 0.20812269
0003f0 78 bc 8a bf b0 42 b9 bc 0d cf 39 3f 93 a2 2f bf
       -1.0838766 -0.022614807 0.7258156 -0.68607444

encoder.gru.weight_ih_l0 f4 [60, 20]
000000 7e e9 b4 3d 4c 1c f8 bd 7b 5a 71 3f fd 08 0d 3f
       0.088335976 -0.12114772 0.9427869 0.5509184
000010 b9 2e 05 be 78 ec f5 3d fb bb e7 be 44 bf 14 3e
       -0.13006105 0.120079935 -0.45260605 0.14526087
000020 fb 2f 6a 3f f6 b7 59 bf b2 37 7e 3e 39 29 d2 3e
       0.9147946 -0.8504633 0.24825934 0.41047075
000030 57 87 f3 3d ae 0b ab 3d 56 73 24 3f 4a 48 f9 be
       0.118910484 0.08351837 0.6423849 -0.48687965
000040 76 83 4d be 94 f8 6f bf 5b 3a 9c bf 31 2d 6c be
       -0.2006968 -0.93738675 -1.2205309 -0.23064114
000050 d9 47 55 bf fe f8 ee be 26 e9 34 3f 7f e2 08 3f
       -0.83312756 -0.4667434 0.70668256 0.53470606
000060 2d fb f7 be 72 82 53 bf f0 00 9b be a7 aa e2 3e
       -0.4843382 -0.8262092 -0.30274153 0.44270822
000070 d6 a6 d1 3e 27 2b de 3e ba 1b e2 bd 04 86 2e bf
       0.40947598 0.43392298 -0.11040445 -0.6817324
000080 fa 4a aa 3d 19 43 3e bf 6c 8d aa 3e 86 3d 08 3e
       0.08315082 -0.7432113 0.3331102 0.1330472
000090 b6 84 46 bf 6e 49 ac 3e 47 ab fd 3e 07 e3 59 bc
       -0.7754625 0.33649772 0.49544737 -0.013298756
0000a0 f8 d7 84 3e cf 4d c4 be b7 39 d6 be c6 ca 52 3e
       0.2594602 -0.38340613 -0.41840908 0.20585164
0000b0 c6 17 ea 3e dc 50 6d 3e 05 4f b4 be 3c 70 22 3f
       0.45721263 0.23175377 -0.35216537 0.63452506
0000c0 ce c5 86 be 41 27 85 be 48 c0 ca 3e f3 3d 80 3e
       -0.26322788 -0.2600651 0.39599824 0.25047264
0000d0 ce ec 32 be bd bd 74 3e e1 2f b2 3e 0d ad 03 bf
       -0.17473146 0.23900504 0.34802154 -0.5143593
0000e0 b1 7f 74 be 59 b4 55 be 7f 3c 9a bd 76 c3 94 be
       -0.23876835 -0.20869578 -0.0753107 -0.29055375
0000f0 e7 6d 69 be ee fa cd be a7 82 3f 3d 17 65 35 3d
       -0.2279583 -0.40230507 0.04675546 0.04428586
000100 f9 57 63 bc 17 6f ea 3e 96 7b 23 3d 8e b8 92 be
       -0.013875955 0.4578788 0.039912783 -0.2865643
000110 f9 ab c4 be 89 06 be 3d 66 1d a6 bd 08 cc 66 bd
       -0.38412455 0.0927859 -0.08111076 -0.056346923
000120 81 9d 13 3c 05 f3 c2 3d 92 40 0d 3e 0d 9b b4 be
       0.00900972 0.095190085 0.13794163 -0.35274544
000130 03 31 e2 be c8 ca ca 3e f4 c3 71 3c 2d 18 03 bf
       -0.44178018 0.39607835 0.0147561915 -0.51208764
000140 cf f6 f9 3e 6d f3 fe 3e 94 f8 e3 3e ba e1 9d bd
       0.48821113 0.49795094 0.44525588 -0.077090696
000150 da 75 18 3d 91 e4 ce 3e 58 84 9c be 8f 1c 3e bf
       0.037221767 0.40408757 -0.3056972 -0.74262327
000160 7f b1 c8 3e e1 2f 99 be 4a 7b 8b 3b b8 8e cb be
       0.3919792 -0.2991934 0.0042566406 -0.39757323
000170 45 bd cb bd b4 36 66 bd 32 0e 25 3f ca 5f a5 bd
       -0.0994821 -0.056204513 0.64474785 -0.08074911
000180 81 77 b9 3e 8e 29 34 3f 63 26 44 3e 22 b9 c0 3e
       0.36223987 0.7037591 0.19155268 0.37641245
000190 5e 17 3a ba c3 56 97 3d 2b 83 9b 3e 05 e9 98 3e
       -0.0007098819 0.07389595 0.3037351 0.2986528
0001a0 00 51 15 3f bd 43 9e 3d b0 b2 ae bd d7 50 69 3d
       0.5832672 0.07727764 -0.08530176 0.05696186
0001b0 ea 23 0f 3e b8 69 61 be 90 ca 55 bc 41 f9 20 bd
       0.13978544 -0.22012985 -0.013048783 -0.039300207
0001c0 48 7a 03 be 81 e9 1e bd 66 b6 b2 3e 96 c0 b3 3e
       -0.12839615 -0.038796905 0.34904784 0.3510787
0001d0 e0 31 2e bf cc cf 1d 3d a4 4d 11 be 24 e8 83 3e
       -0.68044853 0.03852825 -0.14189774 0.25763047
0001e0 19 5b e0 3e 71 26 04 3e 79 65 14 bf a3 86 5d 3f
       0.43819502 0.12905289 -0.57967335 0.86533564
0001f0 03 ef a5 be 8f d7 bf 3d ef 9b e7 be 90 06 59 be
       -0.32408914 0.093672864 -0.45236155 -0.2119391
000200 b1 31 26 bf 0c 5c cd bd c2 65 9f 3e 50 2d 2b 3f
       -0.64919573 -0.10027322 0.31132323 0.66866016
000210 4c e8 74 be a4 16 19 bf f7 47 2e bf fd 16 d3 3e
       -0.23916739 -0.5980017 -0.6807856 0.41228476
000220 c8 cf 91 be 7e 09 4a 3e 2d 41 13 3e 98 fc 97 bd
       -0.28478837 0.19730183 0.14380331 -0.07421225
000230 4a c9 f3 3e 6b 06 b1 3e 89 f6 0b 3e 20 a6 50 3e
       0.4761451 0.3457521 0.13668264 0.20375872
000240 fe 6c 08 3f 5d bd 03 3e 9e 14 b4 3e 2a 1a d4 3d
       0.5329131 0.12865205 0.3517198 0.10356553
000250 c4 34 42 3e 07 9a 16 3d b1 ce 82 bd e7 cc 38 be
       0.18965441 0.036767986 -0.063870795 -0.18046914
000260 ee ff ea bd ed 8c e3 3d 07 65 c2 3e 6e f4 f2 be
       -0.11474596 0.11110864 0.37967703 -0.4745211
000270 34 c8 54 be 65 55 99 3e e8 f4 00 3b ec 64 09 bf
       -0.20779496 0.29947963 0.0019677226 -0.5366962
000280 0d 30 cf 3d 2e eb 14 3e dc 38 54 be 62 98 3f be
       0.10116587 0.14542839 -0.20724815 -0.18710473
000290 1a 72 b2 be 4d 81 8b bd 2c da 11 bf 4d a8 e1 be
       -0.34852678 -0.068117715 -0.5697353 -0.44073716
0002a0 a8 89 31 3e 9c 88 71 3e 1a fc 50 bb 7b ec d7 3e
       0.17337668 0.23587269 -0.0031888545 0.42172608
0002b0 9a 31 80 3e ff a2 ad be fb e3 9b be a8 8e 2f bf
       0.25037843 -0.3391342 -0.30447373 -0.6857705
0002c0 b6 4a 83 3e 2b 6c 8f be c6 a5 4d be cc eb 14 bf
       0.25642937 -0.28012213 -0.20082769 -0.581723
0002d0 0d 97 73 3e ee f6 4a 3d d2 e1 d9 be 77 ff 3a 3f
       0.2378809 0.049551897 -0.425551 0.7304606
0002e0 0e 0a 31 3e 38 68 08 3e c0 7c b3 bd cc 21 7a 3e
       0.17288992 0.13321006 -0.087640285 0.24426955
0002f0 4d 62 31 bd 9c 40 5d 3e 26 af 00 3f 75 63 26 be
       -0.043306638 0.21606678 0.50267255 -0.16248877
000300 92 fa 14 3e 94 15 a1 3e ae 7b 56 bd 48 3e 2c 3f
       0.1454871 0.31461775 -0.052364044 0.67282534
000310 48 51 2f be 3f 46 da bd 20 96 e1 3e 33 0a e1 3c
       -0.1712085 -0.1065793 0.4405985 0.027470684
000320 2e 55 3a bf dc b5 60 bf 9f e7 06 be b3 5c 76 be
       -0.72786224 -0.87777495 -0.13174294 -0.240588
000330 84 2a f5 be 88 82 d0 be 72 d5 b4 3e 9e 9f 10 3e
       -0.47884 -0.40724587 0.35319096 0.14123389
000340 cd 78 1f 3e 6a 6c 18 bf 70 80 a0 be a9 b7 a2 3d
       0.15573426 -0.59540427 -0.3134799 0.07945187
000350 48 02 20 be 89 27 b1 3d 13 02 a7 3c 10 d8 21 3d
       -0.1562587 0.08650119 0.020386731 0.039512694
000360 99 34 e7 be 8e f0 09 bf de 2f e5 be 22 e6 67 3e
       -0.45157316 -0.5388268 -0.44763082 0.22646382
000370 68 81 9f be 99 fe 3f bf 26 dc 1c 3f e3 40 7b bd
       -0.31153417 -0.7499786 0.6127342 -0.061341178
000380 b6 bc 46 bf 5b 3f ca be 59 b6 ae 3e cb c6 13 bf
       -0.776317 -0.3950146 0.34123495 -0.5772521
000390 37 46 86 bf 8b 3c cf 3b 9b 85 e4 3e 8a 80 4e 3d
       -1.0490178 0.006324356 0.44633183 0.050415553
0003a0 48 50 7b 3d da 0d 80 3e 78 a0 03 bf b9 3a a1 bf
       0.06135586 0.25010568 -0.5141673 -1.2596046
0003b0 b7 4a 1c bf b9 9c 05 3f 1f 08 50 3d 76 7f a4 be
       -0.61051506 0.52192265 0.050788995 -0.32128495
0003c0 1e 09 83 3e 41 b1 b0 3f b1 fb c1 3e d8 6b 9c 3d
       0.25592893 1.3804094 0.37887338 0.07637757
0003d0 a5 93 c8 3e 9e eb ec be e2 2a 50 be 7b 87 92 3f
       0.39175144 -0.46273512 -0.20328858 1.1447595
0003e0 36 cb 04 3d ef cd 05 bd ad 97 1a bf b8 cd f4 3d
       0.03242036 -0.032667097 -0.6038769 0.119533
0003f0 b5 2a 53 be 35 ca d7 3d 8f ca d3 3e f5 97 33 bd
       -0.2062176 0.10536615 0.41365477 -0.04384609

encoder.gru.weight_hh_l0 f4 [60, 20]
000000 2b 31 b9 3e a5 fd 50 3e 62 d3 ce 3c cf 6d e4 bc
       0.36170325 0.20409258 0.02524728 -0.027884392
000010 f8 97 f6 3e d0 40 19 3f 71 79 8c 3e 2f 31 b7 3e
       0.48162818 0.5986452 0.27436402 0.35779712
000020 8b b1 10 3f e3 33 27 3e 8c a4 df bc df be 3f 3e
       0.5652091 0.16328387 -0.027300142 0.18725155
000030 5a fe 1f 3d 46 37 1a bd 52 65 e3 3d 37 21 36 be
       0.039060928 -0.03765037 0.1110331 -0.17786108
000040 ca 9b 5a 3e b8 f5 4c be 09 00 d0 3d 75 e0 0a 3e
       0.21348491 -0.2001561 0.10156257 0.13562186
000050 30 b0 48 3e c6 46 9b 3e 3e 32 1b be e4 ef 3c 3e
       0.1959846 0.30327433 -0.15155885 0.18450886
000060 1e 69 c2 be 0e 3d 14 3d cc 80 d0 be c8 42 1a 3d
       -0.37970823 0.03619104 -0.40723264 0.037661344
000070 1a 16 04 bd 7a 89 ed bd d9 bf bd be 2b 7f a4 bc
       -0.03224764 -0.11598487 -0.3706043 -0.02008017
000080 74 6e b0 3d 0c ee d2 bd ba 56 2e bd c3 83 63 bc
       0.08614817 -0.1029931 -0.042563178 -0.013886395
000090 77 7e 42 be 8f 68 15 be e8 90 81 be f9 24 a4 be
       -0.18993555 -0.14590667 -0.25305867 -0.32059458
0000a0 d9 b5 5e be e2 26 84 bd 0c 7c d0 be 03 91 ab bd
       -0.21749057 -0.06452729 -0.4071964 -0.08377268
0000b0 84 8e 00 bf c3 d9 ff bd c8 67 01 bf f0 d7 98 be
       -0.5021746 -0.124927066 -0.5054898 -0.29852247
0000c0 36 d0 f2 be 8c 3d 05 be 41 14 4d be ed 80 bb 3c
       -0.47424477 -0.1301176 -0.20027258 0.022888625
0000d0 b6 d1 af 3e c2 d6 ce be e7 97 ba be b0 f0 45 3e
       0.34339684 -0.40398222 -0.36444017 0.19330096
0000e0 92 97 30 be aa f6 24 be 7e e5 0f 3d 05 ad 88 be
       -0.1724532 -0.1610972 0.03513097 -0.26694503
0000f0 72 7d 94 bc 52 b5 3a bd 60 52 02 3d 3f 0b a7 be
       -0.018126223 -0.045583077 0.03181684 -0.32625768
000100 7c 27 e3 bc 2e a0 2c 3e 40 91 7c be 6c c5 81 be
       -0.027728789 0.16857979 -0.24664783 -0.25345933
000110 75 9a a7 be bd 83 95 be cd 03 8e bc 05 d1 32 3e
       -0.3273503 -0.2920207 -0.017335797 0.17462547
000120 b1 9f 23 bd 06 0a f0 bd 32 a9 16 3d f2 2e 67 3e
       -0.039947215 -0.11720662 0.03678245 0.22576502
000130 f6 f1 8d bd 0d bf 50 be 40 d7 92 bd 71 43 17 be
       -0.06930916 -0.2038538 -0.07169962 -0.1477182
000140 eb d7 0f 3f 06 8d a7 bc e7 c8 79 3d a2 ee be be
       0.5618884 -0.020452987 0.06098261 -0.37291437
000150 7d bb 0a bd e5 03 aa 3d ad b6 e9 be 40 33 a0 be
       -0.03387021 0.08301524 -0.45647183 -0.312891
000160 5c c3 8f be 47 be 0e 3d 60 29 8d bd 3a cf 06 bd
       -0.28078735 0.03484943 -0.06892657 -0.03291247
000170 af 89 24 3d c1 a4 8d be ee 3e f7 bc 76 06 54 3e
       0.040170368 -0.2766476 -0.030181374 0.2070559
000180 ea e7 55 3e 7d a3 8c bc ee f2 17 be 08 a8 e0 3c
       0.2088925 -0.017167801 -0.14838764 0.027423874
000190 7b 6d 5e 3e fd b5 aa 3e c9 67 fb 3d 13 be d0 bc
       0.21721451 0.3334197 0.12275655 -0.02548126
0001a0 c2 27 f1 3d 44 f1 35 3c 6b 22 d3 bd 05 17 2d be
       0.11775161 0.0111048855 -0.10309299 -0.16903313
0001b0 0d 77 1d be 4c 31 07 3d 47 44 81 be 61 16 d3 bc
       -0.15377446 0.033005998 -0.25247404 -0.025767507
0001c0 a0 bc 3d ba 34 ea 94 be b6 4f df 3c eb 91 ca bd
       -0.0007237885 -0.29084933 0.027259689 -0.09891113
0001d0 04 6b e4 bd 70 b7 df be 27 67 35 be a1 a2 1b 3e
       -0.11153224 -0.4369464 -0.17715131 0.15198757
0001e0 95 68 d5 3e 9c 5c 8e 3e 99 82 86 be ed af c9 bc
       0.41681352 0.2780503 -0.26271513 -0.02462002
0001f0 9b 38 60 be 96 db 04 bd 82 97 2d bf f2 b6 74 3c
       -0.21896593 -0.032435976 -0.6780931 0.014936196
000200 13 97 43 be eb ce ec bd 61 96 54 bd 7f af 03 be
       -0.19100599 -0.11562904 -0.051901225 -0.12859915
000210 41 ef fa 3d be fa 9d be c4 de e8 bc 16 e8 e8 3d
       0.12252665 -0.30855364 -0.028426535 0.11372392
000220 46 7f f2 3b c8 d9 f2 bd bb 36 e1 bd d7 f8 4e be
       0.007400426 -0.11857945 -0.10996767 -0.20212112
000230 f8 21 c8 3e 39 54 a1 3d 06 8e 4c be 34 f7 58 3d
       0.39088416 0.07877392 -0.19976053 0.052970126
000240 bd 93 15 bd 25 22 96 bc 95 54 ae be 86 0e b2 be
       -0.036517847 -0.018326828 -0.34048906 -0.34776706
000250 83 ac d1 bd dd 38 b0 3d ba e1 91 3d 2e 24 00 bc
       -0.10237982 0.08604596 0.07123132 -0.007821126
000260 5f 90 a7 bd ec 51 81 3d 27 00 c8 3d e1 63 7e 3e
       -0.081818335 0.063144535 0.09765654 0.24842788
000270 d1 b4 7b 3e fc 18 6d 3e 25 22 7c bd 48 6d 68 be
       0.24580695 0.23154062 -0.061556 -0.22697937
000280 93 f4 32 bd f3 21 f7 bc 9c be 9a be 71 06 f4 3c
       -0.043690275 -0.030167555 -0.30223548 0.029788228
000290 3d 27 d8 be 7e e4 97 bd a1 49 3a be 67 e7 15 be
       -0.42217436 -0.07416628 -0.1819215 -0.14639054
0002a0 4c 81 b4 be 3a 8c 58 be 5d 6b 45 be b0 d8 c1 3d
       -0.35254896 -0.21147242 -0.19279237 0.09465158
0002b0 fb 5a b9 3b 87 7b f9 bd 02 1b 1a 3e d2 95 9b 3e
       0.0056565977 -0.12181764 0.15049365 0.3038774
0002c0 9c 92 4b 3d 66 90 82 3d 5c a6 54 bd 2f 8c d9 bd
       0.049700364 0.06375198 -0.051916465 -0.10622441
0002d0 2a e5 83 bd ed 27 3a 3e c5 af 08 be ab 69 df 3d
       -0.06440194 0.18179293 -0.13348301 0.109088264
0002e0 7c 99 50 3e e3 d7 8f 3e 04 2d 7e be 46 3f 92 3e
       0.2037105 0.28094396 -0.2482186 0.285639
0002f0 db db f0 3e be 1f 39 3e 2f 00 28 3e 12 c4 b4 3d
       0.47042736 0.18078515 0.1640632 0.0882646
000300 0f 9b c6 3d 03 f8 00 b9 0d 86 05 3e ff 04 b0 3c
       0.09697544 -0.00012299423 0.13039418 0.021486757
000310 96 68 c9 3c 45 36 9e be d2 c2 30 3e 6a a5 a7 bd
       0.024586003 -0.3090078 0.17261818 -0.08185847
000320 92 ac 4e bd 0a bc 5f 3d 14 70 a4 3d 67 5a aa be
       -0.050457545 0.054622687 0.0802919 -0.33272097
000330 97 4b cd bb 1e e9 d8 be 09 ae 91 be 8e 52 b4 be
       -0.0062651145 -0.42365354 -0.2845309 -0.35219234
000340 aa 37 20 bf c1 8c 64 be ba 81 8c 3d 79 1b 8d be
       -0.62584937 -0.22319318 0.06860681 -0.27560022
000350 24 51 54 be c9 06 36 be 97 ea f4 be dc 58 be 3e
       -0.20734078 -0.17776026 -0.47835228 0.3717717
000360 bc f9 02 3e f2 e2 40 3e d2 9a 9c be b6 8f 16 bd
       0.12790579 0.18836573 -0.3058687 -0.036758147
000370 54 4f 18 3c a5 3a 9f 3e 6e 88 22 bd 7d ba 02 3e
       0.009296257 0.3109943 -0.03968089 0.12766452
000380 a9 d6 bf 3e 4c d9 cf 3e 34 91 b4 3d ea 49 3b 3f
       0.3746846 0.40595472 0.08816758 0.7315966
000390 f7 b3 96 3e d2 28 bc bd a2 e3 8d 3c ab 41 00 bd
       0.29434177 -0.09187473 0.017320458 -0.031312626
0003a0 28 b9 bf bd d0 1e 7f bd a1 8d 83 3e a2 b0 a2 be
       -0.093614876 -0.062285244 0.25693992 -0.31775385
0003b0 41 0b ab 3e 9e a0 99 bd 9a 28 1d 3e 96 1e b1 3c
       0.33407024 -0.075013384 0.1534752 0.02162103
0003c0 9a d6 a5 3e bd 50 4a 3e af c6 a9 3d 75 00 61 3d
       0.3239029 0.19757362 0.08289849 0.054932076
0003d0 da 2a 02 3d cd 3c 49 3e 6f 31 95 3d 58 ab 51 bd
       0.031779148 0.196521 0.07284819 -0.051188797
0003e0 eb 6a 43 be 3d 22 89 be b4 41 14 be 30 f7 91 3e
       -0.19083755 -0.26783934 -0.14478189 0.28508902
0003f0 07 ae c4 be 69 bc 20 3e 7c dd 49 bd ef 0a 57 3d
       -0.38414022 0.15696873 -0.04928349 0.05250066

encoder.gru.bias_ih_l0 f4 [60]
000000 f9 ef 4a 3e f0 30 20 bd 34 97 8e 3e af c2 ff 3e
       0.19818105 -0.03910917 0.27849734 0.4995322
000010 f3 64 e1 3d 95 b1 b1 3e 3a 76 d8 3e 36 3c 83 3e
       0.11005583 0.34705797 0.422777 0.25631875
000020 ac 9c 47 3d 4e 9b 93 3d 85 25 b8 3e d1 83 c6 bd
       0.0487334 0.072073564 0.35966125 -0.09693111
000030 3f ad 19 3e 2f 27 c3 3e 03 c0 f9 3e d8 fd 70 3d
       0.15007494 0.38115832 0.48779306 0.058835834
000040 24 f5 51 3e 49 a8 f0 bd 44 2c d6 3e 8c 29 c6 bd
       0.2050367 -0.11750848 0.41830647 -0.09675893
000050 5b c3 1d bf 3d 32 e8 be bb e1 d1 be a3 53 36 bf
       -0.61626214 -0.4535083 -0.4099253 -0.7122137
000060 6a c7 fe 3d 0e 8d 9c be 7f 30 17 bf 56 68 b1 be
       0.12440379 -0.30576366 -0.59058374 -0.34649915
000070 0b 3e 1d be 7e f3 c6 be bd e6 06 bf 97 4f c3 bc
       -0.15355699 -0.38857645 -0.5269583 -0.023841662
000080 f6 a8 59 be 68 d2 e2 3d 6c e7 97 be 23 6e 34 bf
       -0.2125586 0.11075288 -0.29668748 -0.70480555
000090 4c 14 67 be fd 75 2d bf 8b b9 f5 be 34 08 83 be
       -0.22566336 -0.6775816 -0.4799312 -0.25592196
0000a0 93 c2 db bf b7 11 ab bf 9d da 83 3e f3 25 13 3e
       -1.7168754 -1.3364781 0.25752726 0.14369945
0000b0 cb 61 07 bf b2 a4 80 be 07 ac 31 3f 21 23 a7 3e
       -0.52883595 -0.25125653 0.6940312 0.3264399
0000c0 44 87 03 3f 1e 79 be be 78 b9 7d be 4b ee 02 c0
       0.51378274 -0.3720178 -0.24777782 -2.0457942
0000d0 30 f2 a9 3f a3 9e 54 bf 45 97 47 3e f4 c9 d3 3d
       1.3277035 -0.8305456 0.19491298 0.10341254
0000e0 20 b1 88 be 77 7b 9f 3f 6b ef e0 3d d9 ec 21 3d
       -0.26697636 1.2459553 0.10983165 0.039532516

encoder.gru.bias_hh_l0 f4 [60]
000000 1b 14 81 bc b8 16 4b 3e f8 8d 16 3d 97 e1 1e 3e
       -0.015756657 0.19832885 0.036756486 0.15515743
000010 1f e1 74 3e f2 9c 03 3d 4c 64 d3 3e a4 74 be 3e
       0.23914002 0.032132097 0.41287458 0.37198365
000020 c3 27 e8 bd 6c 6b 8a bc f7 cc 90 3e e2 98 7c be
       -0.11335709 -0.016896926 0.28281376 -0.24667695
000030 1c f6 65 bd 83 02 9f 3e 0f 65 78 3e 24 fd c5 3d
       -0.05614291 0.31056604 0.24257301 0.09667423
000040 f8 19 85 3e 2e e6 45 3e 31 ce 38 3e e7 ff c0 3d
       0.25996375 0.19326088 0.18047406 0.094238095
000050 51 d1 f2 be 41 41 1f bf 82 02 13 bf 27 35 0f bf
       -0.4742532 -0.62208945 -0.574257 -0.5594048
000060 22 e9 3a 3e d2 b6 4f be c3 51 34 bf 19 0c 14 be
       0.18252996 -0.20284584 -0.7043726 -0.1445774
000070 2e 3c 7d be 79 7d f8 bd 29 ba 18 bf 73 b6 98 be
       -0.24729988 -0.12133307 -0.5965906 -0.29826698
000080 66 29 5f be fd b9 83 3d 58 63 07 bf 63 34 19 bf
       -0.21793136 0.06431959 -0.5288596 -0.5984556
000090 1f 5d 69 be 48 d9 30 bf 06 0c 15 bf 80 86 95 be
       -0.22789429 -0.69081545 -0.5822147 -0.29204178
0000a0 73 3f 0e 3f fe 10 09 3f 87 06 bd be 30 f0 08 bf
       0.55565566 0.53541553 -0.36919042 -0.534915
0000b0 f1 bb f3 3e 16 e9 38 bd 14 b1 00 bf d6 da 1b bf
       0.47604325 -0.045144163 -0.502702 -0.6088079
0000c0 3a 55 39 be d0 ea 1c 3f 00 63 45 3e 8d 4f 42 3f
       -0.18098918 0.61295795 0.19276047 0.75902635
0000d0 57 44 52 bf dd 86 e3 ba 82 87 27 bf d5 1e 9d 3e
       -0.8213553 -0.0017358918 -0.65441144 0.30687585
0000e0 51 55 8a 3e 2a 31 02 bf a5 4d 01 bf ef 73 1d 3e
       0.27018216 -0.5085627 -0.505091 0.15376256

decoder.embedding.weight f4 [3000, 20]
000000 bf 5b 33 be 8d 2a 3a bf ba ae a1 bf f0 65 c4 3f
       -0.17515467 -0.7272118 -1.2631447 1.5343609
000010 b8 4b 48 3f b8 7b 9c 3f a8 34 b4 3e 49 56 29 c0
       0.7824054 1.2225256 0.35196424 -2.6458914
000020 59 a2 1c 40 03 a4 2b 40 3d 49 d6 3f 46 5d 14 c0
       2.447409 2.6818855 1.67411 -2.318193
000030 51 75 c6 3e 73 4f ee bf 1c 24 3a bf 7f 96 25 40
       0.3876138 -1.8617996 -0.7271135 2.5873106
000040 50 9a 06 40 4f 2d d7 3f 06 cb cd 3f ea c9 b4 bf
       2.1031685 1.6810702 1.6077583 -1.4124119
000050 79 e4 fa 3c 1e a8 1b 3f 55 bd 55 3e fb d8 9b bf
       0.030626522 0.608034 0.20873006 -1.2175592
000060 27 31 59 3e 46 ae f2 3e 51 72 18 3c d6 06 c8 3f
       0.21210156 0.47398585 0.009304599 1.5627086
000070 35 7c f1 3d 8e 23 5b 3c 9d be ee 3e b3 62 cc bf
       0.11791269 0.013375176 0.466298 -1.5967621
000080 9e 69 1a 3d 8f 7f f0 3e 28 0d e0 3f 4c 90 00 3f
       0.03769838 0.4697232 1.7504015 0.5022018
000090 95 00 bf 3f 9f d0 27 3f 99 a7 4d bf 68 9e 10 3f
       1.4922053 0.65552706 -0.8033386 0.5649171
0000a0 dc 89 b7 bf 24 d4 a2 3f 22 8f 8f bf 85 2d 70 3e
       -1.4338946 1.272099 -1.1215556 0.23454864
0000b0 28 d1 22 3e f1 99 06 be bc 02 b0 3f 8b 37 6a bf
       0.159001 -0.13144661 1.3750834 -0.91491
0000c0 64 b1 6b 3d 1c 29 68 bf 4e b7 46 3e 0a 59 2d 3f
       0.05754222 -0.9068773 0.19405863 0.6771399
0000d0 d3 d8 c3 3f 35 67 89 3f b9 a3 09 bf f0 90 b7 3e
       1.5300545 1.0734621 -0.53765446 0.35852766
0000e0 7e 03 42 3f e1 fd 4e 3f 56 04 93 3f ac 0f a7 be
       0.7578658 0.8085614 1.1485698 -0.32629144
0000f0 95 70 18 3f a4 6a 8f be 72 94 87 bf 57 0c 3f 3f
       0.59546787 -0.28011048 -1.0592177 0.74628204
000100 94 cb 6e bf e4 14 8e 3f 33 9a 95 bf c7 ed d1 3e
       -0.93279386 1.1100125 -1.1687683 0.41001722
000110 b5 7c d0 3d 77 38 b0 3f b1 09 2c 3f b5 91 84 3e
       0.10180036 1.3767232 0.6720229 0.25892416
000120 bc fb 60 3f 7c 23 64 3e 1d c1 16 bf c4 6a 71 be
       0.87884116 0.22279161 -0.5888842 -0.23575884
000130 c0 60 87 3e a9 91 33 bf 39 53 76 3f f6 5c 55 bf
       0.26441002 -0.70144135 0.9622074 -0.8334497
000140 a6 fa f1 3e 28 2a 25 be 7f 47 7d 3e ad e7 b4 bf
       0.47261542 -0.16129363 0.24734305 -1.4133202
000150 c1 85 8d 3e b9 b4 d6 38 3d 67 50 3f d9 46 b8 3e
       0.2764111 0.000102379774 0.8140753 0.35991552
000160 be e0 8c 3f 2a 34 19 be a7 da 4a 3f 0b d3 00 bf
       1.1006086 -0.14961305 0.79239887 -0.50322026
000170 a3 80 7a bf 58 39 e1 bf fc c7 ae 3f 14 b9 fa bf
       -0.97852534 -1.7595625 1.365478 -1.9587731
000180 b2 a4 08 c0 7a 25 df 3e 86 3e b1 3f 73 f6 dc 3e
       -2.1350522 0.4358328 1.3847206 0.43156776
000190 7b 69 9a bf 16 18 6f 3e 28 37 6f 3e c4 ef 3b be
       -1.206344 0.23349032 0.23360884 -0.18353182
0001a0 f9 46 3d 3d 4e 2a a0 3e 70 f9 6b 3d 0d 5d 45 bf
       0.046210263 0.31282276 0.05761093 -0.7709511
0001b0 46 0c 18 40 29 84 8a 3f da 9f 39 3f 34 d4 a2 3e
       2.375749 1.0821582 0.7250954 0.31802523
0001c0 a2 44 5f be be 14 05 40 51 33 be be c5 b5 5a 3f
       -0.21803525 2.079391 -0.37148526 0.8543361
0001d0 ed 31 c2 be b2 be e2 3f a1 4e 86 3f de 55 89 bf
       -0.37928715 1.7714446 1.0492746 -1.072933
0001e0 94 b5 d8 bf d1 03 04 3f 55 1a cf 3f 21 17 fd be
       -1.6930413 0.51568323 1.6179911 -0.49431708
0001f0 8f 31 0d bf 9f aa a4 3f aa e5 bd bf 5c 2e c2 bf
       -0.55153745 1.286457 -1.4835713 -1.5170398
000200 a9 28 04 3f b4 92 23 3e 56 e1 0b 40 2d 7e 47 bf
       0.5162454 0.15973932 2.1856284 -0.77926904
000210 fd 98 c0 bc 29 7f ae 3d 14 96 93 bf 4b bc 0e bf
       -0.02351045 0.085203476 -1.1530175 -0.5575606
000220 ea 31 f5 3e 3c 28 ab 3f 9d 96 a8 bd 54 e9 bc 3f
       0.47889644 1.3371654 -0.08231852 1.4758706
000230 dd c4 4a 3f cf df 55 bf b6 3c 22 bf ce 40 68 bf
       0.7920664 -0.8354463 -0.6337389 -0.90723884
000240 00 a6 bc 3d 21 a8 b6 3e 46 32 fb 3e 8a d4 a4 3f
       0.092113495 0.35675147 0.49061793 1.2877362
000250 e6 7a ce bd da ec 5b be 15 2e b6 3f 99 d1 48 3f
       -0.10082035 -0.2147707 1.4232813 0.7844482
000260 a4 75 4a bf 9c 38 5d 3e 91 78 d4 3e de 58 22 3f
       -0.79085755 0.21603626 0.41498235 0.6341685
000270 c2 39 29 3e 84 c1 d0 bf 54 0c 08 3f 94 8d 14 3f
       0.16525939 -1.6309056 0.5314381 0.5802853
000280 54 a1 11 c0 6b 86 9d 3f 37 0b d7 be 97 3c 53 be
       -2.2754717 1.2306646 -0.42000744 -0.20628582
000290 ec c5 12 c0 06 26 11 bf 96 b8 1e be 06 3a 05 3d
       -2.2933302 -0.56698644 -0.15500101 0.03252604
0002a0 64 7a e2 3f 71 fb 25 3f 5f 1a 7f bf 02 46 3c 3f
       1.7693601 0.64836794 -0.99649614 0.73544323
0002b0 f7 37 44 3f c5 2c 5d bf 28 7a cc 3e cf 0f 83 bf
       0.76647896 -0.8639644 0.39936948 -1.0239199
0002c0 20 8f f7 3e c7 32 64 3e 6f d6 8d 3f e3 dd 43 bf
       0.48351383 0.22284995 1.1081065 -0.7651045
0002d0 b8 08 1b bf 66 ac f1 be 23 d4 33 be 07 c6 8b 3e
       -0.6056018 -0.47201842 -0.17561392 0.2729952
0002e0 c3 cd fa 3f 45 d1 c5 be 93 0b a5 bf 91 ff 26 3c
       1.9594043 -0.38636222 -1.2894157 0.010192768
0002f0 e3 1c 05 c0 2b f3 75 3f 95 d3 db 3f 52 c9 ca bf
       -2.079888 0.9607417 1.7173945 -1.5842688
000300 f3 73 43 3e 5a 80 02 bf 74 c0 23 3e d6 f4 ae bf
       0.190872 -0.509771 0.15991384 -1.3668468
000310 c0 2a 08 bf 98 ba 06 40 1f 15 db 3f 8c 42 9b bf
       -0.5319023 2.1051388 1.7115821 -1.2129683
000320 61 29 39 3f 8c 41 b7 3f 98 aa 86 3f 49 f5 5c 3e
       0.72328764 1.4316878 1.0520811 0.21577944
000330 49 98 fe be 97 d3 2d be ef 16 83 3f a5 ee c7 3e
       -0.4972556 -0.16975246 1.0241374 0.3904926
000340 e3 02 9d bf 1a cc 00 40 77 16 84 3f 66 03 4e 3e
       -1.2266506 2.0124574 1.0319356 0.20118484
000350 40 34 22 3f c0 b6 aa 3f 65 e2 01 bf 9b 44 0b 40
       0.6336098 1.3337021 -0.50736076 2.1760623
000360 af de 5b bf 20 8f 6a bf ca 09 8d 3e 2d bf 9d bf
       -0.85886663 -0.9162464 0.2754653 -1.2323967
000370 75 42 c0 3f ee 6f 12 bf c1 54 d0 3f e1 1b b2 3e
       1.5020281 -0.5720204 1.6275865 0.34786895
000380 2d 82 51 be 3d 2a e8 bf 7e fb ec 3e 7d 66 22 c0
       -0.20459814 -1.813789 0.46285623 -2.5375054
000390 25 da 41 3e 6e 9e da 3d ca 5e 0f 3d 6c f9 01 40
       0.18930872 0.10674749 0.035002507 2.0308485
0003a0 2f 8f 2b bf 82 b3 71 3f a2 0f a0 bf 4e 5a 28 bd
       -0.67015356 0.9441453 -1.2504771 -0.041101746
0003b0 6f 8d 87 3c 2e 74 a0 3f 00 01 9a 3f 6f 35 96 3e
       0.016546933 1.2535455 1.2031555 0.29337642
0003c0 06 06 c7 3f 29 1e 5d 3f d0 b0 16 3f b9 a6 3e bf
       1.5548713 0.86374146 0.58863544 -0.7447315
0003d0 c1 79 12 bf cf 7a 83 3f ff 98 15 bf 1e b8 3e bf
       -0.5721703 1.0271853 -0.5843658 -0.7449969
0003e0 c3 28 51 3f c9 7b 5b bf e8 2b 89 bf 1f ae e0 3f
       0.8170282 -0.85735756 -1.0716524 1.7553138
0003f0 77 89 64 3f af 5a 28 bd 7c ec ff 3f 00 5e 3a 3f
       0.89272255 -0.041102108 1.9994044 0.7279968

decoder.gru.weight_ih_l0 f4 [60, 20]
000000 44 de 08 3d 88 d9 84 be f4 ed 3c 3d 68 6c ca bc
       0.033415094 -0.25947213 0.046125367 -0.024709895
000010 9d ac 13 be 36 c6 a6 bd 4b 88 1f be 1b 08 01 be
       -0.14421315 -0.081432745 -0.15579335 -0.12600748
000020 7a ea c2 3b 9d 28 69 3a a1 c6 f2 3c e1 a6 02 3e
       0.005948362 0.00088942965 0.02963573 0.12758972
000030 86 61 34 bc 9d ac 79 3d 4f 42 a1 3d f3 f5 64 be
       -0.0110095795 0.060955632 0.078739755 -0.22359447
000040 d8 3d 4a be 72 70 8a bd 0d 9b 96 3c e3 ce f2 bc
       -0.19750154 -0.067597285 0.01838448 -0.029639667
000050 5c 27 29 3e 15 96 7f be 27 64 5b be d0 26 0c 3d
       0.1651892 -0.24959596 -0.21424924 0.034216702
000060 cf a6 f7 bb 46 99 88 3d ec 6f 77 be a6 cf 0f be
       -0.007557727 0.066698596 -0.24163789 -0.14044055
000070 e6 ec af 3c b8 1f 62 be db b8 87 3c 09 cf 2f be
       0.021475267 -0.22082412 0.016567638 -0.17168821
000080 b1 ff 13 3e 70 75 45 be ac 53 be 3d 6d 0c 0f 3d
       0.14453007 -0.1928308 0.09293303 0.03492396
000090 36 c5 fe bd e4 b0 a6 3c 05 1c 0e 3e f9 86 cf 3d
       -0.12439959 0.02034802 0.13877876 0.10133166
0000a0 97 a6 c0 bd 0b a6 dc be 04 d3 3f be 01 dc 55 3e
       -0.094067745 -0.4309543 -0.1873284 0.20884706
0000b0 84 7f 89 3d 0f 84 0a 3e 62 de 81 3c 89 18 fd be
       0.06713775 0.13526939 0.01585311 -0.4943278
0000c0 8b 01 de 3e 48 67 f6 3e 5a c2 b1 3e 0b 92 34 be
       0.43360552 0.48125672 0.3471859 -0.17633836
0000d0 2f 0c 4b be eb 5c b3 be 78 e5 46 be d6 90 38 3e
       -0.19828866 -0.35031828 -0.19423473 0.18024
0000e0 9a ff 04 3e 96 d5 f3 3d 35 15 28 3e 31 4f b1 bd
       0.1298813 0.11905973 0.1641434 -0.08657683
0000f0 33 e6 e8 3d 25 86 77 bd 61 bc 87 be 0d 4e a3 3d
       0.11372032 -0.060430665 -0.2651091 0.079738714
000100 bd 44 e5 bd a1 89 2a 3e 0c 58 92 3e 64 82 2d bf
       -0.111947514 0.16654064 0.285828 -0.67777085
000110 c3 1b 2a 3e 2c fc a2 3e 09 d0 8a 3e b0 a9 1c bf
       0.16612153 0.31833017 0.27111843 -0.6119642
000120 9f b9 69 be 87 b7 88 be 12 86 7e be 3c fb b4 3e
       -0.22824715 -0.2670252 -0.24855831 0.35347927
000130 1a e3 fd 3e c9 05 f4 3e ea 45 96 3e 3b 51 92 be
       0.49587327 0.47660664 0.29350215 -0.285776
000140 0c 55 20 3e 25 e7 d8 be 30 cf 42 be 18 ca a5 3e
       0.15657443 -0.4236385 -0.19024348 0.32380748
000150 10 6e 16 be 0e ec 60 3e 97 3e e6 3d 5f ae f1 be
       -0.14690423 0.21965048 0.11242407 -0.47203347
000160 f3 3a 9a bc 71 d8 7f 3e 99 d5 d4 3e d9 91 09 be
       -0.018826937 0.2498491 0.41569212 -0.13434543
000170 a2 a7 a2 bd 5e 49 e7 bd 35 3e 8a be 9c 5a a3 3e
       -0.0794213 -0.112932906 -0.27000585 0.31905067
000180 6c 25 d7 3e 88 ac 24 3e 43 aa 59 3e 7f 4b d2 3c
       0.42020738 0.1608144 0.21256356 0.025670765
000190 e2 94 ba 3d 4a d3 23 be e2 5c f9 bd bf 30 44 3d
       0.091104284 -0.15998569 -0.12175919 0.04789805
0001a0 db 6a 80 bc 44 c0 e6 3d ba 15 35 3e 27 5b 89 be
       -0.015675953 0.112671405 0.1768407 -0.26827356
0001b0 9f 55 93 3e d6 62 e9 3d 06 68 ab 3d c9 0f 1c bf
       0.2877626 0.113958046 0.0836945 -0.60961586
0001c0 24 64 4c be 01 3c 34 bd 47 c6 a7 be 3e 6e a3 3e
       -0.19960076 -0.044002537 -0.3276846 0.31920046
0001d0 03 20 8b 3e 6f df b2 bd 09 29 a8 3e a9 55 8f be
       0.2717286 -0.08734023 0.32843807 -0.2799504
0001e0 b1 88 47 be 3b d5 53 bd 77 6c ce 3d 33 c2 d4 bd
       -0.19485737 -0.051717024 0.10079282 -0.10388603
0001f0 97 47 98 3d 80 34 0c 3e 98 e4 99 3d 2f a7 95 bd
       0.0743553 0.13691902 0.07514304 -0.07307278
000200 73 bf 3d be 8d 59 fe bc a6 2d ce 3e ed 8e c8 bd
       -0.18530063 -0.03104856 0.40269202 -0.09792886
000210 de 1f 10 3e af f4 2b 3d 66 f6 f8 3c 3e 6c 46 be
       0.14074656 0.041981395 0.03039093 -0.19377229
000220 98 81 14 3e 09 92 0b be 7d 30 9d 3e 57 11 81 bd
       0.14502561 -0.13629927 0.30701056 -0.063021354
000230 d6 7d 8b be a1 8c 8d be ef be b1 be b1 1d 92 3e
       -0.27244443 -0.27646354 -0.34715983 0.28538278
000240 61 4f 0e 3e fc d3 9d bb 1a 6b c8 3d 6f e1 84 be
       0.13897468 -0.0048165303 0.09786053 -0.25953242
000250 19 da 86 3e 32 7b db 3e 0b ad bd 3e a4 70 91 be
       0.2633827 0.42867428 0.37046084 -0.2840625
000260 f2 89 3f be 26 e6 9d bd 76 bb 85 be 79 da 03 3e
       -0.18704966 -0.07709913 -0.26119584 0.1287631
000270 84 67 75 3e c2 4e 7a 3e 81 20 f9 3d d4 41 b8 be
       0.2396527 0.24444106 0.12164403 -0.35987723
000280 69 04 a2 bd 8d 95 bd be aa 4a 38 3d 9d 62 bf 3e
       -0.079109974 -0.3702816 0.04499308 0.37379923
000290 24 3e a4 bc a0 b2 3c 3e a9 c8 81 bc cb c0 eb be
       -0.020049162 0.18427515 -0.015842753 -0.46045527
0002a0 7f e3 ec 3d f0 68 2b 3e 4e 4a 36 3e 38 db 9f be
       0.11566829 0.16739249 0.17801782 -0.31221938
0002b0 80 49 e2 3b 5e cd 8f be 88 8e c4 be a9 ee 1c 3e
       0.0069057345 -0.2808637 -0.38389993 0.15325417
0002c0 15 44 d4 3e 9b 3a e2 3d b5 4e 32 3e a8 bb 51 be
       0.41458192 0.11046334 0.17412837 -0.20481741
0002d0 ac 46 32 be 09 02 7e be 1a bb 3b be 05 3b b2 3e
       -0.17409772 -0.24805464 -0.18333092 0.34810653
0002e0 46 b6 2c be c2 1c 01 3e 2f 46 4f 3e f7 1c e6 be
       -0.16866407 0.12608626 0.20241617 -0.44943973
0002f0 61 80 38 3e f1 00 d3 3e df 7d 27 3e 6a 6c ee be
       0.18017723 0.41211656 0.1635661 -0.46567088
000300 db 5c ef bd 7f 78 8b be 98 21 ac be 6c 2e af 3e
       -0.11687633 -0.2724037 -0.3361938 0.34215105
000310 38 71 ec 3e 56 02 03 3f 62 66 c5 3e 35 3b 0b 3d
       0.4618013 0.5117544 0.38554674 0.03399201
000320 08 cc 20 3d 46 f8 1e 3e 17 b8 cd bc 76 28 89 bc
       0.03925708 0.15524396 -0.025112195 -0.016742926
000330 fd fb fd bd e4 5d 69 be 56 3f 70 be cd 37 9a bd
       -0.124015786 -0.22789723 -0.2346166 -0.075301744
000340 bc d4 81 be 55 7f 2d be 4d 13 5c bd 8e 4f 45 be
       -0.25357616 -0.16943105 -0.053729344 -0.19268629
000350 49 1a e3 3d 98 c2 f0 3c c1 07 e3 bd 9b b7 c3 be
       0.11088998 0.029389665 -0.11085463 -0.38226017
000360 ea 12 1a 3e c0 b4 3c be 37 99 99 3d e5 85 8d 3e
       0.15046278 -0.18428326 0.074999265 0.27641216
000370 2d dd 3f be 4f df 7c be 0b 24 39 3d 64 e0 b9 3e
       -0.18736716 -0.2469456 0.04520039 0.3630401
000380 fa c6 52 3d 29 93 9f 3e 2d 51 b7 bd 87 db a7 be
       0.05145929 0.31166962 -0.0895103 -0.32784674
000390 0e 21 59 3e 6a 29 84 bd f9 56 c1 3e 6f 0e 0f be
       0.21204016 -0.064532116 0.37761667 -0.1397035
0003a0 fe 3e 8b bd 87 6e 8a be 0e 0a ac be 82 14 ad 3e
       -0.06799124 -0.2703745 -0.3360142 0.3380471
0003b0 00 34 6d 3e fb 3d 3e 3e 7d aa 76 3c b3 75 b4 bb
       0.23164368 0.18578331 0.015055296 -0.005507195
0003c0 36 3a 4d 3e 89 71 88 bd 06 c1 20 3e 1e 52 8b 3c
       0.20041737 -0.0666228 0.15698633 0.01700693
0003d0 4a 63 82 bd 77 43 77 ba 42 62 0f bd 31 25 32 3e
       -0.06366594 -0.00094323553 -0.035005815 0.17397
0003e0 3a dd d2 bc cf a2 ee bd cb 86 cd bd 6a fc b3 bd
       -0.025740255 -0.11652147 -0.10035475 -0.087883785
0003f0 a0 f5 81 be e3 83 56 3d 23 06 10 be ec 3f 38 3e
       -0.2538271 0.05237187 -0.14064841 0.17993134

decoder.gru.weight_hh_l0 f4 [60, 20]
000000 81 ab 15 3f 9e e7 82 be 3f 3c 96 3d eb c8 7c 3d
       0.5846482 -0.25567335 0.0733571 0.061715048
000010 f0 49 71 3e 68 11 5e 3e 0c 93 3f bd a9 03 bb bd
       0.23563361 0.21686327 -0.046771094 -0.091315575
000020 2a fb 7c bc 88 e5 22 be 28 fe bc bd df fe 95 bd
       -0.015440742 -0.15907872 -0.09228164 -0.073240034
000030 0c 58 14 be d1 88 28 bd 1e fb 3d be bf 5b 03 be
       -0.14486712 -0.041146103 -0.18552825 -0.12827967
000040 c9 9c b7 3c 34 f4 83 bd ae 65 f5 bc 28 2e f1 bd
       0.022413628 -0.064430624 -0.029955711 -0.11776382
000050 3f fd 19 3e 75 1e 5b 3e bc c0 81 be 1e 0f 1a 3e
       0.15038012 0.21398337 -0.25342357 0.15044829
000060 ee c8 85 be 8c b6 2e 3e 12 30 7f 3e 08 65 a8 3e
       -0.2612986 0.17061824 0.24920681 0.3288958
000070 e3 98 1e 3d 43 50 a3 3d c5 56 e8 be 95 4e da 3d
       0.038720023 0.07974293 -0.453787 0.106595196
000080 a7 79 85 b9 07 5f 77 3d 85 96 96 bb 02 88 5a be
       -0.00025458375 0.06039336 -0.00459558 -0.21340945
000090 ec f1 e3 bd 26 e0 e1 3d 07 36 93 3d 6b b3 df 3d
       -0.11130127 0.11029081 0.07188039 0.10922893
0000a0 e0 de c9 3e 73 4b 24 3e 80 f0 80 3c 76 fa 9c bd
       0.39427853 0.16044407 0.01573968 -0.07664959
0000b0 70 b1 0c 3e 2e fc 00 be 0f 24 b9 be b4 d2 2b be
       0.13739562 -0.12596199 -0.36160323 -0.16779596
0000c0 da 1d e5 bd 5c 37 14 bd 8d 44 47 be 66 5f c5 bc
       -0.11187334 -0.036185607 -0.19459744 -0.024093341
0000d0 a8 81 6d be d8 40 a3 be 84 ee e0 3d 89 bf 7e bd
       -0.23193991 -0.3188541 0.10982993 -0.06219438
0000e0 28 15 33 3e 29 21 4b 3d 21 da 44 bd 2d 7e 94 bd
       0.17488539 0.04959217 -0.048059586 -0.072506286
0000f0 6b 14 f6 3d 2c 25 22 bd 4a 3f c4 bd 1e 4f 16 3e
       0.12015613 -0.03958623 -0.09582384 0.14678618
000100 86 a2 d2 bc d0 a5 9c be e4 59 c1 bc a7 8e 74 bc
       -0.025712263 -0.30595255 -0.023602434 -0.014926589
000110 01 7b 03 3e b4 3a 0a 3e fd c3 b5 bd e2 26 c3 be
       0.12839891 0.13498956 -0.088752724 -0.38115603
000120 f1 c8 4e 3e ac 75 9b bd d5 2e de bd d4 49 bc 3c
       0.2019384 -0.075908035 -0.10848776 0.022984423
000130 0f 57 1d 3e a7 82 3a be 95 5d 18 3e 7b b8 17 3d
       0.15365241 -0.18213902 0.14879449 0.03704117
000140 69 59 9a 3e bb b6 73 bd 88 5e 32 be f5 ab 62 3c
       0.3014634 -0.059500437 -0.17418873 0.013834943
000150 dd 46 e6 3d c7 29 a5 3d 84 39 21 be eb 34 e6 bc
       0.11243985 0.08064609 -0.15744597 -0.028101405
000160 70 23 b6 bd 62 56 9c 3e 3b 35 26 bf 8c 8a b7 bd
       -0.08893478 0.30534655 -0.64924973 -0.089619726
000170 36 fc b7 be d6 1e fe bd 45 f8 de 3d c4 8c 51 be
       -0.3593461 -0.12408225 0.108871974 -0.20463854
000180 b6 a7 9d 3d 1e 67 58 3d 8f 91 89 3d 50 e0 cb 3c
       0.07698004 0.052832715 0.06717216 0.024887234
000190 95 11 57 3e 7a be 96 3e b0 05 c6 be b9 00 17 3e
       0.21002801 0.29442197 -0.38676214 0.1474637
0001a0 b9 cf b6 3c 9e cc c4 bd 0c 2c 09 be fd 47 24 3e
       0.022315847 -0.0960934 -0.13395709 0.16043086
0001b0 4f 15 52 bd 47 74 f2 3d e5 fe 1c be de 9b b9 bd
       -0.051289853 0.118385844 -0.1533161 -0.090629324
0001c0 40 45 44 be de eb 48 be a4 dc b2 be 53 86 a5 be
       -0.19167042 -0.19621226 -0.3493396 -0.32329044
0001d0 51 54 74 3e 0d ff a6 be 20 67 7d bd ea fd af 3b
       0.23860289 -0.32616463 -0.061865926 0.005370845
0001e0 e7 2e df 3e 09 09 9c 3c 5c 37 34 be 6d 81 2b 3d
       0.4359047 0.019047277 -0.17599243 0.041871477
0001f0 a3 a7 20 bf 40 bb b6 3e 9e ed be 3e 8c 08 ae 3e
       -0.62755793 0.35689735 0.37290663 0.33990896
000200 ab 81 97 bd c3 18 ab bd d7 6e de be 12 50 6e 3d
       -0.07397779 -0.08354332 -0.4344394 0.05818183
000210 92 5a d8 bd 9a 5e 05 3e 26 69 a4 3d ef 8e 33 bf
       -0.1056415 0.13024369 0.08027868 -0.70139974
000220 10 71 9f bc 48 ed bc be 43 8e 63 be e3 64 b8 be
       -0.019463092 -0.3689978 -0.22222237 -0.3601447
000230 fb 82 37 3f 92 77 27 be 19 c3 20 bf 1e e6 0c 3e
       0.71684235 -0.16354206 -0.62797695 0.13759658
000240 0a 67 8a bd 9c c6 f9 3e aa 32 0e be d1 c9 a3 bd
       -0.067579344 0.4878434 -0.13886514 -0.07997478
000250 dc 81 2c be 3e bb e0 3e 71 b5 90 bd c7 17 54 3d
       -0.16846412 0.43892854 -0.07065857 0.05178049
000260 c2 a0 bd bd 4e b5 9b 3d 6f 79 2a 3c 2f 5c f5 bd
       -0.09259178 0.076029405 0.010404929 -0.11980473
000270 5a ac b2 bd cb f9 e6 bb e5 a0 3a 3d 48 ad a8 bd
       -0.0872428 -0.0070488206 0.045563597 -0.08236176
000280 6f 63 0c 3d 90 d7 11 3d ac 9a bb bd 29 e7 45 be
       0.034274515 0.035605967 -0.09160361 -0.19326462
000290 e0 80 06 be 6e 49 dc bc 4b bf 44 bd 9c 77 bd 3d
       -0.131351 -0.026890483 -0.048033994 0.09251329
0002a0 07 ce cb 3d 42 54 0b 3e b8 a7 9f 3c 77 c1 2a 3e
       0.09951406 0.1360636 0.019489154 0.16675363
0002b0 dd c6 34 3e 55 3a 26 be 81 b0 b7 be da 62 41 bd
       0.17653985 -0.1623319 -0.3587685 -0.047213413
0002c0 74 11 25 bd 9b fa ef 3d f4 52 63 3b c7 63 09 3e
       -0.040299848 0.11717721 0.0034686895 0.13416968
0002d0 77 09 3b 3e 23 11 4d 3d de 49 3d be bd ee 49 be
       0.1826533 0.05006517 -0.1848521 -0.19719978
0002e0 a5 a6 a4 bc f4 ee 8f 3d df 88 cf 3c da 6b 50 be
       -0.020098994 0.070279986 0.02533382 -0.20353642
0002f0 6c 61 ad be ea 1a 75 be 16 1c 63 be a5 48 f6 bd
       -0.3386339 -0.23936048 -0.22178683 -0.120255746
000300 4d 44 66 bd 8b b0 9f be cd 8c 16 bd 2d df 87 be
       -0.05621748 -0.3118938 -0.03675537 -0.26537457
000310 ab be 62 bd 20 89 00 be b1 f9 b7 3d 99 bc 42 3e
       -0.055357616 -0.12552309 0.08983172 0.19017257
000320 27 34 b2 bd c7 ff ba 3d b4 67 85 3e 07 b0 80 3e
       -0.087013535 0.09130817 0.26055682 0.25134298
000330 ea 9a d5 3d a5 eb 91 be 35 90 96 be b8 18 4c be
       0.10429938 -0.28500095 -0.29406896 -0.19931304
000340 d8 62 81 3e f1 37 14 be 21 4d fd be 20 0b a6 be
       0.25270724 -0.14474465 -0.49472907 -0.32430363
000350 04 2c 5f be 5e af d4 3d 3c 98 26 3e 02 ed 36 be
       -0.21794134 0.10385011 0.1626901 -0.17863849
000360 2b da 5e be c6 84 84 3e 5e 96 55 be 90 dd 2c 3e
       -0.21762912 0.25882548 -0.20858142 0.16881394
000370 4c 11 06 3e a5 bc 12 bc a3 29 f2 bd 2a a4 39 be
       0.13092536 -0.008956109 -0.11824348 -0.1812903
000380 6e a5 00 3e cc 15 5e 3e 9e 2f 80 be 79 57 99 bd
       0.12563106 0.21688002 -0.2503633 -0.07487387
000390 10 39 8a bd 94 b9 1b 3e 58 29 98 be 6d ab a4 3c
       -0.06749165 0.15207511 -0.29719043 0.020101273
0003a0 f2 8e 9f be 8f 75 d3 3d 29 a9 01 3f 69 0f 86 3e
       -0.31163746 0.10325157 0.5064874 0.26183632
0003b0 a8 b9 18 3e ca 69 32 3e a0 e7 11 3d c8 86 5f be
       0.14914572 0.17423168 0.035621285 -0.21828759
0003c0 fa 7a 4c 3e 8e 3c 97 be fb 70 7f bd 20 6a b4 bd
       0.19968787 -0.29538387 -0.062363606 -0.08809304
0003d0 71 92 82 be dd 73 33 3e b0 71 e3 3d b7 2d a6 3d
       -0.2550235 0.17524667 0.111056685 0.08114188
0003e0 94 b4 22 3e 0a 9a ea 3d 2f 99 04 bf 2e 51 07 3d
       0.15889198 0.11455162 -0.5179624 0.033036403
0003f0 54 04 87 3e 0b ff 96 3e 12 bd d5 3e 28 e1 1e be
       0.2637049 0.29491457 0.41745812 -0.15515578

decoder.gru.bias_ih_l0 f4 [60]
000000 2c 72 c3 3f 48 79 6b 3f 5f 7b 7c 3f cc 7b 33 3f
       1.5269217 0.91981936 0.9862575 0.70110774
000010 fd 99 75 3f b8 09 8d 3f 74 a2 5b 3f 27 da 27 3f
       0.9593809 1.1018591 0.8579476 0.6556725
000020 ef c2 9a 3f 0e 5f 56 3f 90 8c 2a 3f 4c 04 79 3f
       1.2090739 0.8373879 0.6662073 0.9727218
000030 f9 6d 4f 3f 4d 03 84 3e 10 0f a0 3f 9c e9 94 3f
       0.8102718 0.25783768 1.2504597 1.1633792
000040 e5 86 83 3f c5 84 5b 3f 7c 95 91 3f a6 40 6e 3f
       1.0275542 0.85749465 1.1373744 0.93067396
000050 b7 72 b1 3e 4d 0f 35 3f 77 20 4b 3e 5d 73 87 3f
       0.34657833 0.7072647 0.19836603 1.0582081
000060 35 9b 4f 3e 11 12 27 3e 5a a4 8b 3e f9 7d da 3e
       0.2027405 0.16315486 0.27273828 0.42674235
000070 ba 84 fa 3c 86 2d 2e 3f 32 54 de 3e fd 27 b9 3e
       0.030580867 0.68038213 0.4342361 0.3616332
000080 18 8c 4a 3f 16 5e bb 3f 71 bc 6b 3e 76 b3 ba 3e
       0.79120016 1.4638088 0.23021103 0.36465043
000090 db b8 2e 3f d6 27 67 3f dd f1 62 3e bc 30 e8 3e
       0.6825082 0.9029516 0.22162576 0.4534968
0000a0 0e bb 01 3e 20 16 b5 be b4 5e 96 be 38 4f c8 be
       0.12669012 -0.35368443 -0.29369128 -0.3912294
0000b0 4c d5 92 be e6 29 29 3f 03 65 8b 3e 05 8d 61 bd
       -0.28678358 0.66079557 0.27225503 -0.055066127
0000c0 36 8b 39 be 1c 08 b9 3d aa dc 1e be 99 e1 ea 3d
       -0.18119511 0.0903475 -0.15513864 0.114688106
0000d0 7e f4 18 3e 5e ed 76 be 79 38 07 3e b1 5a 68 be
       0.14937016 -0.24113986 0.13205136 -0.22690846
0000e0 31 92 ad be d4 b6 06 3e c9 61 f6 3c e4 cd 48 bc
       -0.33900598 0.13155681 0.030075924 -0.012256119

decoder.gru.bias_hh_l0 f4 [60]
000000 3e ef ca 3f 83 e8 8f 3f 70 61 96 3f f5 ef 34 3f
       1.5854261 1.1242832 1.1748486 0.70678645
000010 50 4b 51 3f c6 30 82 3f 45 88 43 3f 54 27 46 3f
       0.8175554 1.0171134 0.76379806 0.7740376
000020 f5 ea 56 3f b2 e5 83 3f 72 ab 02 3f 81 21 24 3f
       0.83952266 1.0304472 0.51042855 0.6411362
000030 a0 52 85 3f 18 8d 92 3e 76 44 a3 3f a1 b1 82 3f
       1.041584 0.2862327 1.2755268 1.0210458
000040 01 9f 39 3f 8f c3 6e 3f 65 6f 86 3f 1a 46 82 3f
       0.72508246 0.9326715 1.0502745 1.0177643
000050 4f 78 45 3f 4d ad fd 3e 48 df eb bd 82 bb 7f 3f
       0.771367 0.4954628 -0.11517197 0.9989549
000060 4e 3c ca 3b 89 b8 49 3e 52 c4 e0 3e 4c c2 9d 3e
       0.0061717397 0.19699301 0.4389978 0.308123
000070 96 27 2d 3e 38 f4 77 3f 68 17 97 3e d3 9b d8 3e
       0.16909632 0.96857023 0.29510045 0.42306384
000080 88 ce df 3e 51 00 a5 3f 4b e7 88 3e de 8f 89 3e
       0.43712258 1.2890722 0.26738963 0.26867574
000090 eb 17 0e 3f 5f a2 44 3f 82 c5 76 bd 60 11 5a 3f
       0.55505246 0.7681026 -0.060246952 0.8518276
0000a0 89 92 60 3e 92 e7 09 bd 16 b5 c1 be 9f 23 ea 3a
       0.21930899 -0.03366811 -0.3783347 0.0017863399
0000b0 73 2b 90 bc dd 8f 4f 3e 91 8c 2e 3f 7e bd bc 3d
       -0.017598843 0.20269723 0.6818324 0.0921583
0000c0 b2 e7 57 3c eb 23 bc bb 3b d0 93 be ad 46 99 3d
       0.013177799 -0.0057415864 -0.28869805 0.074841835
0000d0 a5 a8 02 3e 04 46 e9 be f5 64 47 3e 3f 63 96 be
       0.12759645 -0.4556123 0.19472106 -0.29372594
0000e0 2e 8f 23 bf 05 20 3f 3d 3b 6e 75 3c 5b cb b7 bd
       -0.6389035 0.046661396 0.014979894 -0.08974334
