autoencoder_model/all_attributes/models/autoencoder_model_pads.pt (torch, 4943 bytes, 12 tensors)

encoder.0.weight f8 [4, 8]
0	0xbfd4a7b050ebb4f6	-0.3227349081269745
1	0x3fde4b43a5f1a6d0	0.47334376531089806
2	0x3fda2ae21bc55350	0.40886738502495223
3	0xbfe45580cdd0071b	-0.6354373950746067
4	0x3fe321e879250ba1	0.5978891721828071
5	0x3fc0390bcadfef25	0.12674090772622396
6	0xbfde57d746f6be04	-0.47411138467848013
7	0xbffd544a88d0bed9	-1.8330788940765415
8	0x3fdf59230900878a	0.48981548194034785
9	0xc0011706b29725af	-2.1362432434441057
10	0xbff73bc2561428eb	-1.4520896303607127
11	0x3fe4eb05c065714a	0.6536892659892513
12	0xbffe6bb0e744afc1	-1.9012917550962671
13	0xc01443c7567e3b5f	-5.066190101103387
14	0x3fe1e544f83cbb3e	0.559236988867134
15	0xc027689ebdaf6090	-11.704336097391462
16	0xbff60c21de6ac0b1	-1.377961987320344
17	0x3fd89ebb56099d2e	0.3846882190905089
18	0xbff5cacc8337c51e	-1.3620114446351361
19	0xbff6c18d675c6fe6	-1.422253993753651
20	0xbfe8ad067185e4a2	-0.7711212365385516
21	0x3fbd566822d51002	0.11459971285245277
22	0xbff2e2128219096a	-1.1801934320397671
23	0x3fe0f93f49b4b8a2	0.5304256858414826
24	0xbfe847850db4b2e5	-0.7587304370586848
25	0x3f9f9de8d3639b4e	0.030875814344564483
26	0xbfd8807ea9812cf0	-0.3828426986044198
27	0xbfe9a48c35d39592	-0.8013363887118194
28	0xbf9dfe5853c33f73	-0.029290561783283885
29	0x3fd42c5eff32aa46	0.31520819589301075
30	0xbfd8e3a00607e086	-0.3888931330579982
31	0x3ff3474561a04ba8	1.204900151588598

encoder.0.bias f8 [4]
0	0x3fd34e12497c341e	0.3016401021603218
1	0xbfdda098662ec6fd	-0.46292695978910087
2	0xbfd938a74b17b5e1	-0.3940828545881612
3	0x3fc54fd4d0efecf0	0.16649875833522954

encoder.2.weight f8 [2, 4]
0	0xbfe216daf4d4d30a	-0.5652899534094058
1	0xbfe446c4484fbcbf	-0.6336385166486237
2	0xbfed813fa55dea5a	-0.9220274190732412
3	0xbfa422b034079861	-0.03932715067985338
4	0xbfcd2e8a8129bc5f	-0.2279828196219311
5	0xbff02f9ae54791c7	-1.0116223293526774
6	0x3fe024f3ed28166e	0.5045108444180195
7	0x3fc083d982e377fa	0.12902373209993795

encoder.2.bias f8 [2]
0	0xbfdba79633caab62	-0.43210368211537376
1	0xbfe1cb7fb972f1f1	-0.55609117718228

decoder.0.weight f8 [4, 2]
0	0xbffed324a4432f1b	-1.9265486160756555
1	0xbff1ea505f69029f	-1.119705555625991
2	0xbffebf93eff1e154	-1.921771943363713
3	0x4011b576aa0c2e10	4.427210480683712
4	0x3ffd2de4478bc8b2	1.8237040323988762
5	0xc00388d6f8e6a2e9	-2.4418162770638117
6	0x400bff1a987cd6ca	3.4995624459359975
7	0x3ff5fa0698d34a9c	1.373541447614719

decoder.0.bias f8 [4]
0	0x4008200373a13aae	3.015631583555055
1	0x3fbb9745c713d677	0.10777698622026742
2	0xbff4753425f4ddb6	-1.2786141855884643
3	0xbfc7252c06bf44ef	-0.18082189874124974

decoder.2.weight f8 [8, 4]
0	0xc0097ba90ae4949e	-3.1853810168273204
1	0x3fe8c4ca79ccf78e	0.7740223292273514
2	0x3fe0bfe586d71760	0.5234248765561738
3	0x400f339db979aa17	3.9002031793836625
4	0xc00970055a07b149	-3.1796977075192996
5	0xc00df82f7cca4429	-3.746184325144459
6	0xbff9ba67a0a1ba50	-1.6080089831044866
7	0xbfef57ddaafd2728	-0.9794758166910684
8	0xc00badf6cc70dfe4	-3.459943387217196
9	0xc007aa5e3076d23b	-2.9581874643575055
10	0xbffd514a6f3143c7	-1.8323463767485337
11	0x400b2e7945743ab7	3.397692244157351
12	0xc00ca96b10084035	-3.5827237370031306
13	0x3fecc537f02a760e	0.8990745249499825
14	0x3fec9119cc643154	0.8927124969500633
15	0x4012fbfdd1cd913a	4.746085432216484
16	0xc006c68699e045f6	-2.84693641868284
17	0xc00cd3583870ee7f	-3.603195610948944
18	0xbffb93a1785ca7fd	-1.7235426618231025
19	0x3ffdd4f241676e2d	1.8644888453335497
20	0xc00b24308ad5c056	-3.3926707121354793
21	0xc012cff5db27b6bb	-4.7030863039960265
22	0xbfd4e0f3d8cc02dc	-0.3262300126225861
23	0xbfd9d97fe855dc64	-0.40390012444499335
24	0xc0049a54e6bff4b8	-2.5753572490053465
25	0x3fed09a9c9e11c23	0.9074295943218015
26	0x3feac6439844326f	0.8367021535828608
27	0x4008d4b687640514	3.103863771190513
28	0xc00851b8bad056d3	-3.039903125269896
29	0xc003b5a73944f146	-2.463697860161264
30	0x401251a2fef707a9	4.5797233427310085
31	0xbfe9b266a0d85eb8	-0.8030274526126595

decoder.2.bias f8 [8]
0	0xc001d928390d211c	-2.2310337502605204
1	0xc006c611a47861c1	-2.8467133378255487
2	0xc0088d4b01e2d1ba	-3.0689907214493504
3	0xc00403e2a1796028	-2.501897107616987
4	0xc007bb2137c4d03d	-2.9663719517648404
5	0xc0066e75831f3949	-2.8039350742248286
6	0xc00121833aedddbd	-2.1413635829773896
7	0xc00a0e5b91e4f72d	-3.2570105932235465

mu.weight f8 [2, 2]
0	0x3ff366076fc145d8	1.2124094357899278
1	0xbfcb4ac9343eb9d9	-0.21321978617693452
2	0x3fa02d1beaa0fdd2	0.03159415473100648
3	0xbfef2b933626d198	-0.9740692193650373

mu.bias f8 [2]
0	0xbfcef85e32c0ee9b	-0.2419545886822235
1	0xbfcea058aa3fe526	-0.23926838219612384

gamma.weight f8 [2, 2]
0	0xbfc6881af80cff72	-0.1760286055741705
1	0xbf953811bba95340	-0.020721699789947978
2	0xbfc574e0df989037	-0.16762934606333754
3	0xbfbea3d55265d6e6	-0.11968739759125988

gamma.bias f8 [2]
0	0xbf9c2e58e77e04b1	-0.02752055085102673
1	0xbfaf562666aadbbf	-0.061204147369998456
