autoencoder_model/all_attributes/models/autoencoder_model_dilations.pt (torch, 4495 bytes, 12 tensors)

encoder.0.weight f8 [4, 2]
000000 de dd de 93 52 78 dd 3f ef 8c 44 79 57 ab df bf
       0.460468906788689 -0.4948328670745487
000010 86 92 2b f9 96 f8 cf bf 0c 5d 69 e8 30 a5 da bf
       -0.2497738567973508 -0.41633246132319424
000020 ad 5b 0f 14 13 75 e0 3f 96 e9 25 19 e5 72 d8 3f
       0.5142913238331538 0.3820126290881033
000030 6e 17 5f 35 78 fc d7 3f ac 6c fe 59 ce c4 df bf
       0.3747845193105296 -0.496387088665595

encoder.0.bias f8 [4]
000000 2d 0d ac a6 0a f8 d2 3f 5c 24 ea 3e d3 cb d5 3f
       0.296389258161258 0.3405655016327438
000010 ec ef 27 db b9 3b da bf 31 9d ca 95 57 1e 7f bf
       -0.4098953857608183 -0.007597295884500797

encoder.2.weight f8 [2, 4]
000000 83 57 a2 c1 49 c1 e2 bf 98 48 95 45 4b 2a 93 bf
       -0.586094740096755 -0.018716026422517545
000010 83 02 c9 c3 14 48 cb bf 44 47 23 28 57 37 de bf
       -0.21313724098037676 -0.4721277133913768
000020 69 8c 24 6f 09 d8 66 bf 97 ce c9 50 e7 93 cd bf
       -0.0027885612736482835 -0.231076158950249
000030 f1 d0 ec 0a 27 49 ea 3f 68 c2 ac 64 de 9d c0 bf
       0.8214297498111859 -0.12981777110828152

encoder.2.bias f8 [2]
000000 08 92 fc 17 29 26 cd 3f d3 6f f3 de 4e e6 b7 bf
       0.22772706671925413 -0.09335797255647486

decoder.0.weight f8 [4, 2]
000000 53 d5 33 88 c0 98 07 c0 d6 56 87 19 c7 31 fd bf
       -2.9495859757250087 -1.824652766915667
000010 c0 82 aa 64 48 5f 02 c0 75 e5 14 34 76 3c f7 bf
       -2.296524797872138 -1.4522611650885129
000020 5a 19 78 ce 66 31 eb bf 8a 8a d3 a4 9c d9 d6 3f
       -0.8497804672813729 0.35703197571107437
000030 94 49 f2 ba 60 54 7a 3f 92 73 b4 00 b1 8d ec bf
       0.006428125240875455 -0.892296315552459

decoder.0.bias f8 [4]
000000 f7 e6 b4 7c 76 d0 fc bf 22 40 3a 3b 3d fc f6 3f
       -1.8008942481378065 1.436581832273085
000010 8e 72 c2 d1 a9 5a 99 bf e8 e0 de ab d9 c7 8c 3f
       -0.02475991575976138 0.014053059156012584

decoder.2.weight f8 [2, 4]
000000 13 53 f6 bc c6 d7 c0 bf 3b 43 2a 54 fa 64 cb bf
       -0.13158497072858974 -0.21401909932731109
000010 00 c6 c5 a1 d2 c9 0c c0 f9 76 5e cd 83 33 13 40
       -3.5985462797623313 4.800307473078413
000020 a8 43 9a e3 58 b8 06 c0 ac 6a e1 bd 72 01 0a c0
       -2.8400132924511645 -3.2507071337143625
000030 e0 5a 51 dc 05 a1 f4 bf 39 df 0a c1 fe 33 f5 bf
       -1.2893122297443185 -1.3251941242906027

decoder.2.bias f8 [2]
000000 a2 db 4a 82 36 33 b5 bf fa 43 b1 25 1a 6d c9 3f
       -0.08281269722907195 0.19864203300906508

mu.weight f8 [2, 2]
000000 b1 21 96 06 f7 42 d3 3f f9 e9 3b e5 6d 96 f8 3f
       0.30096221583564914 1.5367258982138294
000010 eb e9 36 b4 53 8c f6 3f 1e e8 f5 cc 7b 64 c8 bf
       1.4092595138196156 -0.19056651599731905

mu.bias f8 [2]
000000 c7 e8 c1 5b a4 2c 74 3f 1d ad be 30 0b 12 c3 bf
       0.004925386452777575 -0.14898815040701488

gamma.weight f8 [2, 2]
000000 e7 66 44 d9 7d 4b 6f 3f 3f 30 33 e8 0b 09 92 bf
       0.0038201768858357912 -0.017612634703979998
000010 a2 ef 96 5c 6b a1 96 3f 95 36 f8 5d 83 9c 7f 3f
       0.02210014107343706 0.007717621948825877

gamma.bias f8 [2]
000000 20 07 5c 0a 3d d4 c0 bf b0 06 48 7f 6c 10 bd bf
       -0.13147700315317312 -0.11353185756163486
