autoencoder_model/all_attributes/models/autoencoder_model_value.pt (torch, 4623 bytes, 12 tensors)

encoder.0.weight f8 [4, 4]
0	0xbfe123ab713e40e3	-0.5356042110234082
1	0x3fa04756285d02b7	0.03179425471035329
2	0xbfc0c4c2fc88abb5	-0.13100468950991986
3	0x3fb329242442f3f1	0.07484651456157089
4	0x3fef909b1779fb2d	0.9864020784878896
5	0x3f9a4e7256539d78	0.025689875143965563
6	0x3fd2a6e846122802	0.29143721430648395
7	0xbfb1bd4d01771987	-0.06929475103161141
8	0x3fa7f20a44444623	0.04676849444707567
9	0x3fc8624610d4c25a	0.19049907514410586
10	0xbfe9499201c905e7	-0.790230754362878
11	0x3fb1e60cbc6a890a	0.06991653060916661
12	0xbfa1cb0521a107af	-0.03475204501638928
13	0xbfd1db339746fc99	-0.2790039994542411
14	0xbfe5d224738e9ec7	-0.6819021470045862
15	0xbfd30ffe7bea01b3	-0.29785120106682966

encoder.0.bias f8 [4]
0	0x3fe1f66f1b3faddf	0.5613322765543066
1	0xbfd53f68259be148	-0.331995045402
2	0x3fc4137ee36e78b7	0.15684496026091718
3	0x3fe00faa6146af48	0.5019122981952728

encoder.2.weight f8 [2, 4]
0	0x3fe0b4026e00a8f1	0.5219738148200844
1	0xbfe0f20d9ecd1965	-0.5295475102982833
2	0xbfdb5bb4a4ef9ddf	-0.42747226817161094
3	0xbfb13019a6bf3b70	-0.06714020081493088
4	0x3fb341f89b137139	0.07522538934739921
5	0xbfc72c50d95e2eab	-0.18103991140048
6	0x3fd379bd1728adff	0.3043053365861112
7	0x3fdaf7ba76f358fe	0.4213701402308202

encoder.2.bias f8 [2]
0	0x3fd69d5bb76a9af9	0.35335438644180744
1	0x3fd1c8728fc38287	0.2778593448584065

decoder.0.weight f8 [4, 2]
0	0xc0074f949533d280	-2.9138576179923916
1	0x3fe615cc38678336	0.6901608564040547
2	0xbff9789b4177acc5	-1.591944938404411
3	0xc0065340a64debdb	-2.7906506531266877
4	0xc002ead172b4abb3	-2.3646573029886553
5	0xbff0323f226f88e7	-1.0122672410148483
6	0xbfe4a530fc08af2d	-0.6451649591958578
7	0x400b0097c4a7dd28	3.375289474842834

decoder.0.bias f8 [4]
0	0xbfc24d73115b8c46	-0.14298857066668996
1	0xbfd44e4aaefb4236	-0.3172785481265551
2	0x3fd16b8b29cb3df5	0.27218894082486084
3	0xbfc4a1f7f7dbb1c3	-0.16119289019060376

decoder.2.weight f8 [4, 4]
0	0xbffc5275d54de1e2	-1.7701319057651905
1	0x3fe1ff6dc8a7a3a5	0.56243027868651
2	0xbfe03ad83f7b6226	-0.5071831931955486
3	0xbfff69e06af517c1	-1.9633487871192161
4	0xbfd713d4eefbaa91	-0.36058543527784886
5	0xbfc691d7862a8ec2	-0.17632574130140283
6	0x3fc9ad7f852cc8eb	0.2006072426098123
7	0xbfb28446ed681d65	-0.0723308877569387
8	0xbff514b015e39623	-1.3175507407226028
9	0xbff56eda260f3a75	-1.3395635115336095
10	0xbff5d466b54b2f5a	-1.3643557626519027
11	0x3fef6af67453dc81	0.9818069717429269
12	0x3f77d5ef614fc5b3	0.005819258764846169
13	0xbfafc78e50a99e3f	-0.06206936583185695
14	0xbfe17e8ffaa60beb	-0.546699513958058
15	0x3fc63617e71e449c	0.17352579865522422

decoder.2.bias f8 [4]
0	0xbfc7ff0216b9aed5	-0.18746973142275772
1	0xbfc512bfbd8c7b98	-0.1646346736460742
2	0xbfb008754c56177f	-0.06262906182936766
3	0x3fc66fd154c548e4	0.17528740538779808

mu.weight f8 [2, 2]
0	0xbfd2d258cf6b6fd2	-0.2940885568220867
1	0xbfe970c6dd73e3ca	-0.7950167012451115
2	0x3fe9a0a184b1f093	0.8008582679463124
3	0xbfd916d7cdda1146	-0.3920192251464595

mu.bias f8 [2]
0	0x3fce9f53f6752061	0.23923730405863622
1	0xbfccda5da1a87675	-0.2254139937730774

gamma.weight f8 [2, 2]
0	0x3f654b79f9925782	0.002599466545301022
1	0x3f80242cf4448112	0.00788149948545017
2	0xbf9547b6e1f329ee	-0.020781381169209405
3	0xbf95d9e8f25811b3	-0.021339072982316142

gamma.bias f8 [2]
0	0xbf954bcf1417c4c5	-0.02079700050484658
1	0xbf9beb99cdcd873a	-0.02726593321438673
