autoencoder_model/all_attributes/models/autoencoder_model_mode.pt (torch, 4367 bytes, 12 tensors)

encoder.0.weight f8 [4, 1]
0	0x3f7edd22f8c9da23	0.007535111054144869
1	0x3f6459f39aad5d08	0.002484298505276098
2	0x3fe65b2565987e49	0.6986262306490484
3	0x3fe5dd8f14f34def	0.6832957657992987

encoder.0.bias f8 [4]
0	0x3f80c2bb4f69caad	0.00818392120456698
1	0x3f6daef642b7eebf	0.003623467424174936
2	0xbfd1ce2969dad214	-0.27820811593417827
3	0xbfe19d8b32527b1b	-0.5504814131598751

encoder.2.weight f8 [2, 4]
0	0x3fd902d93d9b0e64	0.3907988645189333
1	0x3fa03b453762e20c	0.03170219708539798
2	0xbfe2e9e33ab243b2	-0.5910507341778752
3	0xbfd8c1fae7baeae0	-0.38683960561654196
4	0xbfb9da1c2982dae1	-0.10098434461074703
5	0xbf7a0be93beb14e7	-0.0063590155320458535
6	0xbfd61cdf5fae4fb2	-0.3455122408279251
7	0xbfdecc1d12fec225	-0.48120810370440587

encoder.2.bias f8 [2]
0	0xbfdd9b0e5c782466	-0.462588873197609
1	0xbfb356437e1ec30a	-0.07553502873521381

decoder.0.weight f8 [4, 2]
0	0xbff69dc2c8a66851	-1.4135158384219901
1	0xbfd3ee88d2f70098	-0.3114339885905877
2	0x3fe28de706182299	0.5798220747975221
3	0x3ff2c8a124a63a13	1.1739818030943112
4	0xbff16a8c4910052e	-1.0885126928336137
5	0xbff52e3b587ff39a	-1.3237870652221546
6	0xbfe6476d8ada5631	-0.6962192260713832
7	0xbff0ab5a9fdaf66d	-1.0418344730709592

decoder.0.bias f8 [4]
0	0x3fd0deabcb083225	0.26359076335282544
1	0x3fd8149ed7a8a716	0.37625857410840646
2	0x3fe670417281228b	0.7012030826964105
3	0xbfd665e26d1cd484	-0.349968534999171

decoder.2.weight f8 [1, 4]
0	0xbfe9217f59dbb575	-0.7853390460056021
1	0x3ffb4f4d9012a70a	1.7068610790105958
2	0xbff896699f0fcd2c	-1.5367218221043215
3	0xc0013dbb948eb50e	-2.1551429372835917

decoder.2.bias f8 [1]
0	0xbfc190d22817c881	-0.13723208387051858

mu.weight f8 [2, 2]
0	0x3fa7d647986049f0	0.04655669913349303
1	0xbfef993ef9808b69	-0.9874567864502356
2	0xbfded345e2549d7c	-0.4816450796374381
3	0xbfe5040a7f47a8e6	-0.6567432866989094

mu.bias f8 [2]
0	0x3f9ed29c240fdede	0.030100288106011834
1	0xbfc5cb694c390e69	-0.17027012082882045

gamma.weight f8 [2, 2]
0	0x3fdae0eac6c6fdf9	0.4199778500733085
1	0xbfd9f018995210e6	-0.40527930233680676
2	0xbfcdfd625c66bf96	-0.23429517280373763
3	0x3fceeb68afac64dd	0.24155911042979641

gamma.bias f8 [2]
0	0x3fc0b463aeb9464e	0.1305050471442421
1	0xbfc31fcca9409a03	-0.14940794243121056
