autoencoder_model/all_attributes/models/autoencoder_model_axis.pt (torch, 4367 bytes, 12 tensors)

encoder.0.weight f8 [4, 1]
000000 06 87 34 43 42 fd f4 3f 53 95 ca f5 1f b9 e1 3f
       1.3118307709887076 0.5538482475864533
000010 29 fc 19 9f 08 52 ec bf b6 de c2 a8 50 d4 76 bf
       -0.8850138766719101 -0.005573573184100835

encoder.0.bias f8 [4]
000000 79 9e 5d 48 c1 22 8f bf 3f 21 a8 aa 38 f9 d2 bf
       -0.015203008671689876 -0.29646126428317027
000010 28 84 a5 b2 9c e8 eb 3f 14 1d da 69 cf 52 73 3f
       0.8721450318518054 0.004717645844386515

encoder.2.weight f8 [2, 4]
000000 3e e2 97 59 2c 89 c2 bf b3 c9 1c ba 4d 88 da 3f
       -0.14481119513199475 0.4145693128113194
000010 c8 6c 50 dc aa 4e e8 bf db 7e d8 1b 7e 22 49 bf
       -0.7596029570589957 -0.0007670512929429345
000020 d8 06 e0 be 8a 18 f4 3f e7 6f 89 c0 af 7f f9 3f
       1.2559916931208388 1.5936734696360817
000030 cb 54 1e 48 b4 69 d0 3f 0a 0e da 0d b4 76 7c bf
       0.256451673916058 -0.006949141823159541

encoder.2.bias f8 [2]
000000 30 d1 37 d7 f5 9f c7 3f 21 0d 69 8e b8 8b a8 3f
       0.1845691014165225 0.04794098604591058

decoder.0.weight f8 [4, 2]
000000 ae 96 52 3f 04 0c fb 3f 83 0d 83 15 06 98 f8 bf
       1.6904337380923766 -1.5371151771840637
000010 6e f0 ab c7 ec de f9 3f 59 f9 82 04 f9 5d f4 3f
       1.6169250297234856 1.272942559836869
000020 7b c4 6f e0 0d 53 05 40 d5 10 8e 12 53 5b 16 40
       2.6655538114651427 5.589184083863263
000030 bc 7f 86 3c b3 7e 0a 40 02 aa 24 92 d3 14 19 c0
       3.3118653038545443 -6.270338328826712

decoder.0.bias f8 [4]
000000 c6 a8 80 15 8e d4 e5 3f a0 51 dc cc 95 c4 e1 bf
       0.6821966571781324 -0.5552472115692133
000010 9c 5c 11 30 b0 7a 00 c0 19 e8 56 09 78 34 01 40
       -2.0599063639925372 2.1506195764204787

decoder.2.weight f8 [1, 4]
000000 64 41 c1 78 d3 37 fb 3f 62 6f bf 15 95 43 02 40
       1.7011294095028342 2.282999200729976
000010 10 1a 1c 9a b1 2b 08 40 bd 80 d0 33 79 5a 0a 40
       3.02133484266529 3.2941764877324133

decoder.2.bias f8 [1]
000000 b0 d8 91 34 d9 7f c1 bf
       -0.13671412531738758

mu.weight f8 [2, 2]
000000 3a ea b3 fb 29 bc eb 3f 70 1b 0b 70 ca 5f c3 3f
       0.8667192379064723 0.15136080237263227
000010 44 46 eb 4c 72 17 fa 3f 2b 6e ea 18 b2 9a ec bf
       1.6307242397928272 -0.893883751548349

mu.bias f8 [2]
000000 30 f6 0e da 2d 36 ae 3f 37 d0 0c 16 55 f9 e7 3f
       0.059007103794538884 0.7491860800423699

gamma.weight f8 [2, 2]
000000 f8 31 c3 1d 3e 05 80 3f da 44 ae ce 52 23 75 3f
       0.007822499545363279 0.005160640207479273
000010 2e 83 4d a2 23 5a 9e bf 2c 36 d6 1e d9 5f 92 3f
       -0.029640728741813387 0.017943756587149348

gamma.bias f8 [2]
000000 e4 4e cd 7e b7 98 b0 bf d2 64 c1 3d de 60 a2 bf
       -0.06483027311088169 -0.03589529517985003
