autoencoder_model/all_attributes/models/autoencoder_model_strides.pt (torch, 4495 bytes, 12 tensors)

encoder.0.weight f8 [4, 2]
-0.004180618084327656 -0.011823818062379341 0.4052481425472397 0.3928675194680263 0.45000233879188245 -0.41015607087263567 0.394662597658083 0.38842280436259413
00000000: 6324 301f b21f 71bf 125a 22ff 1537 88bf
00000010: 3954 c0e7 95ef d93f f9a6 f1ce bd24 d93f
00000020: 7604 0f9c d6cc dc3f 53d8 a93f ff3f dabf
00000030: fa55 79e9 2642 d93f 3882 7052 ebdb d83f

encoder.0.bias f8 [4]
0.007540616272680934 -0.39762537573386 -0.008650348302190709 -0.39073919451445516
00000000: c18d 86c4 e8e2 7e3f 858b 35b4 b172 d9bf
00000010: 8a91 7418 46b7 81bf 301e 6df7 de01 d9bf

encoder.2.weight f8 [2, 4]
-0.0010211019132844194 -0.027145213090944424 0.8896666065876762 -0.02747972182845842 0.0006691293182523477 -0.5113519736972241 -0.031813179841064056 -0.44192051096306856
00000000: 0c3c b3d4 cfba 50bf 81cd df69 f4cb 9bbf
00000010: 5065 741a 2678 ec3f 8ec2 39ea a423 9cbf
00000020: 94bf f344 10ed 453f c4c9 78d0 fe5c e0bf
00000030: d58e ff2d d149 a0bf bb26 81f7 6c48 dcbf

encoder.2.bias f8 [2]
-0.005154400794958279 -0.013537282920314891
00000000: 4b64 84ed c71c 75bf 9009 5b5b 6fb9 8bbf

decoder.0.weight f8 [4, 2]
-0.5833851108585365 0.6269233829469442 0.4463140027279992 -0.7449619775510006 2.851229037166158 2.2871929336569736 3.634513438938 2.964340022698573
00000000: 418b 8340 17ab e2bf 995a 5ba0 c10f e43f
00000010: cfab 5d9b 6890 dc3f 840a 4b80 bad6 e7bf
00000020: 1446 602b 51cf 0640 8d97 0dcf 2b4c 0240
00000030: bee3 28c8 7b13 0d40 d3b6 dde6 f7b6 0740

decoder.0.bias f8 [4]
-0.08479618266032692 -0.133886874153787 -1.359967419286567 1.62968291769593
00000000: 0d0c 5adf 33b5 b5bf dd55 ed80 3423 c1bf
00000010: 9661 5732 6dc2 f5bf 7da9 2565 2e13 fa3f

decoder.2.weight f8 [2, 4]
-0.6838271736662183 -0.695002831371792 3.9684492210513143 3.207406591583682 -5.989138796859167 4.270367954588454 -0.003831002018308331 -0.04595349388591752
00000000: 9066 6086 e9e1 e5bf e4d0 eb93 763d e6bf
00000010: 3d04 224e 62bf 0f40 2b9d 7ec9 c4a8 0940
00000020: 11dc fecc e0f4 17c0 1360 4b56 db14 1140
00000030: 093a 258c 3162 6fbf d0ff c062 3787 a7bf

decoder.2.bias f8 [2]
0.37798567803598676 0.11259014507767975
00000000: 3957 61d7 ea30 d83f 4ae5 f52e b5d2 bc3f

mu.weight f8 [2, 2]
0.06732809327172679 -1.204539951156153 1.2442396595757275 0.10375161253746763
00000000: 2c40 b4f6 693c b13f ce0e 0faf cb45 f3bf
00000010: 0739 64d8 67e8 f33f b574 c136 778f ba3f

mu.bias f8 [2]
-0.009959356600074628 0.014188444021989158
00000000: fe98 1737 9265 84bf c2ce 71b8 d40e 8d3f

gamma.weight f8 [2, 2]
-0.000565070091833912 0.006552378804618706 -0.0033729405256004426 -0.00954900679672997
00000000: 586b 3dc8 2684 42bf 2457 d4ca aad6 7a3f
00000010: ff39 f6a7 91a1 6bbf b7bb 35ff 6d8e 83bf

gamma.bias f8 [2]
-0.03668631012114058 -0.055085953827060954
00000000: e6c7 5c4c 8cc8 a2bf 82f8 4fe4 3934 acbf
