autoencoder_model/all_attributes/models/autoencoder_model_perm.pt (torch, 4623 bytes, 12 tensors)

encoder.0.weight f8 [4, 4]
000000 0a fe 5f 28 d5 bf de 3f 3c 85 bb 42 a9 a3 c8 3f
       0.4804585356032197 0.19249454267905175
000010 a3 1c 55 8b e4 c1 d3 3f 3e ce 7d cd c0 f0 bf bf
       0.3087092743557582 -0.12476735131149838
000020 b7 45 28 2f d5 fe d7 3f 9e 64 c3 4e ec ba bb bf
       0.3749287567635195 -0.10832096980029113
000030 ca 17 e3 f4 46 8c 7d bf 2b 1a 6c 95 77 0f c7 3f
       -0.007213856863193821 0.18015951915750014
000040 de d9 35 35 9b 5c d2 3f 76 f2 b9 db 3e d5 86 3f
       0.28690223881076615 0.011148921089664681
000050 73 2c d5 8a fc bf a7 bf cc c5 3d 9a 13 d4 e5 3f
       -0.046386615702965005 0.682138253452814
000060 23 78 51 db cf ab e5 3f 40 e7 dd a7 34 e6 ab bf
       0.6772231372413028 -0.05449070500522035
000070 da 28 9f 62 86 a7 cc bf 4f e2 64 48 3a d3 e4 bf
       -0.22386245551599054 -0.6507846273371544

encoder.0.bias f8 [4]
000000 9b 9c ba 61 41 67 dc 3f 19 6c f7 0f d5 39 d2 3f
       0.4438022093185709 0.2847798019335542
000010 f0 c2 e6 b2 b3 23 de bf 6d 37 78 67 ce 70 c4 bf
       -0.4709290740093328 -0.1596925740454326

encoder.2.weight f8 [2, 4]
000000 a2 c5 5a 35 90 e6 e5 3f 0d c7 46 95 24 c4 dd 3f
       0.6843949358064274 0.46509661271839847
000010 0a 8f be 93 30 f8 c2 bf 25 43 56 33 be 97 e0 3f
       -0.148199150219732 0.5185233118701019
000020 4b 56 e6 67 fc 21 b4 3f 17 8a 9e 4a df ab db 3f
       0.07864358460059255 0.4323652485565232
000030 05 c9 0e 41 62 50 e8 3f d5 6c 84 26 72 75 ba bf
       0.7598124762210153 -0.1033545822178213

encoder.2.bias f8 [2]
000000 55 08 8f eb fb 1f d6 bf d0 0e cf 48 9e a8 cb bf
       -0.3457021522882589 -0.21608332209699777

decoder.0.weight f8 [4, 2]
000000 b6 1f e2 1b b0 82 d5 3f c4 15 c9 68 e2 aa fa bf
       0.33610155795076524 -1.666719827001871
000010 18 30 e4 4a 44 12 ff bf 77 9a 21 7f ce 1e b8 bf
       -1.9419596600955682 -0.09422007182875257
000020 36 c0 94 e3 9f 26 f2 bf 33 1c 1b 58 9c df f6 3f
       -1.1344298257718157 1.4295924607884103
000030 d5 41 89 e6 1f 72 f0 bf 3f be 30 fd bd b7 f7 bf
       -1.0278624539679317 -1.4823589220285525

decoder.0.bias f8 [4]
000000 bb 6a 52 bd 55 41 e3 3f c6 74 05 40 8c 25 84 bf
       0.6017254541105425 -0.009837241843963073
000010 0c b1 06 0d bd 79 c4 3f ec b0 9e a1 1d 70 c2 bf
       0.15996516357461876 -0.14404650107952166

decoder.2.weight f8 [4, 4]
000000 e9 3a f6 74 8e 22 fb 3f 49 25 16 0e c5 e6 ec bf
       1.695936638719724 -0.9031701350333289
000010 9b e6 e9 a7 70 42 02 c0 ba 4e ed fc e6 c4 ed 3f
       -2.282441436601244 0.9302859249096038
000020 fa a9 ef 36 b6 f8 db 3f 33 45 7a a7 3b b9 d3 3f
       0.43705516209470796 0.30818072657810375
000030 aa 0c 01 69 36 df 95 3f 0b 0e 07 63 1c a9 d8 bf
       0.02135930076498186 -0.38532170935306514
000040 83 0a f5 77 1f 0d e7 3f 04 68 26 91 82 41 c4 3f
       0.7203519194520854 0.15824920737651393
000050 71 41 d5 e2 66 b2 cc 3f 08 8f ff e1 b1 50 d4 bf
       0.22419439388114484 -0.31742522306579746
000060 9b 3c 91 89 1b a1 dc bf 36 38 e1 07 db 31 fc bf
       -0.44733322557744665 -1.7621717746547012
000070 b2 e5 53 ab 22 b8 e0 bf d0 4c cb 8b 44 bf 04 c0
       -0.5224774690861322 -2.5933924600045444

decoder.2.bias f8 [4]
000000 66 fa 56 ff 76 7f de bf 93 57 6b 87 04 dd cd bf
       -0.47652983603976506 -0.2333074246623111
000010 2e b9 62 5f 1d 82 db bf 87 de 57 59 c7 c2 b8 bf
       -0.429816573286092 -0.0967220872042792

mu.weight f8 [2, 2]
000000 85 3e 51 eb 39 37 c1 3f 3c c1 47 c6 1f 10 f2 3f
       0.13449787130456428 1.1289365525554578
000010 c5 42 46 b3 8a 0b f3 bf 17 38 96 94 c8 4d af bf
       -1.190317821780057 -0.06114031614116316

mu.bias f8 [2]
000000 0b 78 d4 43 20 17 bd bf 68 fa ad 88 e6 76 cb 3f
       -0.11363412528996279 0.21456605600174616

gamma.weight f8 [2, 2]
000000 ad d9 f5 97 85 23 a1 bf a8 7c 32 f2 be 01 8b 3f
       -0.03347413520798468 0.013186923757812899
000010 f4 8f 81 87 98 fe 70 3f 0c d8 28 00 3b 58 91 bf
       0.004149051492365875 -0.016938135037172272

gamma.bias f8 [2]
000000 e2 0e 39 c6 40 a4 b0 bf 44 8c 33 45 3b 18 b1 bf
       -0.06500630225587714 -0.06677599372373871
