autoencoder_model/all_attributes/models/autoencoder_model_kernel_shape.pt (torch, 4495 bytes, 12 tensors)

encoder.0.weight f8 [4, 2]
0.025369708064498415 0.5150275147080859 2.1282503581224277 -0.0767433303652108 2.956262671433824 -0.059781638593336704 -0.0013034325695578885 0.4840708665049247
00000000: 55cb c849 84fa 993f b1c3 86fb 1a7b e03f
00000010: 5db0 ae1f a806 0140 e4cd 1a6e 73a5 b3bf
00000020: 0a8d 210b 6da6 0740 9bc0 51ed b29b aebf
00000030: e60d 9010 fe5a 55bf 3071 255f 04fb de3f

encoder.0.bias f8 [4]
-0.3246293105517063 -2.644136008546522 0.6804294813813382 -0.265923360577001
00000000: 7620 0904 bac6 d4bf fa10 97c7 3027 05c0
00000010: fd8b 380c 14c6 e53f afeb 3a6a e304 d1bf

encoder.2.weight f8 [2, 4]
0.5751620846991896 -0.7889832940103606 -0.6994860166483632 0.2944145011813797 -0.7142873847822317 -0.47069969266871703 -0.4078955269466825 -0.3468649688766062
00000000: 98d4 f550 ba67 e23f ddac 9be4 593f e9bf
00000010: f272 b07f 3062 e6bf 10b3 82eb afd7 d23f
00000020: c2b8 b237 71db e6bf 04f6 8f9a f11f debf
00000030: 8eec 1ad7 f51a dabf 49ff 5c20 0933 d6bf

encoder.2.bias f8 [2]
-0.03568927134285281 -0.09873193937523833
00000000: 8ea3 783a dd45 a2bf 1cf3 af12 7f46 b9bf

decoder.0.weight f8 [4, 2]
1.7373307199304053 6.864930220658344 3.108279870140898 -0.8784273779766342 -0.9019854104470008 -3.5298475086689485 6.879140250453527 -1.8601692230549134
00000000: e1fe 064c 1bcc fb3f d832 8c44 b075 1b40
00000010: f18f 28d6 c1dd 0840 f742 8abb 131c ecbf
00000020: 21d9 ea81 10dd ecbf 3bcd ccb0 203d 0cc0
00000030: 3b2e 8157 3d84 1b40 cdbe a0cd 40c3 fdbf

decoder.0.bias f8 [4]
2.3958993081370688 1.0066767092661082 1.120222474414013 -2.4011299614056716
00000000: 72a9 a741 cd2a 0340 da15 7f09 591b f03f
00000010: 5ca3 bd66 6eec f13f fe76 0da0 8335 03c0

decoder.2.weight f8 [2, 4]
0.04298468894374494 5.790559955625877 -0.08281395457299492 4.778436152338374 -4.359748387061199 0.02777825551095972 5.099838972649996 -0.034997429365512
00000000: cdf6 7bd2 1602 a63f ecc2 8b8c 8829 1740
00000010: 121f 8b9a 4b33 b5bf 0245 e15d 1e1d 1340
00000020: ccdd 94e1 6170 11c0 2888 d62b e771 9c3f
00000030: 8697 0930 3c66 1440 a34c 23dd 2eeb a1bf

decoder.2.bias f8 [2]
0.109060399982633 -0.11453125548035109
00000000: 74ce 36e3 61eb bb3f 046e a89c eb51 bdbf

mu.weight f8 [2, 2]
-0.6905563489527061 -0.3224520930377271 -0.2744585157148404 0.8281447012062421
00000000: 5381 d9a0 0919 e6bf 21ec 871a 0ea3 d4bf
00000010: fba6 4673 ba90 d1bf 052b 0151 2980 ea3f

mu.bias f8 [2]
0.00720300811014272 -0.017369102813583125
00000000: 6a11 41c4 e680 7d3f 3349 2ec2 34c9 91bf

gamma.weight f8 [2, 2]
0.00275048698368156 0.018927945312487492 -0.009141565993378047 0.016373027533743315
00000000: 5957 9374 3088 663f f3f3 63e8 d861 933f
00000010: 1668 ce37 d0b8 82bf 51fd 2c47 17c4 903f

gamma.bias f8 [2]
-0.029828506020566962 -0.03815529398301482
00000000: fe32 6327 5d8b 9ebf a912 a737 1789 a3bf
