autoencoder_model/all_attributes/models/autoencoder_model_starts.pt (torch, 4623 bytes, 12 tensors)

encoder.0.weight f8 [4, 4]
0	0xbf8381d8ac03e63d	-0.009525006055343893
1	0xc00322ffe0962eea	-2.392089609702329
2	0xbf92a0931cdd78ab	-0.018190668713366758
3	0x40318ae87e10fda6	17.542610053203724
4	0xc04beb2e5888b837	-55.83735186267625
5	0xbf6b3f2a5c5a6322	-0.003326018081520125
6	0xbff05a2812249406	-1.0220108708101647
7	0x3f924acbb5df0858	0.017863448119676967
8	0xbf996cabcb29d49f	-0.02482860972891798
9	0xbffa4dbddfc82d67	-1.6439799062235012
10	0xbf7278c768d42660	-0.004509715026196653
11	0xbfdfbe66bdcfe6db	-0.49599617515887723
12	0xbf8f425b9ad57888	-0.015263286268858658
13	0xbf917be4c65b1539	-0.017074179274250787
14	0xbff2eae93b7bb88a	-1.1823513339582257
15	0xbf7f0edb0e0771d7	-0.007582526858155045

encoder.0.bias f8 [4]
0	0x3ff6a258ffa8a5e6	1.4146356569930219
1	0xbfe17b10a99c93bf	-0.54627259375831
2	0x3ff4348abff666e8	1.2628276346717318
3	0xbfb9e82e514724c3	-0.10119904980014653

encoder.2.weight f8 [2, 4]
0	0xc004397a5911b6ae	-2.5280653914004096
1	0x3f8ca64411521c8f	0.013989002016627587
2	0x3ffc83b224602747	1.7821523114129876
3	0x3f9252425be06e87	0.01789191900034706
4	0x3fb2537c510816c6	0.07158638933477865
5	0xbffa683b0fe813e4	-1.6504469510411974
6	0x3fb58770169ff373	0.08409786751140107
7	0x3fdf2137c4d8aeb4	0.4864024565056113

encoder.2.bias f8 [2]
0	0x3fed31e2e369ac20	0.9123396340995704
1	0xbfeb02113785f3a8	-0.8440023502768002

decoder.0.weight f8 [4, 2]
0	0xc01c62e25abbf1b3	-7.096566598626327
1	0xc00b6f65489fd0f1	-3.42939240205498
2	0x4012ff293d8e62de	4.749180757346691
3	0xc01f4537f3ccf6d1	-7.817596253762262
4	0xbffc468bafed7da8	-1.7672230598617293
5	0x40109fcfeb022cc8	4.156066581733462
6	0xc01a3ca357a56891	-6.55921685168336
7	0xc00c56b780b8817d	-3.542342191343947

decoder.0.bias f8 [4]
0	0xc003cfdf1505ade4	-2.476499714122598
1	0x3ffdd9a1d3b76edc	1.8656328458954965
2	0xbfdc703f559b9342	-0.4443510375988816
3	0xbf91f6619f659292	-0.01754143271809256

decoder.2.weight f8 [4, 4]
0	0x40007a60c94d34a3	2.059754917782429
1	0xc02240eeab7c23ee	-9.126820906547405
2	0x3fe789a2ac2642a3	0.7355512010854749
3	0xbff0a06c389882df	-1.0391657076617589
4	0x4024720f45e2e8b6	10.222772773693901
5	0xc00c4cd85fb9c11c	-3.537522075516007
6	0x3ffb9b9c2d656068	1.7254907391816463
7	0xc0181fb106596f0b	-6.030948733528713
8	0x400202fe7d8b3f93	2.251461964427969
9	0xc01f4946e2297e19	-7.821559461386209
10	0xc01b762b647e429b	-6.865399904447851
11	0xbfe5f7c7db7a18d2	-0.6864966665896424
12	0x3ff708c592cad682	1.4396415456843958
13	0xc00a57ab075754ea	-3.292806680061962
14	0x3ffd8f3d146c4703	1.8474703595897501
15	0x401fea257a5b06e0	7.978658592038954

decoder.2.bias f8 [4]
0	0xc023a5fabbd142d2	-9.824178571028288
1	0xbffd9c14354ee298	-1.8506052095746437
2	0xc023586070d1659d	-9.672610784112118
3	0xc0257ebf4bdb1588	-10.747553225034395

mu.weight f8 [2, 2]
0	0x3fca17027824e82f	0.20382719866194196
1	0xbfce3196655896bd	-0.23588828991448976
2	0x3fbcfed44bc44b29	0.11326338624739364
3	0x3fdc2441a94488c7	0.439712920475483

mu.bias f8 [2]
0	0xbf94eb9e46712fbf	-0.0204300623411624
1	0xbfa873ffe2d63d3c	-0.04776000637059005

gamma.weight f8 [2, 2]
0	0x3f986a37068bd1a4	0.023842677855059016
1	0xbf94931ad17773b0	-0.020092410120799264
2	0x3f9ade6a8410668c	0.026239075003195597
3	0xbf8d7b26280766ed	-0.014395044418893355

gamma.bias f8 [2]
0	0xbf6726259019aca3	-0.002825806965849846
1	0xbf6d8a51133cfc96	-0.003605993604565659
