autoencoder_model/all_attributes/models/autoencoder_model_axes.pt (torch, 4623 bytes, 12 tensors)

encoder.0.weight f8 [4, 4]
-0.5914913530612522 -0.18853023829985824 -0.843046123039403 -0.4735436770158033 0.08109508188583434 -0.003263592288319964 0.2974956701696443 -0.5899030382925831
-0.5001343418531048 -0.17107024998611117 0.7153749088658425 0.4127750327889809 -0.02096034791012172 -0.005302347883513666 0.41904896979276796 -0.7518203583293019
00000000: cc79 2846 7fed e2bf 8309 e743 c221 c8bf
00000010: 9929 efdc 3bfa eabf 69ab 8023 8a4e debf
00000020: f6eb 90b4 a5c2 b43f 077e aac4 3fbc 6abf
00000030: 6822 8547 2b0a d33f c1e2 2856 7ce0 e2bf
00000040: beb2 3bbc 1901 e0bf 5f23 8144 a1e5 c5bf
00000050: 16a6 beeb 59e4 e63f abc6 9bf8 e76a da3f
00000060: 08a3 2523 a176 95bf e2fc 062c eab7 75bf
00000070: f0ac 2bc5 b2d1 da3f 2ab9 6f91 e90e e8bf

encoder.0.bias f8 [4]
0.26695283322006047 0.6801288034943946 -0.7400473034875515 0.0702013201102991
00000000: 0a4d 1056 c115 d13f e26e 027b 9dc3 e53f
00000010: cb1a bfae 77ae e7bf bf7f 02b6 b6f8 b13f

encoder.2.weight f8 [2, 4]
-0.23684574727914984 0.5003918230185297 0.1464888634471854 0.7083215087628316 0.5915202636575144 0.1936694428789954 -0.5281047163479491 0.08645966157763853
00000000: 4f5c 6121 f650 cebf eb9c 61b6 3503 e03f
00000010: 7def dda6 25c0 c23f 5812 66de 91aa e63f
00000020: ff91 6ae7 bbed e23f 7a2d b309 29ca c83f
00000030: 527d b2dc 3be6 e0bf 0131 e66a 3822 b63f

encoder.2.bias f8 [2]
-0.27468360493117117 0.16297875448050178
00000000: 1c50 fb8a 6a94 d1bf 7be1 37e2 7cdc c43f

decoder.0.weight f8 [4, 2]
-1.0802105827111066 -0.4991853240739497 0.36255008918343645 -2.6237014794143114 1.0665513614787145 0.2796531648446453 -0.42751349253904397 2.219977003717349
00000000: ce98 58e4 8a48 f1bf 119c 6200 a7f2 dfbf
00000010: 821a 0d4a 0534 d73f 0869 8433 57fd 04c0
00000020: bae2 1029 9810 f13f f2c2 4e63 d6e5 d13f
00000030: a773 438d 615c dbbf 66b4 a64d 83c2 0140

decoder.0.bias f8 [4]
0.10784961705395467 1.0750932679353773 0.225140359299713 0.8082851314712332
00000000: 0f03 2252 089c bb3f 56ea 9eff 9433 f13f
00000010: b8d9 1938 66d1 cc3f 5c62 b0c7 78dd e93f

decoder.2.weight f8 [4, 4]
-0.1531164254257459 0.7202480608412498 -0.30530247713593395 0.7075076358891493 -0.20368347413676718 0.13811274885539876 -0.17191797450782292 0.19450709008079142
2.393706316994155 1.7302410593850661 -0.4878991500238096 -2.1561902135690842 -3.3872926607953846 1.4795419800656515 2.1635700545453753 -1.8337068628109052
00000000: 5d8d d7ab 5199 c3bf 3e42 4aa9 450c e73f
00000010: a6f1 ab66 138a d3bf b30d ba0d e7a3 e63f
00000020: 0698 13d2 4c12 cabf 064f bfb5 adad c13f
00000030: 4e86 0d7f 6801 c6bf 1e5a 5ebb 9be5 c83f
00000040: 7fbf 5d7f 4f26 0340 8415 c43f 11af fb3f
00000050: 2b4d 465b bd39 dfbf 33e0 99a7 e03f 01c0
00000060: a7c6 00e5 2c19 0bc0 920e 1736 34ac f73f
00000070: c204 17d1 fd4e 0140 da93 e301 dd56 fdbf

decoder.2.bias f8 [4]
-0.6984908303309151 -0.17186816345164774 -0.14243866165084812 -0.095661111569996
00000000: 2378 1a71 095a e6bf e2cb 9fa6 c6ff c5bf
00000010: befa bc18 6e3b c2bf 1730 b121 3f7d b8bf

mu.weight f8 [2, 2]
-0.9588016177863912 -0.5609845440038155 -0.44405254776270253 1.1209562331690746
00000000: 78d2 f7ba 80ae eebf fed9 c1db 95f3 e1bf
00000010: 8a29 9660 5b6b dcbf 1f56 9bcd 6fef f13f

mu.bias f8 [2]
0.04221173072734804 -0.12171754937829399
00000000: 8b89 f6a5 c69c a53f 6cd5 ed9d e128 bfbf

gamma.weight f8 [2, 2]
-0.009877883930278298 -0.008414025366720352 0.023835652896576676 -0.002083123120735816
00000000: 2d4d 7923 db3a 84bf d7e3 385e 5f3b 81bf
00000010: cdac ad96 5f68 983f 5fd1 aa35 a010 61bf

gamma.bias f8 [2]
-0.08268169021313825 -0.07989200417167809
00000000: c384 7193 a02a b5bf b916 2169 cd73 b4bf
