autoencoder_model/all_attributes/models/autoencoder_model_keepdims.pt (torch, 4367 bytes, 12 tensors)

encoder.0.weight f8 [4, 1]
00000000: 17b9 8903 16f2 f63f 68ac e121 9354 983f
00000010: 3fe9 d430 0865 703f 59e5 df2a 8346 903f
1.4341030252649654 0.02376012701317301 0.004002601618873946 0.015893983356339934

encoder.0.bias f8 [4]
00000000: 4ee3 dfb4 f922 e7bf 1b1b b661 65d1 82bf
00000010: bcb5 1ec0 43bc 62bf f906 ba78 1bfa 77bf
-0.7230194599825184 -0.009188453716672698 -0.0022870372058238757 -0.0058537552937438725

encoder.2.weight f8 [2, 4]
00000000: 27c5 bcbd 2158 f5bf 3312 c96b 782e 66bf
00000010: e01c 3626 64ee 32bf 29ad 99ac 35d6 62bf
00000020: 4aa4 6ed6 e7d8 7dbf 0029 cbf7 8a29 abbf
00000030: c4a4 b104 be38 b33f d62e 6be5 d1be 843f
-1.3340165530792747 -0.0027077056859375003 -0.0002888674263989543 -0.002299408752880834 -0.007286935439801809 -0.053051321743241786 0.07508456816289583 0.010129585088541598

encoder.2.bias f8 [2]
00000000: 86d1 4748 9a1a 96bf 6a5c 1aae b11b 633f
-0.021585856115011313 0.0023325414957287476

decoder.0.weight f8 [4, 2]
00000000: 8004 9398 08fc 8abf 2669 9297 eb23 0f40
00000010: c87d 0783 756e ddbf f65e 4015 2c13 d5bf
00000020: 9c94 39ca f21c e2bf 39c8 26a5 10f3 e03f
00000030: 205e 138a adf7 be3f e4c6 829e b4a6 0c40
-0.013176028400609718 3.8925391999774943 -0.45986688419176547 -0.32929517817818466 -0.5660337400155586 0.5296710229506579 0.12096676465022727 3.5813991912517498

decoder.0.bias f8 [4]
00000000: 39c0 2d59 522d febf 1fb7 7ca2 2f9a d93f
00000010: 8ad0 706d 35e6 dc3f 4601 e2c4 79d2 fc3f
-1.8860648616355447 0.40003577106368654 0.45155082404677016 1.8013856592879889

decoder.2.weight f8 [1, 4]
00000000: c00a f69a f9fc 0640 f2ca 6862 7682 f6bf
00000010: 99d8 79b0 8961 ee3f bcd0 8486 6cce 0740
2.8735229593597467 -1.4068511814227205 0.949406475715267 2.9757929333955797

decoder.2.bias f8 [1]
00000000: ef2b d3a6 9aa1 b03f
0.06496588299630422

mu.weight f8 [2, 2]
00000000: 1d54 0e01 7f7a a0bf f0b3 9fe5 8d70 abbf
00000010: d366 d500 06c7 e9bf bb4a 0c15 cf0a 5fbf
-0.03218457115068694 -0.053593096046689825 -0.8055448547631506 -0.0018946668898861946

mu.bias f8 [2]
00000000: 64a1 7b77 c31d 513f 9a3a 13e1 8d28 7cbf
0.0010446938376223675 -0.006874613013862297

gamma.weight f8 [2, 2]
00000000: 9b02 610b 213e 6e3f 20b6 bb1c ab47 adbf
00000010: deae f2d2 6fb0 97bf 7aec 9061 5972 99bf
0.003691734828891247 -0.05718741155383733 -0.02313399052643105 -0.024850269870722454

gamma.bias f8 [2]
00000000: b1ee 9a14 3e52 6d3f 5a53 0da5 1f82 cbbf
0.003579255343394504 -0.2149085575025776
