autoencoder_model/all_attributes/models/autoencoder_model_group.pt (torch, 3969 bytes, 12 tensors)

encoder.0.weight f8 [4, 1]
00000000: bf77 0300 f671 0bc0 c6ee 7803 62ee f83f
00000010: f201 e004 33b0 2bc0 dc0e 2baf d3ca 2bbf
-3.430644989114597 1.5581989417686812 -13.8441392444083 -0.0002120383647562428

encoder.0.bias f8 [4]
00000000: 803f 1ea6 dd65 0d40 c2cd 3c5a bc88 aa3f
00000010: 558d 6f09 3c95 edbf acdb 57d3 1ac8 343f
3.6747391679745647 0.05182446099788819 -0.9244671043674467 0.00031710295601732985

encoder.2.weight f8 [2, 4]
00000000: c42f 7c91 cb87 dabf b1c8 10ee 397f e03f
00000010: 78ac d1ed c526 eabf 8b96 37b8 1924 1c3f
00000020: d124 a0e4 05db 19c0 e709 34b0 d12c 0140
00000030: 0b1e 2858 3fdc e73f 55ad 874a ee07 663f
-0.4145382805588691 0.5155305528371824 -0.8172330517676434 0.00010734946231812975 -6.463889667772677 2.146884323680968 0.7456356736956321 0.002689328586929977

encoder.2.bias f8 [2]
00000000: c472 f991 568a e7bf 1b48 19e2 16a5 f3bf
-0.7356369830191274 -1.227805026243465

decoder.0.weight f8 [4, 2]
00000000: 31cb 7660 6f56 1840 ab50 8448 5f3f eb3f
00000010: 92fe 4b6c 6266 2140 3cda 53d3 970e c2bf
00000020: cd08 5e85 6c85 2c40 4139 2ade cb80 e3bf
00000030: f024 74b0 628d 3c40 cfe6 6daa 527f 903f
6.084409243822663 0.8514858642906992 8.699969658161795 -0.14107034510353056 14.260593574265295 -0.6094722117575558 28.552287128787555 0.016110698368243356

decoder.0.bias f8 [4]
00000000: 0a9d 4fa9 0a11 a3bf 10df 7325 cf80 dc3f
00000010: d5c5 a122 cd5e ec3f b11e a21c 9b95 fdbf
-0.037239392440648514 0.44536188752634676 0.8865724254994186 -1.8490248793113262

decoder.2.weight f8 [1, 4]
00000000: f782 bd5d a7c5 f9bf b52d 7133 b39b 0fc0
00000010: d3f6 af73 ac88 08c0 418e 3507 1728 10c0
-1.610755315945594 -3.951025392428813 -3.0667351759028434 -4.0391503454625886

decoder.2.bias f8 [1]
00000000: f23b db74 4684 b0bf
-0.06451835968913125

mu.weight f8 [2, 2]
00000000: 94a8 4b05 0b51 babf 4977 50fa bb25 d5bf
00000010: e496 b794 227c 563f acf8 aaec 8ed0 8f3f
-0.10279911879811926 -0.3304281181789191 0.0013723695473059567 0.015534512136010946

mu.bias f8 [2]
00000000: a627 bb3c e7ef d4bf 391e 60d7 1a18 933f
-0.3271425335957424 0.018646640201067852

gamma.weight f8 [2, 2]
00000000: d0c7 8b8c 0bbc 11bf 7bab 3a2a 26fc 643f
00000010: dee4 e318 e3d0 fb3e df43 71e5 7a55 f03e
-6.765194406080301e-05 0.0025616403016405754 2.6527371624650356e-05 1.5577227113819952e-05

gamma.bias f8 [2]
00000000: c908 e66d 2e3b 653f b0ea bfd2 3eb3 013f
0.0025916964361281975 3.376040908161426e-05
