autoencoder_model/all_attributes/models/autoencoder_model_alpha.pt (torch, 4367 bytes, 12 tensors)

encoder.0.weight f8 [4, 1]
000000 40 40 1c d4 a8 13 1d c0 ec 65 24 ac a6 e9 f1 3f
       -7.269198717331221 1.1195437168411173
000010 03 ac 8f 11 73 2f eb bf 97 9b 6a d3 52 57 37 3f
       -0.8495421736710117 0.00035615703692786757

encoder.0.bias f8 [4]
000000 ff ee b2 45 fa 95 e4 bf 90 e9 e4 3f e5 86 f4 bf
       -0.6433078156764792 -1.282933473192859
000010 48 92 b9 db 70 8a e5 3f 19 67 20 cb 93 07 2f bf
       0.6731495181562162 -0.00023673705214904346

encoder.2.weight f8 [2, 4]
000000 e9 76 10 91 3f 6e d8 bf c5 7e 46 3e 09 b5 12 c0
       -0.3817290226596542 -4.676793072750745
000010 c5 0f b8 72 4f 5c 15 40 f4 6c 7c b9 8d 02 33 3f
       5.340146820530156 0.00029006919929637433
000020 d1 34 1e 09 64 98 e2 3f 97 f6 81 46 15 07 b4 bf
       0.5811023881994065 -0.07823307963732372
000030 8f 7e 48 25 06 65 d9 3f b0 6c 63 b5 f4 e6 1c 3f
       0.39679101601539285 0.00011025303442428985

encoder.2.bias f8 [2]
000000 b9 71 30 b4 19 eb f0 3f 16 7f 8f a5 0c 48 d7 3f
       1.0573975599901202 0.363772546463211

decoder.0.weight f8 [4, 2]
000000 f1 16 b6 cb 8d 2d 17 c0 d7 bc cd 2b 9f 3e e3 bf
       -5.794486220349186 -0.6013942580738342
000010 11 74 f8 63 ad 02 17 40 1e 47 aa e2 ba 35 d1 bf
       5.752614557303802 -0.2689044202353318
000020 84 02 66 1c e1 c3 16 c0 c9 fb 01 05 ce 0f b9 3f
       -5.6912884175550325 0.09789741155871846
000030 6b 1b 5b fc 8b d0 16 40 bc 5a 60 a5 f8 23 c0 bf
       5.703659003315674 -0.1260977561475637

decoder.0.bias f8 [4]
000000 29 1e 82 c0 80 39 c3 bf 75 35 99 b9 ce 80 b9 bf
       -0.1501923503858376 -0.09962169676983541
000010 dc d0 08 3f c7 09 aa 3f 95 00 e8 14 64 51 93 bf
       0.050855852551110664 -0.018865169311539438

decoder.2.weight f8 [1, 4]
000000 72 dc 03 7f 5f 0c 0a c0 a1 59 7d df a3 7a 0d 40
       -3.256041519456226 3.68488287545479
000010 0e 13 09 9a bf 4e 0c c0 48 a3 28 53 52 51 13 40
       -3.53845138874238 4.829415606837593

decoder.2.bias f8 [1]
000000 4c 87 70 e0 1b 20 c2 3f
       0.14160488566363438

mu.weight f8 [2, 2]
000000 31 c3 24 0d 45 6f cb bf 55 d2 f0 b5 d2 e4 c0 bf
       -0.21433318273332128 -0.13198312648605062
000010 6d c9 40 a8 b8 52 70 3f 79 27 e3 61 28 25 51 3f
       0.003985139195764692 0.001046456752691742

mu.bias f8 [2]
000000 3d ca 5a 55 60 30 ca 3f 4d 3d a7 ce 21 cd 6a bf
       0.20460132758815233 -0.003271642713322065

gamma.weight f8 [2, 2]
000000 21 77 e7 26 16 bd 3d bf 8a 40 5c 3b 9a 52 43 3f
       -0.000453775318332338 0.0005896809659322749
000010 9e cf 7c c7 ce 1b 41 3f 74 65 99 2a 70 1a 1c bf
       0.0005221137680337833 -0.0001072054825725

gamma.bias f8 [2]
000000 38 58 ad db f3 6d 48 3f b2 13 8f c8 9c 9a 41 bf
       0.0007455292428442178 -0.0005372300666911438
