autoencoder_model/all_attributes/models/autoencoder_model_output_shape.pt (torch, 4623 bytes, 12 tensors)

encoder.0.weight f8 [4, 4]
00000000: abc2 dbda 61b4 10c0 b180 cd1c a2ac 01c0
00000010: 10ad 6904 f9e7 14c0 af6a 97c9 84c4 c23f
00000020: 6150 2127 4e66 dabf 70ef dc12 bb9b cb3f
00000030: f9e9 ea60 cfd5 df3f 2811 97d8 6a43 f03f
00000040: 7f61 deb2 dd68 b0bf 7331 ddef eef8 b3bf
00000050: 3f23 8663 df9f d4bf 8790 49ca 9f6d c43f
00000060: 4cbe 0ef1 0f33 d9bf f3ca 4648 71d1 6cbf
00000070: 988f 0f1f 8cce b03f 1c95 a377 1351 cabf
-4.176154536879646 -2.209293580075688 -5.22653586287494 0.14662227481206488 -0.4124942190294459 0.21569002553030314 0.4974249311887032 1.016459318213558
-0.06410012833510413 -0.07801717144065438 -0.3222578498758146 0.15959546449005677 -0.393741593749813 -0.003517838720847316 0.06565166242904608 -0.2055992445158744

encoder.0.bias f8 [4]
00000000: b9d7 1d8e fc51 e2bf 94e6 075e d08b db3f
00000010: 6a9e 82b9 da40 d6bf 7b2b 4c25 1f3d aabf
-0.5725081229891124 0.4304085653562677 -0.3477083980201089 -0.05124757128040521

encoder.2.weight f8 [2, 4]
00000000: 550f 83ee f496 d93f 5d90 b7c8 8e37 c73f
00000010: d8bc 8a6c 405f e73f b9ea ed48 99b9 d73f
00000020: 86f1 71cc 16ee cdbf fab3 42d6 2ab7 f23f
00000030: 6529 4059 3460 953f f310 dc8b 3b64 d4bf
0.39983866970236664 0.1813829879821495 0.7303773994407505 0.3707030498696145 -0.23382840140028466 1.1697185868790698 0.020874803492952582 -0.31861771257560106

encoder.2.bias f8 [2]
00000000: ee76 e903 89e1 ab3f f441 be0a 54bd b93f
0.054455072143111724 0.10054517042431838

decoder.0.weight f8 [4, 2]
00000000: 9e76 4a07 a218 1dc0 c416 2ae8 e625 f23f
00000010: 8c02 e16e 2fe5 1340 6a2e ceb4 ec4c ec3f
00000020: 445e ee3d 23cc ee3f e789 265b 354d 1240
00000030: 4519 ec68 d61d ce3f e519 1eaa b794 16c0
-7.274055589599497 1.1342534130975972 4.9738137554965185 0.8843902140956292 0.9624191484062483 4.575398849703993 0.2352855694118238 -5.64523187454913

decoder.0.bias f8 [4]
00000000: 1887 8c67 5b7f b7bf 272e d180 2d48 e4bf
00000010: ee84 b060 e2b1 e5bf a862 1df2 d353 d5bf
-0.09178706434297756 -0.6338107601126851 -0.6779643906085349 -0.33324144977590686

decoder.2.weight f8 [4, 4]
00000000: 07e2 8a5e 68a4 0dc0 be2e 6915 1e95 f73f
00000010: cb3d 5518 3431 d0bf 67c3 0ffb d9b6 0440
00000020: e20a 85b4 3d79 f2bf 34c5 17c5 fbb2 e43f
00000030: 4ffd 8efd 5da8 e03f a0cb 900b 49c2 e0bf
00000040: 932d f7ee fb23 0ac0 b762 f797 45f2 0440
00000050: 0a20 18c8 f601 ed3f 5d6c 1980 2ac0 f2bf
00000060: 7acd fb6f df5d 7dbf ef41 6a44 ca85 f73f
00000070: 3391 ad3f f5b2 1440 38a0 37a3 7d0d 13c0
-3.7052771936544135 1.4739056431161965 -0.2530031430842114 2.5892829527078223 -1.1545998622465778 0.6468485688657553 0.5205526306453211 -0.5237164712801707
-3.2675703686888453 2.618296801793203 0.9064897449579814 -1.1719155315284049 -0.007169602205738252 1.4701636002029053 5.174763674706173 -4.763174581785329

decoder.2.bias f8 [4]
00000000: 0ef1 dc7e 9223 f0bf 3c75 ff54 1222 ecbf
00000010: 6ea7 68a5 a222 eabf 86da 6db1 55af e2bf
-1.0086846309268966 -0.8791591320147414 -0.8167279463425368 -0.5839031663334289

mu.weight f8 [2, 2]
00000000: 9c7f 6882 42c7 e4bf a702 9bb2 ac20 d43f
00000010: cb44 ed13 d0c8 d33f 051e 6a2c d4be e33f
-0.6493237063441373 0.31449429933494816 0.3091316408727606 0.6170445315810303

mu.bias f8 [2]
00000000: a916 07d7 30fd e1bf 4d30 27dd d8ca d3bf
-0.5621570777663766 -0.3092558059404425

gamma.weight f8 [2, 2]
00000000: a480 47da 0647 acbe 9ccc b1d3 9c4e dbbe
00000010: 8644 faa7 e851 d53e 80c9 074b a638 d63e
-8.427336309312257e-07 -6.510515329616287e-06 5.0830736878652954e-06 5.297967775141194e-06

gamma.bias f8 [2]
00000000: 0733 7b60 ffdb c63e 6370 4ab2 770b d1be
2.725048719875981e-06 -4.063795846189711e-06
